results/SeekerAgent/SeekerAgent/SeekerAgent-3264.onnx (onnx, 344226 bytes, 12 tensors)

101 f4 [1, 256, 128]
00000000: 80c7 a7bd 424e be3d c366 1fbe f889 8ebc
00000010: 1d41 c4bc dc24 6dbd 3b56 e2bb 930d 9cbd
00000020: 9755 533d a44f eb3c cb28 973d eaf9 2abd
00000030: 7e36 c73b 0ef0 ed3b 5ab7 2ebe a3e8 ea3d
00000040: 8699 c3bd f14e d2bd 9133 2dbe 0edd 2ebe
00000050: 7578 993d 3a83 8d3d 0dd8 ba3c 1776 453d
00000060: 0f0d 2dbe 124e 0abd ca02 f73c 3e8f 1bbe
00000070: e284 36be b2e5 2e3d 3d06 1ebe ae7e e23d
00000080: 00f1 ba3d 6b92 07bd a69e 1d3d 274b bfbd
00000090: cb1b 993d 048c b63d a649 9bbd a8fa b6bd
000000a0: 574b 6b3c a39d e43d cc9f 273e 936c af3a
000000b0: e518 8e3d 8068 1ebd 4e36 19be 90ca 0cbe
000000c0: a87e d0bd d38d 27bd d809 0bbd e09c 093e
000000d0: 1b93 9a3d e060 2f3e fb1b 90bd 73ee 12be
000000e0: ae9d fb3b a2ba 21be cc8e 023e 6119 2a3e
000000f0: d5ca 1dbe 9ed0 14be 74b7 23bd 4e6e 03be
00000100: 7b33 25be 962d 6cbc cc99 8cbd 5c52 0b3e
00000110: 2007 293e 60f6 9cbd baba f7bd 8c0c 76bc
00000120: a466 bfbd 50af b4bc 6fb5 8b3d 79fe 123e
00000130: ea48 e73d ad9e a9bc bb34 2d3e 9c06 2dbe
00000140: e1f9 033e 4272 2dbe a72c 26be b949 cd3d
00000150: ed8a 83bd 8b12 293e b508 303e de88 e53d
00000160: 22de 633d 8d60 4dbd 557d c73d ac30 2abd
00000170: 9cba 143e db35 3e3d 17f4 14be 7efa afbd
00000180: c7ab 17be 77c2 81bd 6e71 bd3d f266 de3d
00000190: 4996 913c f4e4 1cbe da01 0ebe 4f50 ed3d
000001a0: 1bda 10be d688 01be b130 8ebd 820a 0c3d
000001b0: 6602 353e 66aa 10be 517c 053e d2cc 2e3e
000001c0: 3819 e83d 1911 d83d 6278 ccbd e2d5 263e
000001d0: 2989 dfbd 6138 d5bd 7b33 51bd 1466 9b3d
000001e0: 29b7 cebd dc1d 00be 362f 7bbd f7d3 0bbe
000001f0: 9430 ec3d 0ccb dbbd 1eb2 bc3d 202d 64bd
00000200: a96e 263e 33ea 69bc 5fcb 413d f7d2 0f3e
00000210: 3b64 023e 3099 183e 4aa2 09be d8c0 7f3d
00000220: 8850 413d 8def 713d 7e8b 58bd e654 30bd
00000230: 6ee1 123e ab42 96bd fd77 33be 836c 70bd
00000240: 91f3 d83d 5f1e b4bc 52b7 e3bd 7cd9 eebc
00000250: 6665 03be c0f7 313e 0b6f 9b3d f858 17be
00000260: 863e 2e3e d21c b8bd cdfd e93c 1d80 8d3b
00000270: f055 e83d 4e04 313e e8bc 86bd a604 d83c
00000280: 04fa 833d 6ee1 28be 898c 113e 966d a73d
00000290: b3f8 62bd a861 c7bd ad22 7abd 5d38 7bbd
000002a0: 88c3 a33c 5ed7 fe3d 5a84 0b3e 243f 22be
000002b0: 2133 eb3d 76a6 a43d d673 6ab9 1574 823d
000002c0: 59f5 19be 1063 0f3e 839f 1bbe 98d6 f5ba
000002d0: 7d5b 0d3b 267a 243e 3732 5d3c 7d78 12be
000002e0: b810 443d 21cf d5bc 1b7f bc3d f004 f43c
000002f0: d5ea 323d e1dd c33d fab6 2ebd da18 e23c
00000300: 92f2 8dbc 5f40 a63d f92c 26be 20bb 293e
00000310: 0370 2e3e 13c6 12be c596 243e 1897 553d
00000320: 09cf 863d 63aa b1bd b5b3 3abd ec9d b5bd
00000330: 5264 073e e1f2 52bc 7b89 75bd 03a3 0f3d
00000340: ce73 eebd d3cb b53d 63f0 fd3d c525 11be
00000350: deed bb3d 8493 edbd b9a3 da3d 7bfc efbd
00000360: e338 083e af30 cebb ec7a 213e a251 bc3d
00000370: 0474 f13c 3a1e 9b3c ce9e 4fbd e451 75bd
00000380: 3537 c0bd 7a0f 0dbe abdc 083e 5862 b13d
00000390: 36c3 233e 9e1e c2bb 5ace 3c3d 58fc 023e
000003a0: b211 f5bd a2fe 263e 7540 14be d725 20be
000003b0: f080 3fbd 06a1 abbd bfd9 b73d 6e4c 9dbd
000003c0: 6a63 afbd 1745 29be e7d8 673d 7450 06be
000003d0: 7ce9 d7bd 93ee d3bd 7ec2 6e3d a678 36be
000003e0: a4ba 0dbe a92e 84bd f580 273e bf47 17be
000003f0: cdf5 bd3d a0bb 2abe 6b1b 25be 5bad 493d
-0.081923485 0.0929227 -0.15566544 -0.017399773 -0.02395683 -0.05789648 -0.006907252 -0.076197766
0.051595297 0.028724499 0.073808275 -0.041742243 0.006079494 0.0072612828 -0.1706213 0.11470153
-0.09550767 -0.10268963 -0.16914202 -0.17076513 0.074936785 0.06909795 0.0228081 0.048208322
-0.16899513 -0.03376586 0.030152697 -0.15191361 -0.17824128 0.042699523 -0.15432067 0.110593185
0.09127998 -0.03309862 0.038481377 -0.09340506 0.07476004 0.089134246 -0.07582407 -0.08934528
0.014361224 0.11162879 0.16369551 0.0013383798 0.06938342 -0.038673878 -0.14962122 -0.13749146
-0.10180408 -0.04090674 -0.033944935 0.1343875 0.075475894 0.17126799 -0.07036587 -0.14348774
0.007678709 -0.15793851 0.12749785 0.16611244 -0.15409406 -0.14532706 -0.039969876 -0.12835047
-0.1613292 -0.014415165 -0.06865272 0.13605636 0.16506624 -0.0766418 -0.12096162 -0.01501764
-0.09345749 -0.022056252 0.06821715 0.14354886 0.11293204 -0.020705545 0.16914646 -0.16897053
0.1288829 -0.16938117 -0.16227971 0.10023827 -0.06422982 0.1651098 0.17190821 0.11207746
0.055631764 -0.050140906 0.09740702 -0.041550323 0.14524311 0.04643808 -0.14546238 -0.085926995
-0.14811622 -0.06335919 0.092501506 0.10859479 0.017771857 -0.15321714 -0.13867894 0.11587583
-0.141457 -0.12649855 -0.06942881 0.03418971 0.17676696 -0.14127502 0.13035704 0.1707032
0.11332935 0.10550136 -0.09983899 0.16292527 -0.10914833 -0.10411144 -0.051074486 0.07587829
-0.10093529 -0.1251139 -0.06132432 -0.13655077 0.11532703 -0.107320875 0.09213661 -0.055707097
0.16253151 -0.014277029 0.04731309 0.1404532 0.12733547 0.14902186 -0.13440815 0.06243977
0.04719594 0.059066344 -0.052867405 -0.043049715 0.14343807 -0.07336935 -0.1752624 -0.058697235
0.105933316 -0.021987138 -0.1111895 -0.029156439 -0.12831649 0.17379665 0.07589539 -0.14780033
0.17016038 -0.08989872 0.028563404 0.004318251 0.11344516 0.17286798 -0.06579 0.026369404
0.06444171 -0.16492245 0.14213766 0.08175199 -0.05541296 -0.09735423 -0.061068226 -0.06133305
0.019990698 0.12443422 0.13624707 -0.15844399 0.114843614 0.080395624 -0.00022359131 0.06369797
-0.15034999 0.14002633 -0.15197568 -0.001875597 0.0021569424 0.16062221 0.013500742 -0.14303775
0.047867507 -0.026099743 0.09203931 0.02978751 0.043680985 0.095638044 -0.04265497 0.02759974
-0.01732758 0.081177466 -0.16228093 0.16575289 0.17034917 -0.14333372 0.16073139 0.052146047
0.065824576 -0.08675077 -0.04558154 -0.08868012 0.13221863 -0.01287529 -0.059945565 0.03506757
-0.11643182 0.08876767 0.12399366 -0.14174564 0.09176229 -0.11600402 0.10675759 -0.11718079
0.1330295 -0.0062924246 0.15769547 0.09195258 0.029474266 0.018935312 -0.050688557 -0.05989255
-0.0938553 -0.13775435 0.13365428 0.08661336 0.15992436 -0.00592406 0.04609523 0.12791574
-0.11966266 0.16308072 -0.14477713 -0.15639435 -0.046753824 -0.08380322 0.08977079 -0.076805934
-0.085638836 -0.16530262 0.05660334 -0.13116628 -0.105425805 -0.10348239 0.05829095 -0.17819461
-0.13840729 -0.06454212 0.16357787 -0.14773463 0.092753984 -0.16673136 -0.1612374 0.04923759

102 f4 [1, 256, 64]
00000000: 74fb dabd 53e7 653d 3c6e 103e 626b 3bbe
00000010: aa8b fdbd 345c 173e 2582 d33d 12ae 033e
00000020: 8c3b 4fbe 6ef9 d93d 7c3a 03bc 723f 2dbd
00000030: a372 bbbd 0c20 263e 9a03 25bd 4bb7 41bb
00000040: d927 963d 1877 593e f0d2 f53d efb1 633d
00000050: 664c f33d 5063 143e 4833 5cbc 654f 18be
00000060: 0cc2 5cbd e1d6 19be e0f4 43be 5939 e73d
00000070: dfc6 3cbe c650 2e3e b5a4 8e3d dfa8 42be
00000080: ac87 83bd 419c 183e 0c43 01be 7d14 43be
00000090: 72b0 1e3e fd6c f13d 7730 043e 3c4a 18bd
000000a0: f874 c8bd 1c0c 26be 2cb5 e73d de75 343d
000000b0: 9a39 1bbd 0848 a9bd 846d 13be f47e 2e3e
000000c0: b581 42be 2666 f7bd 6a7b fb3c c7b3 403e
000000d0: 1a1f dfbd 5588 13be 29a8 4ebe ccee 183e
000000e0: 9d94 613b 8b84 13be 6895 b9bd bb80 023e
000000f0: 3222 9ebd 33bc 17be af33 593d 4635 313e
00000100: 7509 5c3e d18c d5bd a25a d43d 5923 ee3a
00000110: 351e 453e e4e7 4dbe 4e2f 9cbd 45a0 573d
00000120: e592 3bbe 512a f63d 49db de3d 8f74 083e
00000130: b462 ce3d 87e2 4abe 0d17 18bd f080 f83d
00000140: bd0c 583e 140f dcbd dc0a 5dbd e825 afbd
00000150: 0a11 36be d37c 443e b936 2bbe c6f7 c93d
00000160: 6c06 1e3d 324d 4abe 0a30 193e 5733 023e
00000170: 9b86 a5bd 9c45 a7bd 465d 55be 3d04 943d
00000180: f569 c4bd 1682 d8bd 3ba9 0d3e 2b98 f8bd
00000190: 8bb1 25be 0dee e43b 6346 923d b484 423d
000001a0: a456 e9bd 4cfe a8bd 0dac 473e c45f 2fbe
000001b0: 3399 513e f1c3 4d3e 1bea 90bd 1fbb 2dbd
000001c0: e850 1ebe d593 22be 5a3b 6cbd 24f2 f03d
000001d0: 4e0c 573e 8fa2 53be cc18 49be cf3f 133e
000001e0: d82d 873c 14d0 f8bd e02b 56be 32d8 ccbc
000001f0: 41e5 5a3d 4a67 25bc 4646 debd fe77 8d3d
00000200: 1a31 d13c 974e 1bbe 8cd4 563e 72a3 11be
00000210: e227 3c3c 9b12 06bd 301e dbbd a54d 463e
00000220: 3c05 3e3d 18d0 29be 42c6 c63d 6488 69bd
00000230: fc1b 87bd 65ec 3ebe fdfe 293e 2915 843d
00000240: 6923 f6bc 6adf d93b c695 f5bb e87c 5bbe
00000250: afbb 313e 08a3 bcbd 8ba4 ba3d 9c36 babd
00000260: 7eeb 4e3e 8a44 393e 8ebe 00bd 2875 203e
00000270: 90a4 c23d ea4d c93d d06f 25be e8ac 123e
00000280: 1e78 c03d 9822 a6bd 4f1a 0d3e ed3e 3e3e
00000290: 03c1 12be 209c d4bd 90ac d6bd 4126 20be
000002a0: 303b da3b 6ed8 ca3d 3105 de3d ed46 cb3d
000002b0: 3504 d7bb ef67 333e 4814 cb3c 51ee 5abe
000002c0: 649c ba3d 1c9f d03d e6a1 1d3e 964d 02bc
000002d0: 6829 19be 133c 493e e555 a43c a547 a63d
000002e0: a504 073e 76ec ddbd 4dd6 b3bd c512 00be
000002f0: 01cd 52be c5e6 2fbc 676a de3d bcc1 143e
00000300: f181 00be 73bb 383e 9ce2 39be a6b1 d43d
00000310: 876f 5e3e 4199 1fbe 329c 7c3d 0713 f63d
00000320: 96b6 2abe 0a87 f83d 6f9c 55be c95f 6f3d
00000330: 53e0 2e3e 318e da3d 2c26 d1bd f86e 333e
00000340: c720 f23d dfd1 69bc 425d 1fbe f864 44be
00000350: 05cd 403d 4f5b 363e c69a 183e 38d5 0d3e
00000360: 7034 2b3e ea1b 5b3c 7a96 cf3d 78a9 5cbe
00000370: 8807 093e 315f a63d 7aa4 133e 2afd 6f3d
00000380: 6237 df3d 9b0b 2ebe 0c9e 08be 0d6b 21be
00000390: b74e f73d 3b15 49be b0b5 9abd 194f b6bd
000003a0: 0104 f2bd 4b91 143e 3500 4e3e 61e1 24bc
000003b0: bcd5 d23c 0548 f9bd 9ff2 343e 906c 1dbd
000003c0: a2b9 c63c 38f2 3cbe 117d 64bd aa85 07be
000003d0: 82ee 4b3d 3773 4dbe f8ec d03d 0170 4b3e
000003e0: 07d4 e23c c17c a6bd 5586 acbc c5f7 0e3d
000003f0: 0e1a 033d 0605 57bd 5044 bebd 8d4c 123e
-0.10692492 0.05612881 0.14104551 -0.18302682 -0.123801544 0.14781266 0.103275575 0.12859371
-0.20237559 0.10643278 -0.008009549 -0.042296834 -0.091527246 0.16223162 -0.040286638 -0.0029558714
0.07331819 0.21236837 0.12003124 0.055589613 0.11879806 0.1449101 -0.013439961 -0.14874037
-0.053895995 -0.15023376 -0.19136381 0.11290235 -0.18435238 0.17023 0.06965009 -0.19009732
-0.06422362 0.14903356 -0.12623233 -0.19050784 0.15496996 0.11788366 0.12909113 -0.03718017
-0.09787935 -0.16215557 0.11313853 0.04405772 -0.03789673 -0.08265692 -0.14397246 0.17040616
-0.18994792 -0.1208003 0.030698497 0.1881858 -0.10894604 -0.14407475 -0.20181336 0.14934844
0.0034420856 -0.1440603 -0.090617 0.1274442 -0.07721366 -0.14817886 0.053027805 0.17305478
0.21487983 -0.10427249 0.10368849 0.0018168493 0.19249804 -0.2010799 -0.0762621 0.05264308
-0.18317755 0.1201979 0.10881669 0.13325714 0.1007742 -0.19812976 -0.037131358 0.12133968
0.2109861 -0.107450634 -0.053965434 -0.08552152 -0.17779937 0.19188242 -0.16720094 0.09861712
0.038580343 -0.1975601 0.14959732 0.12714897 -0.080823146 -0.08167574 -0.20836362 0.07227371
-0.09590522 -0.10571687 0.13834088 -0.12138399 -0.16181009 0.0069863857 0.071423315 0.047489837
-0.113934785 -0.08251628 0.19499226 -0.17126375 0.20468597 0.20094277 -0.07075902 -0.04241478
-0.15460551 -0.15876706 -0.05767379 0.11764935 0.21000788 -0.2066748 -0.19638366 0.1437981
0.016501352 -0.12149063 -0.20915174 -0.025005434 0.05344129 -0.010095427 -0.10853247 0.06907652
0.025536109 -0.15166698 0.20979518 -0.14222506 0.011484118 -0.032732587 -0.10699117 0.19365557
0.04639171 -0.16583288 0.097057834 -0.057014838 -0.065971345 -0.18644865 0.16601177 0.064493485
-0.030046182 0.0066489475 -0.007494661 -0.21434367 0.17356752 -0.09210783 0.09113415 -0.09092447
0.2020702 0.18092552 -0.031431727 0.15669692 0.09504044 0.09829314 -0.16155934 0.14323771
0.093979105 -0.08112067 0.13779567 0.18578692 -0.1433144 -0.10381341 -0.104821324 -0.15639593
0.0066598877 0.09904562 0.10840834 0.099256374 -0.006561781 0.17520116 0.024789944 -0.21379973
0.091118604 0.10186598 0.1539379 -0.007953068 -0.14957201 0.19651823 0.020060489 0.08119134
0.13185365 -0.10836117 -0.08781109 -0.1250716 -0.20586015 -0.010736172 0.108601384 0.14527029
-0.12549569 0.18040256 -0.18152851 0.10385446 0.21722232 -0.15585805 0.061672397 0.12015348
-0.16671214 0.12135132 -0.20860456 0.058440957 0.1707776 0.10671652 -0.10212359 0.175228
0.11822658 -0.014271229 -0.15562919 -0.19179142 0.04707052 0.17808269 0.14902791 0.13850868
0.16719222 0.013373354 0.10136123 -0.21549022 0.13381779 0.08123625 0.14418212 0.058591045
0.10899235 -0.16996615 -0.1334154 -0.15763493 0.120755605 -0.19637005 -0.075541854 -0.089018054
-0.1181717 0.1450855 0.20117266 -0.0100635 0.025736682 -0.1217194 0.17670678 -0.03843361
0.024258438 -0.18451774 -0.055783335 -0.13234583 0.049788006 -0.20063482 0.10201448 0.19866945
0.027688993 -0.08129264 -0.021060148 0.03490426 0.03200727 -0.052495025 -0.09290373 0.14287014

103 f4 [1, 512]
00000000: 8b59 263a 29b6 e7ba 4e12 bd3a 744e 75bb
00000010: f0f7 88bb 9c1a d2bb fdd2 94bb efa1 24bb
00000020: 7260 3a3b 6e5e 2d3b 8277 a73a f16d d03b
00000030: aa5b 8dbb e096 023b 692f 253b 6ae3 ed3a
00000040: e65c 3fbb 6d6a 10b9 f118 acba f167 b5ba
00000050: 7bbd 393b 480c 3dbb dd6e 0f3a 01d8 7c39
00000060: 0fff 233a cbdf 25bb 9939 de39 d3d5 8cbb
00000070: 721c 1d3a 1e78 dd3a 3d91 843b 3702 bd3a
00000080: 7c84 d8bb f058 953b 822c 663a 0e2f 83bb
00000090: b1c2 d2ba c94d 343b 9465 51ba c83c 293b
000000a0: 9fc4 753b 37cf 6d3b c2e9 77ba 8f2b 2639
000000b0: e619 653b 96d8 7cbb f46f 3bbb 7e40 083b
000000c0: 56c5 663b 0b35 c1ba c97e 3ebb e69d 4dbb
000000d0: 2966 77bb dbb8 17bb 81ee 05bb 9023 963a
000000e0: 49af 813b b816 003b c706 323b d52e f2b9
000000f0: e705 e13b 3008 51bb a232 703b 184e 9539
00000100: c269 38b8 e7c4 38ba 62a1 d83a ccdb 39bb
00000110: 81a0 abbb 9729 e0bb 2de5 a4bb 55c9 0dbb
00000120: 55d0 8a3b bfb5 a23a dedd 203a 3d4c dd3b
00000130: cc10 07bb 3c43 803a 85a4 503b 75b0 263b
00000140: 0cc8 8d39 d404 afba 7714 15bb 5b24 81bb
00000150: df26 e03b bc8f c4bb 1b49 783a d9e2 493b
00000160: 8f4d 05ba 468f 5cbb a413 c43a 3021 04bb
00000170: 2544 bb38 99d6 85ba f6b4 903b 5e20 63ba
00000180: bdf2 bcbb 9343 333b a7b7 ce38 f27f 63bb
00000190: a88a f139 7085 c13a a4e7 9eba 5f6b 373a
000001a0: 71c5 083b 6fdc b93a 120a 0e3a a349 4039
000001b0: b551 463b 25d9 99bb ba1f b7ba 90df 5d3b
000001c0: ff70 3f3b b2b9 30bb 21f1 42bb 97ac ddba
000001d0: 0447 86bb 9ddb e9ba dabd ce39 ce69 213b
000001e0: 5bf8 8f3b 566d 0f3b fcff 8c3b 58a4 84ba
000001f0: d8a0 ac3b 5c1e 58bb 897c 6839 4997 9a39
00000200: 901c 803f f2a8 7f3f 517e 803f 3225 7f3f
00000210: 3a85 7f3f ff4e 7e3f 25da 7e3f c139 7f3f
00000220: 8940 803f 593e 803f ed4d 803f 39cc 803f
00000230: 8b2a 7f3f 7934 803f 034b 803f e0f5 7f3f
00000240: 94a2 7f3f 8d01 803f d203 7f3f 04c3 7f3f
00000250: 1871 803f dda1 7f3f 4b18 803f c76f 803f
00000260: e2c0 7f3f 205e 7f3f f42b 803f 12cb 7e3f
00000270: b207 803f be03 803f 8e52 803f 5321 803f
00000280: 1989 7e3f 397b 803f 3bdc 7f3f 6a2a 7f3f
00000290: b8db 7f3f 8be0 7f3f 24e4 7f3f fa4a 803f
000002a0: 393f 803f 3e66 803f 0713 803f eeee 7f3f
000002b0: 1e39 803f 173d 7f3f 6e74 7f3f c380 803f
000002c0: ecd8 7f3f db17 7f3f fc42 7f3f 950e 7f3f
000002d0: f1c1 7e3f f743 7f3f 88f7 7f3f 5bce 7f3f
000002e0: a75c 803f 8531 803f 7a3a 803f dbbe 7f3f
000002f0: 9f1c 803f 8411 7f3f 7f03 803f 5f07 803f
00000300: dde4 c83a 9cd9 b7ba 1fdf 9f3a d19c e23b
00000310: 9167 8a39 fc54 8d3a 1822 df39 19dd 35ba
00000320: 2da1 23bb 2d4d 3438 8673 70b9 4134 50bb
00000330: a0a1 50ba 9e09 1bbb 199f 90bb 8b05 d53a
00000340: f9e8 973a 5242 65bb eebc 08bb b98c 843a
00000350: fe03 983a 4429 1bbb 4372 913a b658 163a
00000360: 48af 85ba c736 94bb 9660 3fbb e76c 08bb
00000370: 7975 863b 5c05 743b aff1 263b f25d 783b
00000380: 3ab8 2cba ba29 98b9 76e1 673b abe4 e739
00000390: 4b77 8d3a 17be d93a 8755 14b8 7c04 5b3b
000003a0: ddff 153a 49b2 503b 5617 34ba 6d96 e5ba
000003b0: f0d3 a2ba f224 1f3a 4758 02bb 713c b8ba
000003c0: 82e0 06bb 4a4e 8cbb 3841 b339 3d38 523b
000003d0: 65cf cbbb 77db e4ba 2b5d 933a 2772 1e39
000003e0: 8254 573a c607 8f3a ef0c 753b e47e b33b
000003f0: ae85 113b a478 0c3b 9979 863b bb77 e1ba
0.00063457404 -0.0017678189 0.0014425011 -0.0037430795 -0.004179947 -0.0064118635 -0.0045417533 -0.0025120934
0.0028438834 0.002645399 0.0012776705 0.0063607623 -0.0043139057 0.0019926354 0.002520526 0.001814944
-0.002919966 -0.00013772557 -0.0013129992 -0.0013840181 0.00283417 -0.0028846432 0.0005471537 0.0002411306
0.0006255963 -0.0025310393 0.00042386053 -0.004297951 0.00059933134 0.001689676 0.004045634 0.0014420216
-0.0066075902 0.0045577213 0.0008780436 -0.004003412 -0.0016079751 0.0027512184 -0.00079878536 0.0025823582
0.0037501229 0.003628684 -0.0009457135 0.0001584722 0.0034958064 -0.0038581244 -0.0028600665 0.0020790393
0.0035212836 -0.001474054 -0.002906727 -0.0031374632 -0.0037750101 -0.0023150954 -0.002043635 0.001145469
0.003957663 0.0019544791 0.0027164684 -0.0004619273 0.0068671587 -0.003189575 0.0036651273 0.0002847768
-4.3967513e-05 -0.00070483837 0.0016527588 -0.002835977 -0.0052376394 -0.0068408954 -0.0050322027 -0.0021634896
0.004236261 0.0012413784 0.00061365764 0.006753473 -0.0020609377 0.0009785662 0.0031836343 0.0025434766
0.00027042662 -0.0013352879 -0.0022747794 -0.0039411015 0.0068405713 -0.00599858 0.0009471343 0.0030805378
-0.00050851045 -0.0033654734 0.0014959467 -0.0020161383 8.929548e-05 -0.001021105 0.0044161035 -0.0008664186
-0.0057662413 0.002735351 9.8570534e-05 -0.0034713713 0.0004607041 0.0014764499 -0.0012123478 0.00069968955
0.0020869637 0.0014180074 0.0005418371 0.00018337979 0.0030261104 -0.004695075 -0.0013971247 0.0033855177
0.0029211638 -0.0026966152 -0.0029745775 -0.0016912398 -0.004097821 -0.0017841939 0.00039432832 0.0024629715
0.00439362 0.0021885238 0.0043029767 -0.0010119779 0.0052681975 -0.003297708 0.00022171637 0.00029485885
1.0008717 0.99867165 1.0038549 0.9966613 0.9981266 0.9933929 0.9955161 0.996975
1.0019695 1.0019027 1.0023781 1.0062324 0.9967429 1.0016013 1.0022892 0.9998455
0.9985745 1.0000473 0.99615204 0.99906945 1.0034513 0.9985636 1.0007414 1.0034112
0.9990369 0.99753 1.0013413 0.9952861 1.0002348 1.0001142 1.0025194 1.001017
0.99427944 1.0037605 0.9994542 0.99674094 0.9994464 0.99952 0.9995749 1.0022881
1.0019294 1.0031202 1.0005807 0.9997395 1.0017431 0.9970259 0.9978703 1.0039295
0.9994037 0.99645776 0.99711585 0.99631625 0.9951468 0.9971308 0.9998708 0.9992425
1.0028275 1.0015112 1.0017846 0.999006 1.0008734 0.996361 1.0001067 1.000225
0.0015326996 -0.0014026645 0.0012197233 0.0069156666 0.00026398574 0.0010782774 0.00042559276 -0.0006937548
-0.0024967894 4.298722e-05 -0.0002293122 -0.0031769427 -0.00079586543 -0.0023656855 -0.004413497 0.0016252262
0.0011589817 -0.0034982157 -0.0020864564 0.0010112739 0.001159787 -0.002367572 0.0011096675 0.0005735265
-0.0010199333 -0.0045231315 -0.0029201857 -0.0020816864 0.0041033593 0.003723464 0.0025473644 0.0037897793
-0.0006588731 -0.00029022788 0.0035382188 0.00044230124 0.0010792998 0.0016612437 -3.5365603e-05 0.003341942
0.00057220255 0.0031844547 -0.00068699324 -0.0017516144 -0.0012422781 0.0006070874 -0.0019889043 -0.0014056099
-0.0020580594 -0.0042817937 0.00034190132 0.0032076978 -0.0062197917 -0.0017460425 0.0011242976 0.00015110579
0.0008214192 0.0010912351 0.0037391742 0.005477773 0.0022204923 0.0021434212 0.004103851 -0.001720182

action_model._continuous_distribution.log_sigma f4 [1, 2]
00000000: 8f7d d3bb b02f d5b9
-0.0064541767 -0.00040662056

action_model._continuous_distribution.mu.bias f4 [2]
00000000: 1c1a 5c3b 341c e8b9
0.0033584898 -0.000442715

action_model._continuous_distribution.mu.weight f4 [2, 64]
00000000: ca2e 1fbc 3e13 e0bc a089 e43c 067f 843c
00000010: 8c69 23bc 4b68 1c3d c419 09bd 64ef 65bb
00000020: 7215 95bc 4edc 0dbd 91ca 10bc 7681 a2bc
00000030: fd93 273d c570 2e3c 8ad1 f23c d49f cdba
00000040: 7001 253d e9a2 cdbc d00e 1bbd 6d86 0bbb
00000050: 180d 133d 6261 193d 2628 32bc 6012 34bd
00000060: adf1 30bd 1b19 7dbc 7746 6d3c 4a87 5d3d
00000070: 6879 a53c 366f 233c 1f9a 01bd c800 90bc
00000080: cfc3 5bbc cf90 783c bbbb c4b9 05e2 8a3b
00000090: 09f9 bc3c 78ab a2bb eda7 6bbd 4ee9 16bc
000000a0: ce0c 86bc 3203 923c 439a 743b 9f25 363d
000000b0: 2c94 6bbc b933 b03c 2936 1dbb 7834 633b
000000c0: a196 6cbc 8c9d 9b3b 55c3 423d 4eaf 1bbc
000000d0: 88a2 203c 2f01 683c 10fc 973c d8c2 1cbc
000000e0: e241 b8bb 9e42 2abc f267 7c3c 6807 39bb
000000f0: a745 18bd 3ec1 833c 9d9d 973b da06 c73b
00000100: ce7e 82bc 23c4 983c a5a3 a63b f7e9 153b
00000110: d523 28bc b60f 09bb 2a43 8c3b 1c58 c43c
00000120: e39c c3bc 3cc9 083d 2925 abbc f74d 483c
00000130: 13fa 5e3d 82e5 3abc 7855 a0bc 73f7 b23c
00000140: 80b1 f2bc e190 2bbb 8221 51bc d54d a3bb
00000150: 641e a6bc b77d 783c 5cb9 913c be2d af3b
00000160: 3cf2 9ebc f8e5 ac3c 0251 423c 2a2e 153c
00000170: 5986 7cbc ec11 a3bc cb58 03bd 32fc 5cbc
00000180: 3dc7 06bc ef21 c5bc c034 ed3b 684f f6bb
00000190: b653 13b9 afdd f1b9 38e2 853c 2f72 223c
000001a0: 2a41 c1bc 2db5 093d 232a a83c 1a45 f9bb
000001b0: d1ce 31bb 8edb 0f3d bbcd f23a 4451 57b9
000001c0: 7362 89bd 31ea 73bc 84af aabb 9d6e 8b3b
000001d0: cefb a4bc 1452 3fbc 9d7d e1bc 1559 c93c
000001e0: 1e18 7e3c 5393 5cbc 34af bdbb a602 e33c
000001f0: 73b9 04bd a80f 813d 4f76 793c 8afb 4f3c
-0.009715745 -0.027352925 0.027897656 0.01617385 -0.009973895 0.0381854 -0.033471838 -0.0035085315
-0.018198702 -0.034633927 -0.008837358 -0.019837122 0.040912617 0.010647004 0.029640932 -0.0015687891
0.040284574 -0.025102096 -0.037855923 -0.002128984 0.03590116 0.037446387 -0.01087383 -0.043962836
-0.04319923 -0.01544788 0.014482132 0.0540841 0.020199493 0.009975245 -0.031641122 -0.017578498
-0.013413384 0.015171244 -0.00037523903 0.0042383694 0.023067968 -0.0049642883 -0.057533193 -0.009210898
-0.016363528 0.01782379 0.0037323392 0.044469472 -0.014378589 0.021509038 -0.002398858 0.0034668725
-0.01444021 0.0047490057 0.047549564 -0.009502245 0.0098043755 0.014160438 0.01855281 -0.009567939
-0.005623088 -0.010391859 0.015405642 -0.0028233174 -0.0371758 0.016083356 0.0046269433 0.006073815
-0.015929606 0.018648213 0.005085426 0.002287505 -0.010262449 -0.0020913905 0.0042804675 0.023967795
-0.02387852 0.033395037 -0.020891743 0.0122256195 0.054437708 -0.011407258 -0.019572005 0.021846509
-0.029625654 -0.0026178884 -0.012764337 -0.0049836435 -0.020278163 0.0151666915 0.017788582 0.005346029
-0.019402616 0.021105751 0.011860134 0.009105245 -0.01541289 -0.019906007 -0.0320671 -0.013487862
-0.008226213 -0.024064032 0.0072389543 -0.00751679 -0.00014050197 -0.0004613227 0.016343221 0.009914919
-0.023590643 0.03362005 0.020527905 -0.0076071145 -0.0027131329 0.035121493 0.0018524447 -0.00020534272
-0.06708231 -0.014887379 -0.0052089114 0.0042551295 -0.020139601 -0.011677284 -0.027525717 0.02457861
0.01550868 -0.013462859 -0.005788708 0.027711224 -0.03240342 0.06301814 0.015225961 0.012694249

network_body._body_endoder.seq_layers.0.bias f4 [128]
00000000: 7018 d7b7 b6d9 323a fdf9 a43a bc94 653b
00000010: 9a4b 2dbb fe85 99ba 59ca 09bb 60ce 523b
00000020: 4cb6 0abb 1044 40b8 ed14 fb3a 8eb2 f83a
00000030: e0fc 00bb 5700 33bb e411 1ebb 789d 07bb
00000040: 7a0b ba38 1a9f 9a3a d277 83bb d8be d93a
00000050: 46ac d13a d5a0 ed3a 92f9 87b9 9d92 5eba
00000060: 2033 eb39 e1f5 4dba 9cb1 673b 3a4c f83a
00000070: 0f29 69b9 8c49 203b c60b 713b b366 2a3b
00000080: d3d1 f6b9 2afc 5aba ebc4 04ba 433d 6b3b
00000090: 5886 43ba a9df 84ba 2f48 08ba 46ea 3339
000000a0: 3c7f 213b 9b31 2f3a 0478 6f3a 7a51 e6ba
000000b0: c87d dd3a f6de 5c3a 11b7 753a 98e5 ffb9
000000c0: 77cd 72b8 8059 c23a 5a40 b4bb 1678 443a
000000d0: 6061 a5ba 4ac5 faba 2739 e23a 70e0 3d3a
000000e0: 0418 b4bb 6b3b 4aba 8f1c d938 47fd a33a
000000f0: 5a56 5139 6561 09b7 476e 303a 17f3 4f3b
00000100: 526e 94ba 1cbb 9fba e7ed cbb9 106b c3ba
00000110: 0276 0e3a faee 0cbb 75cb 97bb 30cf 6bba
00000120: 8a1d 273a 1ff9 1ebb 4c7f 71ba f696 e1b9
00000130: 3a42 a5ba 2e92 93ba 4f19 00ba 2057 58ba
00000140: 0923 2dbb af86 2c3b e1e6 4f3a ebaa 7f3a
00000150: f808 b139 3bff 323b 1040 be3b d35d fe39
00000160: b5d7 67ba 9b5f acba 6398 2b3b 9fcf 813a
00000170: f36c 223a b02c 4c3b 6d08 09bb 2577 8fba
00000180: 79e4 153a 168b bfb9 910e 923a e11d c93a
00000190: fe2f 2dbb d513 ce3a e08e 2f3b 5a1c 6fbb
000001a0: 3a00 66b9 9f3b 293b 321b 3b3a adff 60ba
000001b0: 02ca 6aba b458 8cbb 0683 f5ba 5cb9 b83a
000001c0: d9b4 cf3a 5a03 12bb 3b15 b73a e4fb 28ba
000001d0: c59d c1ba 3647 5aba 05dc ce3a 93f9 9f39
000001e0: d9bc 8e3b 6997 62bb 9fc7 30ba da7a 2c3a
000001f0: b9f8 bd3a 8e9a 84bb b439 49ba 4d36 fdba
-2.5641377e-05 0.00068226026 0.0012586709 0.003503128 -0.0026442767 -0.0011712906 -0.002102515 0.0032166466
-0.0021165786 -4.5839755e-05 0.0019156017 0.0018974112 -0.0019681975 -0.0027313435 -0.002411955 -0.0020693224
8.871309e-05 0.0011796684 -0.0040120864 0.0016612662 0.0015996776 0.0018129597 -0.0002593515 -0.0008490475
0.00044860784 -0.0007856768 0.0035353666 0.0018943616 -0.00022235907 0.00244579 0.00367807 0.0026001155
-0.00047077108 -0.00083536154 -0.00050647435 0.003589467 -0.00074586784 -0.0010137457 -0.00051987445 0.00017158044
0.0024642488 0.0006683112 0.000913501 -0.0017571889 0.0016898448 0.0008425558 0.00093732873 -0.0004880845
-5.788865e-05 0.0014827698 -0.0055008354 0.0007494701 -0.0012617521 -0.0019132283 0.0017259464 0.00072432216
-0.005496027 -0.00077145424 0.00010352686 0.0012511396 0.00019963962 -8.188513e-06 0.00067303 0.0031730586
-0.0011324382 -0.00121865 -0.00038896428 -0.0014909226 0.00054344547 -0.0021504746 -0.0046324083 -0.0008995412
0.0006374946 -0.0024257374 -0.0009212389 -0.0004302782 -0.0012608238 -0.0011258775 -0.0004886584 -0.0008252729
-0.0026418588 0.0026325395 0.0007930827 0.0009752947 0.00033766753 0.0027312774 0.0058059767 0.0004851656
-0.00088440935 -0.0013151051 0.002618336 0.0009903795 0.0006196044 0.0031154566 -0.0020909563 -0.0010945542
0.0005717944 -0.00036533986 0.0011143257 0.0015343988 -0.002642631 0.0015722463 0.002678804 -0.0036485405
-0.00021934594 0.002582289 0.00071375363 -0.00085830205 -0.0008956493 -0.004283035 -0.0018731065 0.0014093327
0.0015846743 -0.002227983 0.0013968119 -0.0006446226 -0.001477175 -0.00083266513 0.0015782124 0.0003051279
0.0043560085 -0.003457511 -0.0006743613 0.00065795856 0.0014493681 -0.0040467447 -0.000767614 -0.0019318551

network_body._body_endoder.seq_layers.0.weight f4 [128, 18]
00000000: c938 133e 3ef8 883e 8e6a 9cbd 46bb 1a3d
00000010: cf14 b13e 0eb6 91bd 5e32 21be 6be2 853e
00000020: 786a f93e fab7 363d b0bc 50be ba33 fdbc
00000030: 7d13 37bd 3fbe 27be 54db c73e 1048 bebd
00000040: 5813 0d3d 5751 51be bc87 a8be 9476 5bbe
00000050: f002 e6bd 5380 26bf 3e66 7e3e 8f9d d2bd
00000060: 3030 9abe ff51 29be 798f 633e bc8a 273e
00000070: 6ebd eabe fe85 673e 1867 aaba 57d0 80be
00000080: 6048 58be 206a 0ebe b6b6 0ebe 64ad 03bf
00000090: 3844 763d e767 a9be 1dea 78bc 7cc6 e33c
000000a0: aaaa 773e d257 67be 1cdd 47be 470e 99bd
000000b0: ae9e c8bc e9cd 6abe b1cb 1d3c 37cd fdbe
000000c0: 2d02 70be 161e 083e d425 843e 45e7 99be
000000d0: a750 dd3b 5f12 be3e 536c 233d 8f9d a93d
000000e0: bf1e 9dbe 0b0c b7be 0550 cc3c 6e8c 753d
000000f0: 2e6a 19be d25d 84be f6ca cb3d c1d7 2cbe
00000100: 90f6 d33d ab0e ba3e 3364 29be e26d aebd
00000110: a6c3 93bc e081 af3b ad76 f63d 29b9 2ebd
00000120: f8fd 18be e890 2a3c 62f9 3cbe 763a c4bd
00000130: 21c1 d5be 5a93 8ebe 3bb7 0cbf e1b8 d03d
00000140: 6eb0 d8bd 5c9e ab3c 71e0 ad3e 87e7 333e
00000150: 912a 26bf 73be 50be 3456 9b3d d149 833d
00000160: 4196 ab3d 29c8 423d c1ca 07bd 1d85 bebd
00000170: 4805 2abe 8897 91be 9d19 9abe 6dd9 e93d
00000180: a407 99be 9086 f4bd be98 bfbe ec32 bdbd
00000190: 5524 51be 02f6 16be 2e69 033f ee7b a13e
000001a0: 80c2 d1be 7cbc cf3d 51ec 383e b365 c4bd
000001b0: 7f06 2cbd bf3c 3f3e 1059 9cbe 17eb 89be
000001c0: cb98 e4bd 4ef6 a0bd a9d0 a3bd 1853 39bf
000001d0: 0856 743d 1056 e6bd c90c 87bd 2836 c13d
000001e0: e1bf 213d 80ea 5a3e 166f a4be 8c48 51be
000001f0: 3465 d23e bd0b 67be 12af 8f3e 6229 f43e
00000200: 8ede 37be 77e2 053c 0c53 5d3e f895 a43b
00000210: d30d 1f3e db94 9fbe 4b87 cf3e c0c1 c33e
00000220: 2c9f a93e 0119 2b3e 935d 453e 7bf6 e2be
00000230: 718d db3d df16 c7bc 741a e53e e143 89be
00000240: c520 7abe 0931 9b3e fe19 823e 48c0 273e
00000250: 9fc1 efbd 0c46 c1bc 23e2 b73d 057f 4d3e
00000260: c8bc c93d 29d6 a1be bdc7 fc3d b4d2 81be
00000270: 42d7 713d 66ea 003d 6f76 fb3d 2576 283d
00000280: 9f9b 353e 6fb0 99be 11a3 c33d 2ea1 33be
00000290: 5ef6 14be 3973 a4bd 2894 d9bc ea84 e13d
000002a0: 60f1 f73d a534 e6be c414 af3e 5410 38be
000002b0: 1bd2 37bd 099d 85be e7f0 a63d 5981 b33d
000002c0: fae8 adbe 40fe fd3d 43b9 813d 48ff b93c
000002d0: 3ead 71bd 7874 95bc db21 413d edd6 313e
000002e0: bb06 fd3e 986f 55bd 9e9f 55be 5a06 cdbe
000002f0: b56c 0d3e 10d7 8ebe efe4 633b 737c 2cbe
00000300: 5945 903d 1e64 e7bd bff9 92bd e38a 043e
00000310: 61d8 5c3e 787b abbe f3cb 17be 676b b2be
00000320: ce1b 0f3e 4680 15be d1bf b5bd 8c70 543e
00000330: 448d 093f dd24 5cbe 531b d93d 0e68 b0bd
00000340: d2f3 783d e143 5b3e 902f ecbd 8e5a 5cbe
00000350: 44df ab3d d048 4cbe 6d37 b5bc 4358 d93d
00000360: b376 18bd cc4f bfbd 456b 263e b26a 1bbd
00000370: e1d8 8abe 717a 1b3e 4401 fabd 2774 213d
00000380: 0fee 12be 17db cc3d 71ea 5c3e 2fd6 66bc
00000390: cd54 1dbe 6a16 4f3e 7af2 0c3e 8585 9e3e
000003a0: 18b4 0f3e 7e23 b73e 6922 38be e9ce a2bc
000003b0: ac89 533e fbc2 66bc 3861 f63e 1944 273e
000003c0: 03f2 f5bd f52b a4bd 844b b1bd 7b5a a6be
000003d0: e610 a4be f117 a03e 1ea5 cdbd 245f 1ebe
000003e0: 2a03 1d3d 25b4 85be 408e 1abe e821 653e
000003f0: f9db 98be 2749 543e 6596 223e 6c8d 7f3e
0.1437713 0.26751894 -0.07637511 0.037776254 0.34586188 -0.07114802 -0.1574187 0.26149306
0.48714042 0.044609047 -0.20384479 -0.030908454 -0.04469632 -0.16381167 0.39034522 -0.092910886
0.034442276 -0.20441185 -0.32916057 -0.21431953 -0.11231029 -0.6503956 0.2484369 -0.10283958
-0.3011489 -0.16535185 0.22222699 0.16361517 -0.45847648 0.22609708 -0.0013000695 -0.2515895
-0.21121359 -0.13907671 -0.13936886 -0.5143645 0.060123652 -0.33087084 -0.015192536 0.027804606
0.24186197 -0.22592095 -0.1951794 -0.07473426 -0.024489727 -0.22930111 0.009631083 -0.4957063
-0.2343833 0.13292727 0.2581011 -0.30059257 0.0067539993 0.3712339 0.039898228 0.08282005
-0.3068752 -0.35751376 0.0249405 0.059948377 -0.1498191 -0.2585283 0.09950821 -0.16879179
0.103497624 0.36339316 -0.16542129 -0.08517052 -0.018037628 0.0053560585 0.12034354 -0.04265705
-0.14940631 0.010410525 -0.18454507 -0.09581463 -0.41748908 -0.27846795 -0.5496709 0.10191513
-0.10580526 0.020949535 0.33960298 0.1756879 -0.649087 -0.2038515 0.07584801 0.06410564
0.08378268 0.04755417 -0.033152346 -0.09302733 -0.16603577 -0.28435922 -0.30097666 0.11418424
-0.29888642 -0.11939728 -0.3742122 -0.09238228 -0.20424016 -0.14742282 0.51332366 0.31539863
-0.40968704 0.101433724 0.18058898 -0.0958971 -0.041998383 0.18675517 -0.305367 -0.26937172
-0.111619554 -0.07859479 -0.07998783 -0.72392416 0.05965236 -0.11246884 -0.065942355 0.094341576
0.03948963 0.21378517 -0.32116002 -0.2043783 0.41092837 -0.22563072 0.28063256 0.47687823
-0.17955992 0.008171669 0.21613711 0.0050227605 0.15532617 -0.31168255 0.40532908 0.38233757
0.3312925 0.16708757 0.19273977 -0.44328675 0.10720337 -0.024302898 0.44746745 -0.268096
-0.24426563 0.30310848 0.25410455 0.16381943 -0.11706852 -0.023592971 0.08978679 0.20067985
0.0985046 -0.31608704 0.123427846 -0.25356066 0.059043176 0.03147354 0.12278449 0.041128296
0.17735146 -0.3001742 0.09552587 -0.17541954 -0.14547107 -0.080297895 -0.026559904 0.110116795
0.121065855 -0.4496204 0.3419553 -0.17974979 -0.044878107 -0.2609637 0.08151417 0.087649055
-0.3396681 0.1240201 0.06334164 0.022704735 -0.059003107 -0.018244013 0.047151428 0.17367144
0.49419197 -0.052108377 -0.2086167 -0.40043908 0.13811 -0.27898455 0.0034773906 -0.16844349
0.07044477 -0.11298393 -0.071765415 0.12943606 0.21566917 -0.33492637 -0.14823894 -0.34847566
0.1397545 -0.14599714 -0.08874477 0.20746058 0.5373118 -0.21498437 0.10600915 -0.08613597
0.0607794 0.21412612 -0.11532509 -0.21518919 0.08392194 -0.19949651 -0.022121156 0.10612538
-0.037222575 -0.09341392 0.16251858 -0.03794355 -0.2711859 0.15183426 -0.12207273 0.039417412
-0.14348625 0.100027256 0.21573807 -0.014089151 -0.1536438 0.20223394 0.13764372 0.30961242
0.14033544 0.35769266 -0.17981876 -0.019874053 0.20657986 -0.014084573 0.48121047 0.16334571
-0.12009051 -0.08016197 -0.086569816 -0.32490906 -0.32044142 0.31268266 -0.10041259 -0.15465981
0.038333096 -0.26114002 -0.15093327 0.22376215 -0.29855326 0.2073103 0.15877683 0.24956292

network_body._body_endoder.seq_layers.2.bias f4 [128]
00000000: 20f8 7e3b 91aa 553a 5ec9 d7ba 0eab 453b
00000010: 896a 063b a27a 58ba 45a6 d9ba 8806 803b
00000020: daca 3fbb 9327 6eba 799d 39ba 6c5d e8ba
00000030: 8113 e53a 79ec c0b9 76fe a23b 27aa 03bb
00000040: 79b8 cfba eac7 763b b57d 693a fdd3 e8ba
00000050: 6a82 eb39 8163 8039 9753 313a 1393 e23a
00000060: 1b0e a8b8 b409 2739 3835 0fbb fc0e acbb
00000070: 7f7f 453a fbb9 8439 46ed cbba 9615 d3ba
00000080: b8bd 933a 8455 9439 24ca 883a 6853 803b
00000090: f9f6 dcb9 3943 06ba 58bf 17ba 99ec 82b8
000000a0: b0d9 81ba 1f48 483b ad5a 2cbb cd45 bcba
000000b0: ebe4 25bb 2b2e ca3a 7f57 4aba 7aec a0ba
000000c0: 0117 8bba 7b2d 413a 8a52 0bbb 7e1a e4ba
000000d0: 2412 10b9 80f8 0239 f44d 353b bd73 1a3b
000000e0: 342f 163a bdf4 1abb cca0 53ba ea46 b4bb
000000f0: dbad 553b 4d76 a0b7 eff9 13bb 212d 153b
00000100: d557 f3ba 78ba bd3b e46c 8e3a bab3 ca3a
00000110: d0da c63a 9260 d03a c5bd 53ba c6b5 af3a
00000120: 1408 0ebb 4d0e 583b f10a d43a 2a5e 973b
00000130: 79a2 813a 6c59 07bb e6b7 16b9 3608 6b3b
00000140: 726f 9cbb 821f d93a 0a4f c0ba cd98 ab3a
00000150: bd7a 37ba dd1e 093b d457 69bb fa17 1bb9
00000160: fc5e 46bb 0934 acba 1b85 9dba bc1c 333b
00000170: 678c cfb9 ddff 353a 74c9 ab3a 0b96 283a
00000180: db8f f5b9 549f acba 0acf f9ba a470 f13a
00000190: 035c c93a 76e3 8abb 7f4d 49bb b5c2 e1b9
000001a0: 0801 153a 4d01 5b3a f2a3 03bb bfbf 1139
000001b0: 693f bcba 320a db3a b9b7 94ba cc04 27bb
000001c0: 046a 823b 03a0 7eb8 b696 38b9 18b0 c038
000001d0: d064 52bb 5234 8eba c603 9b3b 6d44 093b
000001e0: 4908 1db9 f192 1b3b 79d8 1cb8 5e0d 5fbb
000001f0: 3715 833b b010 183b 8efd 1e3b a1f8 773b
0.0038905218 0.00081507216 -0.001646321 0.003016177 0.0020510277 -0.000825802 -0.0016605338 0.0039070286
-0.0029265196 -0.00090848765 -0.0007080655 -0.0017728037 0.0017477126 -0.0003679728 0.0049741818 -0.0020090432
-0.0015847824 0.003765578 0.00089069764 -0.0017763373 0.0004491986 0.000244882 0.000676447 0.0017286263
-8.0134916e-05 0.00015929976 -0.002185179 -0.0052508097 0.0007533952 0.00025315568 -0.0015558384 -0.0016104456
0.001127175 0.00028292474 0.0010436219 0.003916193 -0.0004214568 -0.00051217113 -0.00057887053 -6.242953e-05
-0.0009906795 0.0030560566 -0.0026299164 -0.0014364064 -0.0025313448 0.0015425136 -0.00077187264 -0.0012277507
-0.0010611714 0.0007369143 -0.0021258914 -0.0017402915 -0.00013739668 0.0001249034 0.0027664872 0.002356752
0.000572908 -0.002364441 -0.0008072972 -0.0055016177 0.0032604847 -1.9128574e-05 -0.0022579392 0.0022762495
-0.0018565605 0.005790051 0.0010866192 0.001546494 0.0015171412 0.0015897921 -0.0008077289 0.0013405613
-0.0021672295 0.0032967508 0.0016177577 0.0046193795 0.000989034 -0.0020652665 -0.00014373622 0.0035863048
-0.0047740275 0.0016565176 -0.0014671993 0.0013091803 -0.00069991854 0.0020922937 -0.0035605328 -0.00014790884
-0.0030269017 -0.0013138066 -0.0012017818 0.002733036 -0.00039586725 0.00069427287 0.0013106302 0.00064310496
-0.00046837222 -0.0013170042 -0.0019058895 0.001842041 0.0015362505 -0.0042385412 -0.0030716357 -0.00043060412
0.00056840526 0.0008354381 -0.0020086733 0.00013899709 -0.001436216 0.0016711412 -0.0011346258 -0.0025485037
0.003979923 -6.070734e-05 -0.00017603752 9.1880735e-05 -0.0032103546 -0.0010849333 0.0047306744 0.0020945326
-0.00014975773 0.0023738707 -3.7394904e-05 -0.0034035067 0.0040003317 0.0023203306 0.0024260017 0.0037837403

network_body._body_endoder.seq_layers.2.weight f4 [128, 128]
00000000: 271b 57bd 8d38 abbd ee05 323d 3cb1 16be
00000010: 5e0f 8fbd 81c2 45be 8f1a 243e b931 623e
00000020: 12b0 12be 02b1 9b3c 16c8 dabd 82ba 1c3d
00000030: 17bc c1bd 60ba 6a3c 0afd c33b 9b73 8cbd
00000040: 7528 6f3d 717c dbbc 8998 8abc cd2a 613d
00000050: 1d69 4bbd 9e18 623d 03a8 8dbc 0adf 953d
00000060: ec86 bebb 9978 563e c3c8 db3d 01cf 663d
00000070: b3af 09be a364 183e d974 aa3d 344a 5e3d
00000080: 7b9c 903d 3a54 56bd ad41 34bd cb9a bf3d
00000090: 06c9 9e3c 4355 e1bb 837e 56bd b1a2 a83d
000000a0: a9ce 343e 7030 bfbc b160 4c3e ae0e 933d
000000b0: 3e68 693d 5d6e b2bc 93fb c13d 7b53 23be
000000c0: d44f 403e 4aad 063d bbe4 c93d dfb3 313e
000000d0: d5f3 0ebd 8ec9 11bd f4f9 bcbc e3d7 f03d
000000e0: 0b1c f1bd 7991 2cbd a0dc a9bc 6dde b63d
000000f0: 4ba5 913d d82b 203e 6a88 b0bd 2add 353b
00000100: 1e96 b93c be33 763d 52c4 033e 06bb 1fbe
00000110: 840e c53d bb04 eb3d e705 0b3c 049f 11be
00000120: 28f7 c9bc 61de c4bd 00a3 1bbe 0d09 c0bd
00000130: 0065 8e3c 6a5e b53c ae5e 143e 4536 e43d
00000140: a36a 453d 37c2 db3d c9c1 013e 85ff 473d
00000150: a16c cabd 620a eb3c 2e85 df3d 74f8 bdbd
00000160: 5e62 86bd e124 113e 5c92 35bc a192 c9bd
00000170: 2ca6 03bd 78e6 463d dda5 30be dedf 6abd
00000180: e6a4 5d3c 3e5e 83bd 66c7 ad3c 2040 023e
00000190: cd57 02bd b337 36bd 5ff7 49bd f9b8 0c3d
000001a0: 385e d2bd 8d48 3dbe 1409 ffbd a602 4e3c
000001b0: 08c0 893d 0e24 043d 3d51 eebd ff8a 9f3d
000001c0: 5142 16be 2bb5 4c3c 2775 253e 897e a33d
000001d0: e25e 84bd eb0b d7bd a8fe afbd 45c4 593e
000001e0: 3966 1ebe dcd3 08be 9f62 cb3d 2421 9dbd
000001f0: df60 adbd 6c1f 23bd ba5b 513c 9154 263d
00000200: 4f6e 48bd d77d 183d 70e5 173d 51af bebd
00000210: 96af 94bd 81ae 5c3d 3e52 8bbd 9950 9bbd
00000220: 04f2 25bd 3cdd c6bd 1fc9 13bd 3736 30be
00000230: 4d91 3e3d 39cd ecbd 97ed f0bc 0ba3 913d
00000240: 17c3 edbd 262b edbd 4c41 f8bd 4f9e 683d
00000250: c186 f3bd 7b35 d7bd c0f3 fbbd 1ca1 073e
00000260: c1b7 63bd 585a 4cbd 74e3 67bd 4b60 46bd
00000270: ff4a aa3d 2e4f bfbc 9a95 a7bd 7033 d03c
00000280: 3571 d43d 7aaa 15bd 77aa b03d c153 31bd
00000290: f96b 73bd 4b0b 2a3e 78e2 21bd ccec bfbc
000002a0: ab26 af3d 927c c4bd 092a f3bd a3a8 d73c
000002b0: a955 953a f68f 263e ee58 eabd 7ceb a53c
000002c0: 6a56 f8bd 75ab 86bc c164 c7bd 9a41 da3d
000002d0: 5687 ef3d 7b06 703d 5faa 8d3c 641b 37bc
000002e0: ef05 bf3c 6e66 98bc 1c68 3abe 25c7 1bbe
000002f0: 3e93 a0bd 37c7 333e 4bb6 afbd f069 5dbc
00000300: 8863 c3bc aa67 5fbd 7d09 19be 4d96 9ebc
00000310: f638 4a3b 8c7c bcbd 1c04 3dbd 764a 79bc
00000320: 70f8 62bc 358a 52be eee6 ba3d d4ce 143e
00000330: 2361 1f3d a2a7 cd3d cbd8 113e f76c 8abd
00000340: ce80 f3bd 50fe f23d 5721 80bc 1aa2 3d3d
00000350: 9752 d7bc 3f78 fbbd da1f cd3d 6c7d a33d
00000360: 0b53 5abd 5c02 163d 44d9 d2bd 89af a13d
00000370: 4643 e83d b751 21bd 5baa 613e 1d32 a13d
00000380: 2633 b73c 41a6 fa3d efb1 97bd 59d6 353d
00000390: e416 dcbc f5af d93d 79d7 afbd b42c f1bd
000003a0: fc93 07bd 3c67 0a3e ada0 11bc 0d4a 9e3c
000003b0: b6bd b0bd 2832 13bd 8106 97bb 81a2 853d
000003c0: b39f c73d 3afb 293e 6a37 bfbc 3fb3 663d
000003d0: 438a 3d3e 3ee0 143d b6dc b93d 0220 89bc
000003e0: a2a5 98bc 0cb6 d3bc 28e3 97bd 509c 6abe
000003f0: 5965 a63d 098f f8bb ffc2 583d e1b6 11bc
-0.05251613 -0.083603956 0.043462686 -0.14716047 -0.06985353 -0.19312479 0.16025756 0.2208928
-0.14324978 0.019005302 -0.106826946 0.038263805 -0.094597034 0.014326662 0.0059810923 -0.068579875
0.058388192 -0.026792737 -0.016918438 0.05497246 -0.04966079 0.055199258 -0.017292028 0.07317932
-0.005814424 0.20944442 0.10731652 0.056349758 -0.1344593 0.1488214 0.08323068 0.054269984
0.07061096 -0.05232642 -0.044007946 0.09355696 0.019382965 -0.006876619 -0.052366745 0.08234156
0.1765696 -0.023338526 0.1995876 0.07180534 0.05698418 -0.021781141 0.09471812 -0.15949814
0.18780452 0.032880105 0.0985808 0.17353772 -0.034900505 -0.03559261 -0.023068406 0.11759927
-0.11772927 -0.04213092 -0.020735085 0.08929143 0.07111605 0.15641725 -0.08619769 0.0027750232
0.02265459 0.06010794 0.12867859 -0.15598688 0.09621909 0.11475512 0.008485294 -0.14220816
-0.024653986 -0.09612728 -0.15198898 -0.09376726 0.017382145 0.022139747 0.14489242 0.111431636
0.0481974 0.10730403 0.1267158 0.048827667 -0.098840006 0.028691474 0.10914074 -0.09275904
-0.06561731 0.14174224 -0.011082258 -0.0984242 -0.032140896 0.048559636 -0.17250772 -0.057342403
0.013528084 -0.0641446 0.021213245 0.12719774 -0.031822015 -0.044486713 -0.049308177 0.03435609
-0.10271877 -0.18484707 -0.124529034 0.012573874 0.0672608 0.032260947 -0.11636589 0.07790183
-0.14673735 0.012494366 0.16157971 0.07983119 -0.0646341 -0.1050032 -0.08593494 0.21266277
-0.15468682 -0.13362068 0.0993092 -0.07672337 -0.08465742 -0.039824888 0.012778217 0.040607993
-0.048933323 0.037229385 0.037084043 -0.09310783 -0.07260053 0.053877357 -0.06802796 -0.07583732
-0.040514007 -0.09710166 -0.036080476 -0.17208181 0.04652529 -0.115625806 -0.029410167 0.07111176
-0.11609476 -0.115804955 -0.121218294 0.0567916 -0.11890937 -0.105082475 -0.12302351 0.13245052
-0.055595163 -0.049890846 -0.0566134 -0.048431676 0.083150856 -0.023353186 -0.08182831 0.025415152
0.10373155 -0.036539532 0.086262636 -0.043292765 -0.059429143 0.1660587 -0.039522618 -0.023428343
0.08552297 -0.095940724 -0.11873252 0.02632553 0.0011393327 0.16265854 -0.11442743 0.02025389
-0.12125857 -0.016439179 -0.09736014 0.10657044 0.11695735 0.05859993 0.017293153 -0.011175964
0.023318259 -0.01860353 -0.18203777 -0.15212686 -0.07840584 0.17556463 -0.085796915 -0.013514027
-0.023851171 -0.05454222 -0.14945026 -0.019358778 0.0030856705 -0.09203443 -0.046146497 -0.015215507
-0.013853177 -0.20560534 0.091260776 0.14532024 0.038910996 0.10041739 0.14242856 -0.06759065
-0.11889802 0.118649125 -0.015640898 0.04629717 -0.0262845 -0.122787945 0.10015841 0.07982907
-0.053301852 0.036623344 -0.102953464 0.07894809 0.113409564 -0.03938457 0.22037642 0.078708865
0.022363257 0.12238742 -0.07406985 0.04439387 -0.026866384 0.10629264 -0.0858602 -0.117761046
-0.033100113 0.13515943 -0.008888406 0.01932242 -0.086299345 -0.035936505 -0.0046089296 0.06525136
0.09747257 0.16599742 -0.023341853 0.056323286 0.18509774 0.036346667 0.090753004 -0.016738895
-0.018633667 -0.025843643 -0.074163735 -0.22911191 0.08124799 -0.0075854105 0.052920338 -0.008893699

network_body._body_endoder.seq_layers.4.bias f4 [128]
00000000: 05c0 e9b9 e21c db3a b106 91ba 3c0b 123a
00000010: 84ec 82bb 1bb6 a53a b327 f039 987f a039
00000020: 4b95 4b3b 20db bcba eac7 7f3a cdbd 8439
00000030: 9a78 03bb fb52 493b 2b59 393b b726 72bb
00000040: 54b3 c53a 19c9 1f3b 258e bb3a 7ac2 f2b8
00000050: cf9e 643b 78d2 1abb 900a d63a a96a 1c3b
00000060: 5c5e 093a 9d1c 4634 c662 443a 575f abba
00000070: b19b aa3b 9cd0 e1b9 9ea7 6f3a 0e28 f13a
00000080: 624f 393a 43fa 4e3a 72b6 14bb baa8 e9b9
00000090: eeca 1cbb 8c01 8f39 44c8 45bb d034 7a3b
000000a0: 981d 3aba 6095 133b 7cb3 99bb 7146 043b
000000b0: a7d6 8a3a c5f8 f2b9 fd52 c8ba 0b7c 95bb
000000c0: 689e 87ba 1f68 51bb 99af 0abb 2a90 1ebb
000000d0: b245 5e3a f7b5 2b3b c2ff 1cba bd72 0abb
000000e0: d0bd c638 9c4d be3b 05ea f2ba 168e 043a
000000f0: 202c a93b fe81 29bb 6a7e dc39 9177 793b
00000100: e759 343a 2797 78b9 dd8f 5dba e72d 07bb
00000110: f363 5b39 3bde 2e3a d5c2 4fb9 a167 29bb
00000120: f09d 823a bf38 e2ba 28fd 92b9 bf82 14bb
00000130: 3cf8 25bb 3d0d 1e3a 1708 b73a 54fc 623a
00000140: ebb9 8bba cf47 1339 34e5 3fbb f849 17bb
00000150: 356f 1e3b 1b21 143b 85a1 14bb b0e8 943b
00000160: 8806 c2ba 833b fb3a 93f9 c4ba 9798 853a
00000170: 63d5 f739 e8b5 223a 6916 e83a 5a7f 3a3a
00000180: fd8a bbb8 a571 89b8 981d 0cba a71e 353b
00000190: 8d48 d7b9 0d76 b9ba d23b 79ba 15e8 06bb
000001a0: 162c b7b9 dc32 7e3a 3afc 5bbb 5c8f be3a
000001b0: e35a 253b 77ba e23a c6c9 273a 050d 05ba
000001c0: b35f aabb f39c ce3a df4b afba e6ff a33b
000001d0: 6b58 0d3b 5595 e33a 5fe7 02ba faf1 0fba
000001e0: d5a4 663a 1500 48bb ff75 52b9 d4c3 893b
000001f0: 48b1 de3a 036b ddb7 4e7c fd39 5afc 953a
-0.0004458429 0.0016716982 -0.0011064616 0.0005571132 -0.00399548 0.0012642773 0.00045805945 0.00030612643
0.0031064327 -0.0014408566 0.00097572675 0.00025318415 -0.0020060898 0.0030719626 0.0028281908 -0.0036949345
0.0015083351 0.0024381338 0.001430933 -0.00011575683 0.0034884696 -0.0023623984 0.0016330052 0.0023867285
0.0005240196 1.8450596e-07 0.0007491525 -0.0013074678 0.005206548 -0.0004307077 0.00091421034 0.0018398778
0.0007069019 0.0007895568 -0.0022691754 -0.00044566934 -0.0023924666 0.00027276238 -0.0030179182 0.0038178451
-0.0007099747 0.0022519454 -0.0046905857 0.0020183588 0.0010592536 -0.00046343185 -0.0015283521 -0.004561906
-0.0010346891 -0.003195293 -0.0021161793 -0.0024194815 0.00084790133 0.0026200989 -0.00059890386 -0.0021125518
9.476731e-05 0.0058075916 -0.0018532878 0.0005056573 0.005162731 -0.0025864835 0.00042055856 0.0038065652
0.00068798516 -0.00023707432 -0.0008451918 -0.0020626725 0.00020922702 0.0006670688 -0.00019813639 -0.002584912
0.0009965282 -0.0017259343 -0.00028035906 -0.0022660939 -0.0025324961 0.00060291943 0.0013964203 0.00086588156
-0.0010660266 0.00014045763 -0.0029280903 -0.002308486 0.0024175171 0.002260274 -0.002267928 0.00454434
-0.0014802972 0.0019167516 -0.0015027992 0.001019257 0.00047270497 0.0006206916 0.0017706874 0.0007114314
-8.9427434e-05 -6.553837e-05 -0.0005344986 0.0027636678 -0.0004106205 -0.0014149562 -0.000950751 -0.002058511
-0.00034937327 0.00096969097 -0.0033567087 0.0014538574 0.0025231175 0.0017298002 0.0006400611 -0.00050754874
-0.0051993965 0.0015763327 -0.0013374052 0.0050048707 0.0021567594 0.001736323 -0.00049935834 -0.00054910744
0.00087983656 -0.0030517627 -0.00020071118 0.0042042527 0.001699009 -2.6395084e-05 0.00048348535 0.0011443004
