results/SeekerAgent/SeekerAgent/SeekerAgent-27498.pt (torch, 876479 bytes, 48 tensors)

network_body._body_endoder.seq_layers.0.weight f4 [128, 18]
0.04624428 -0.3052815 0.15303718 -0.17105226 0.069971696 0.04374262 -0.29251313 0.15950459
-0.10663598 0.17558771 -0.010838476 0.1592639 0.382127 -0.35525823 -0.02130131 -0.10419462
0.15192461 0.2515544 0.19213112 0.009915262 0.07419847 -0.33706516 0.033628713 -0.32156956
-0.15532781 -0.29489672 0.49557343 -0.13775739 -0.0013303919 0.25067186 -0.16913633 0.42823878
-0.41096056 0.26434645 -0.2460296 0.25633276 -0.28582788 0.08938254 -0.27549434 -0.09613965
-0.3068596 -0.08340003 -0.2792377 -0.026168175 -0.11400271 -0.35020223 0.0032359723 -0.09556685
0.2752501 -0.6103681 -0.41274875 -0.6363895 -0.21466649 -0.05479942 -0.142752 -0.14813055
0.12672281 0.123421036 0.20355998 -0.68007004 0.07998677 0.27369294 0.23336358 0.17778626
0.24771826 -0.23543122 0.24207287 0.005613555 0.13027702 0.2116752 -0.034158435 -0.28660825
-0.050065294 -0.004566116 -0.09586854 -0.35292172 -0.030552033 -0.14503877 -0.16319998 0.6106252
0.37134236 0.31988257 0.06927092 -0.2767868 -0.21208663 0.11826963 0.022830745 0.0180673
0.49222434 -0.23079939 0.050091393 0.15058221 0.11836891 0.39352468 -0.059788156 0.40543646
-0.18420854 0.46188682 -0.5018467 0.14570516 0.014694673 -0.20371793 0.34355643 0.61308205
-0.0028423872 -0.19163896 -0.23861885 -0.15600769 -0.23104618 0.054412153 0.008753131 0.08291533
-0.23696281 0.109253146 -0.12799256 -0.08734128 0.13922445 0.12527063 0.03843163 -0.14561032
-0.052625623 0.094383076 0.051040567 -0.4777369 -0.017755503 -0.110466585 0.17452383 -0.31064352
-0.3581765 -0.028140029 0.15377282 0.32347435 -0.07003514 0.29806748 0.14184467 0.072072916
0.2048996 0.089978054 -0.0065460135 -0.14912724 0.50833315 0.053033296 -0.03598012 -0.09262928
-0.26014486 -0.038782716 0.050752122 -0.27576742 -0.11430199 0.1338922 -0.105490714 0.0009244675
-0.2223486 -0.0911756 0.4768439 -0.07298128 -0.124956146 -0.13192715 0.47776902 0.021497298
0.08725513 -0.0511032 -0.23706903 0.37261024 0.22253409 0.38555825 0.1908913 0.53858393
-0.09666942 0.2833067 -0.04542295 -0.06628641 0.06705585 0.23212229 -0.12294716 0.034873523
-0.5945032 -0.353852 0.34157735 0.05470019 -0.017312827 0.22681709 0.2640219 0.17943291
0.30907395 -0.08678732 -0.20844357 0.06656648 -0.08491814 -0.13970852 -0.005938469 -0.17695925
0.19635084 -0.11616962 -0.019452076 -0.54181206 -0.16821091 -0.3116834 -0.48525888 -0.15715027
-0.31576476 0.3478818 0.46980816 -0.07837381 0.12833248 0.058175225 0.29110187 0.10743619
-0.025277428 0.38836485 0.3537707 0.17607923 0.0011779157 0.31855342 -0.06471064 -0.03635863
0.09655113 -0.29946664 -0.3962944 0.03157155 0.16164796 0.3193788 0.006480275 0.19783352
-0.041106895 0.3646638 0.17923833 0.22292084 0.068650536 0.2396624 -0.26277673 0.35518682
0.297803 0.21122453 0.17549673 0.04843528 0.5346156 0.0017897793 0.052343912 0.17081216
-0.23152693 -0.43969348 -0.096043244 0.14620487 -0.17098975 -0.021971943 -0.18537775 -0.41880596
0.20257662 0.043583035 -0.08555948 -0.5400577 0.28610417 -0.37374753 0.120764755 -0.013295352
00000000: a46a 3d3d db4d 9cbe c7b5 1c3e 5328 2fbe
00000010: 524d 8f3d 762b 333d 48c4 95be 2c55 233e
00000020: f763 dabd 44cd 333e dd93 31bc 1316 233e
00000030: 26a6 c33e 68e4 b5be 1680 aebc fd63 d5bd
00000040: 2092 1b3e bdcb 803e 05be 443e a073 223c
00000050: 5ef5 973d ce93 acbe 43be 093d c4a4 a4be
00000060: 410e 1fbe b4fc 96be cdbb fd3e 4610 0dbe
00000070: 8b60 aeba 1058 803e 1332 2dbe 1d42 db3e
00000080: 6c69 d2be 6b58 873e 2fef 7bbe 0c3e 833e
00000090: 0858 92be 310e b73d 980d 8dbe dde4 c4bd
000000a0: b41c 9dbe a3cd aabd 3ef8 8ebe a45e d6bc
000000b0: 417a e9bd b54d b3be 9b12 543b 8db8 c3bd
000000c0: 95ed 8c3e 1541 1cbf ce53 d3be 6cea 22bf
000000d0: 88d1 5bbe 5b75 60bd 952d 12be 89af 17be
000000e0: a0c3 013e 2bc4 fc3d 0772 503e 1219 2ebf
000000f0: 1bd0 a33d 7b21 8c3e ddf6 6e3e 9a0d 363e
00000100: dba9 7d3e e214 71be f3e1 773e eaf1 b73b
00000110: 5767 053e 62c1 583e b7e9 0bbd 51be 92be
00000120: 4411 4dbd 5b9f 95bb ba56 c4bd 28b2 b4be
00000130: 4248 fabc 0b85 14be e51d 27be ef51 1c3f
00000140: 9620 be3e a6c7 a33e e9dd 8d3d 00b7 8dbe
00000150: 3d2d 59be 5937 f23d 8b07 bb3c e001 943c
00000160: d404 fc3e ad56 6cbe a22c 4d3d 3932 1a3e
00000170: 666b f23d 117c c93e 6de4 74bd 5e95 cf3e
00000180: 2aa1 3cbe 6e7c ec3e 0679 00bf bc33 153e
00000190: edc1 703c 6f9b 50be a1e6 af3e f2f2 1c3f
000001a0: 5847 3abb 013d 44be 8058 74be 7bc0 1fbe
000001b0: 5f97 6cbe 47df 5e3d 4b69 0f3c 83cf a93d
000001c0: 61a6 72be 1dc0 df3d 7b10 03be fcdf b2bd
000001d0: db90 0e3e f246 003e 7c6a 1d3d df1a 15be
000001e0: f78d 57bd ea4b c13d ea0f 513d ee99 f4be
000001f0: fd73 91bc 4e3c e2bd 60b6 323e ab0c 9fbe
00000200: e962 b7be eb85 e6bc 9f76 1d3e 6e9e a53e
00000210: 956e 8fbd 4d9c 983e bb3f 113e f79a 933d
00000220: 33d1 513e 6a46 b83d f17f d6bb d0b4 18be
00000230: 1f22 023f 7139 593d e45f 13bd 6cb4 bdbd
00000240: b531 85be a0da 1ebd 75e1 4f3d 6331 8dbe
00000250: 2917 eabd 091b 093e 840b d8bd f757 723a
00000260: 5aaf 63be 46ba babd e224 f43e 3677 95bd
00000270: 02e9 ffbd e917 07be 249e f43e 1a1b b03c
00000280: d1b2 b23d 9751 51bd 39c2 72be c5c6 be3e
00000290: fadf 633e e467 c53e 0279 433e a3e0 093f
000002a0: 9efa c5bd 930d 913e 6a0d 3abd 2bc1 87bd
000002b0: 9454 893d 77b1 6d3e b8cb fbbd 8ad7 0e3d
000002c0: 5d31 18bf 172c b5be 3ae3 ae3e 4e0d 603d
000002d0: a1d3 8dbc bd42 683e e12d 873e 43bd 373e
000002e0: f13e 9e3e 8dbd b1bd 3b72 55be 0254 883d
000002f0: 90e9 adbd c00f 0fbe 7d97 c2bb ce34 35be
00000300: 3210 493e 56ea edbd f659 9fbc 32b4 0abf
00000310: 7b3f 2cbe f794 9fbe da73 f8be 00ec 20be
00000320: ebab a1be 901d b23e b28a f03e 7382 a0bd
00000330: 9769 033e 2549 6e3d 4e0b 953e 8107 dc3d
00000340: 9c12 cfbc c2d7 c63e 6f21 b53e 1d4e 343e
00000350: 4b64 9a3a 6f19 a33e 0387 84bd c9ec 14bd
00000360: 99bc c53d b153 99be 19e7 cabe 2b51 013d
00000370: 0b87 253e 9e85 a33e 7d58 d43b df94 4a3e
00000380: b45f 28bd 37b5 ba3e 418a 373e 5c45 643e
00000390: a798 8c3d 0f6a 753e ac8a 86be 0cdb b53e
000003a0: a379 983e 3e4b 583e 6ab5 333e 1264 463d
000003b0: 91dc 083f 0797 ea3a 9266 563d 62e9 2e3e
000003c0: 6515 6dbe 811f e1be 52b2 c4bd bbb6 153e
000003d0: f017 2fbe 81fe b3bc aad3 3dbe bc6d d6be
000003e0: 3f70 4f3e 2084 323d cf39 afbd 3941 0abf
000003f0: 3f7c 923e d65b bfbe 8353 f73d c0d4 59bc

network_body._body_endoder.seq_layers.0.bias f4 [128]
0.0038446437 0.019269222 -0.011618259 0.010117157 0.012234536 -0.013570778 -0.0029626233 0.015431599
0.010087943 -0.011409039 -0.006492897 -0.012573775 0.007639427 -0.0034810745 0.015968064 0.008545206
0.0027184857 -0.0066850553 -0.015323811 -0.003923661 -0.018736666 0.020475484 0.0075989356 0.0010655206
0.009552013 -0.00279569 -0.0038779606 0.0053232247 -0.0035395129 -0.0066902135 0.016330691 0.024366582
-0.012033383 -0.015035365 -0.010176342 0.007953674 -0.0039640963 -0.021574073 -0.0125551075 0.01521692
-0.011759472 0.016714863 -0.019721095 0.009893785 -0.015024827 0.022442542 -0.009441969 -0.011706518
0.017513243 0.00808587 0.020281428 0.009220631 -0.0031370306 -0.017903494 -0.021904686 0.02922414
0.017888764 -0.0042467304 0.022493396 0.0038675074 -0.01676832 -0.004541455 0.001986121 0.023768801
0.01374599 0.013098414 0.005247245 -0.011609255 -0.0005250881 0.010052368 0.0012670466 0.0109963585
-0.00065034087 -0.019534683 -0.012737444 -0.008656797 0.024185995 0.019699601 0.009227326 -0.013129072
0.011371365 -0.014909016 0.01316638 0.0097746 0.009326515 -0.008625845 0.011482209 0.0104490705
-0.009796844 -0.0125946645 -0.016452048 -0.0036831377 0.012461183 -0.011780539 -0.019539488 -0.007672717
0.016253836 -0.004116471 -0.015172957 -0.012785574 0.0014103475 0.0124622295 0.0041657737 0.002481626
-0.021243853 0.015529692 -0.014314324 0.0035199423 0.013302205 0.023740452 -0.005785767 0.007829654
0.014535947 0.005288617 -0.016508942 0.011380182 0.019435177 -0.0013503009 -0.0065908716 0.0043745744
-0.017029742 0.010272816 -0.01235247 -0.013718941 0.00068075996 0.003715443 -0.012061596 0.00903493
00000000: 6bf6 7b3b 7dda 9d3c 835a 3ebc 6fc2 253c
00000010: 5d73 483c f857 5ebc 9228 42bb d1d4 7c3c
00000020: e647 253c faec 3abc 5ec2 d4bb 3c02 4ebc
00000030: 2954 fa3b bd22 64bb 75cf 823c 3101 0c3c
00000040: 9f28 323b 4f0e dbbb b910 7bbc 0e92 80bb
00000050: a37d 99bc 34bc a73c 7e00 f93b f0a8 8b3a
00000060: 0c80 1c3c e537 37bb 6225 7ebb 726e ae3b
00000070: 2cf7 67bb 9439 dbbb f1c7 853c 6d9c c73c
00000080: ab27 45bc e456 76bc acba 26bc 2050 023c
00000090: 40e5 81bb 1cbc b0bc f0b3 4dbc 6350 793c
000000a0: cdaa 40bc 9ced 883c 228e a1bc 8b19 223c
000000b0: b12a 76bc 6cd9 b73c 7db2 1abc b2cc 3fbc
000000c0: ef77 8f3c 997a 043c 3d25 a63c 2112 173c
000000d0: a496 4dbb 59aa 92bc 7571 b3bc 7767 ef3c
000000e0: 758b 923c 2828 8bbb 1244 b83c 0276 7d3b
000000f0: b75d 89bc 7cd0 94bb 9529 023b cab6 c23c
00000100: dc36 613c bb9a 563c 15f1 ab3b bf34 3ebc
00000110: 11a6 09ba b0b2 243c 0713 a63a 122a 343c
00000120: a37b 2aba 3307 a0bc b6b0 50bc 3dd5 0dbc
00000130: b521 c63c 0f61 a13c 362e 173c 521b 57bc
00000140: f64e 3a3c f244 74bc cdb7 573c a525 203c
00000150: 3dce 183c 6b53 0dbc e01f 3c3c 9432 2b3c
00000160: f182 20bc da59 4ebc 72c6 86bc cc60 71bb
00000170: fd29 4c3c 2903 41bc 4711 a0bc 6a6b fbbb
00000180: c426 853c 76e3 86bb ff97 78bc 967a 51bc
00000190: 69db b83a 612e 4c3c 0b81 883b c7a2 223b
000001a0: 9707 aebc 4070 7e3c a086 6abc d5ae 663b
000001b0: 7ef1 593c 567b c23c 8896 bdbb f347 003c
000001c0: 2e28 6e3c 234c ad3b c33d 87bc f173 3a3c
000001d0: 8536 9f3c 94fc b0ba 3df8 d7bb 9758 8f3b
000001e0: f581 8bbc 504f 283c 0462 4abc 69c5 60bc
000001f0: 0775 323a ca7e 733b 009e 45bc 3e07 143c

network_body._body_endoder.seq_layers.2.weight f4 [128, 128]
-0.011572789 -0.1533825 -0.052568704 0.056705855 0.031721488 0.1694968 0.028391575 0.098407626
-0.02066909 -0.14328814 0.15864858 0.026584761 0.064958625 -0.04273614 -0.038060907 0.055495404
0.041288197 0.09273353 0.056987323 0.024467606 0.1422521 0.11658543 0.070066705 -0.14601845
-0.1188992 0.11954764 -0.06257208 0.075797446 -0.106958196 0.08363346 -0.030973025 -0.08387908
0.0517697 0.23879248 -0.074513115 -0.17792572 -0.12164886 -0.1031786 -0.06283418 0.17244755
-0.12285433 -0.035837088 0.067709066 0.0220599 -0.10159604 -0.16275969 -0.14019781 -0.081713706
-0.01969193 0.031228347 0.121581785 -0.0718783 0.036727857 0.06882952 0.03401243 -0.063445695
-0.12323174 0.11504644 -0.1711078 0.018055901 0.049549755 -0.0011357083 0.018258108 0.041023273
0.04753495 -0.054398213 -0.031559892 0.06905677 -0.07258734 0.09135667 0.13471636 -0.12943281
0.021789432 0.1102889 -0.077567175 -0.016825125 0.063343324 -0.12713306 0.04969595 0.18424135
0.023057077 -0.04633349 0.06717009 -0.028227711 -0.1917998 0.077386804 -0.073899984 -0.19141519
-0.04406303 0.049729854 0.052203696 0.111755595 0.015952662 -0.0013149005 -0.01822252 0.10770438
-0.056876738 0.053040143 0.033520285 0.13387305 0.102756366 -0.06753251 -0.008463931 0.015760716
0.05788268 -0.18422021 -0.014943174 -0.15069574 0.06405237 -0.014134194 0.019309202 -0.07314725
0.043322697 0.026533807 -0.003219039 -0.10706144 -0.12436931 -0.04523535 -0.046566434 0.03142287
-0.006071359 0.17818789 0.028945882 0.0080211805 -0.13470486 -0.03987027 0.10591321 0.0048577255
-0.20219865 0.08930174 -0.06452194 -0.12706703 0.0019396116 0.085594535 -0.035361264 0.00020083977
0.2079976 0.0032016013 0.0063622124 -0.0018497426 -0.03589363 -0.09006124 -0.007216275 -0.010577781
0.029372308 -0.038409952 -0.11279142 -0.027002908 0.14649715 -0.040143225 -0.05240245 -0.032232128
0.019293388 0.17462778 0.007821586 -0.04970403 0.07348482 -0.1920715 -0.07697491 -0.09487271
-0.031232893 0.06274762 -0.022472776 0.07361879 -0.025213579 -0.04310044 -0.15621927 0.039004132
-0.10257705 -0.103804044 0.1361836 -0.22174953 0.0993659 0.1305924 0.10249271 -0.004532686
0.13135885 -0.16843438 -0.035270367 -0.056674402 0.029630918 0.0075094798 0.0052378024 -0.06481104
0.16191188 -0.02888948 0.19945781 0.17260996 0.16286361 0.13229927 0.047576178 -0.052046187
0.21248105 -0.16517842 0.083582416 -0.13670842 0.12915853 0.09026838 -0.08738609 -0.030338304
-0.053579412 -0.06925027 -0.07334667 -0.19194897 0.16603373 -0.041642737 0.026775632 0.092756934
0.12409932 -0.032584414 -0.008240835 0.10031414 0.021795738 -0.07215461 -0.040437233 0.044324193
-0.080899015 -0.11929946 -0.046212498 -0.17257437 -0.14488639 0.07167971 -0.07608425 0.02415316
-0.011973062 -0.06183997 0.015569561 -0.039392658 0.08803891 0.031179 0.06938165 0.03641391
-0.10901277 -0.13451459 -0.0499045 -0.036073893 0.051977508 0.074485675 0.0032613503 0.040494878
-0.0027941347 -0.023714446 -0.20829463 -0.04215694 -0.0075468975 0.058975145 -0.035265785 -0.08926362
-0.03398255 0.1402914 -0.026150655 -0.036279596 -0.12142476 0.12003707 -0.13019794 -0.04505831
00000000: cc9b 3dbc 4d10 1dbe 4852 57bd 6644 683d
00000010: 64ee 013d 9290 2d3e 7395 e83c f089 c93d
00000020: 3952 a9bc 20ba 12be c674 223e 49c8 d93c
00000030: 0709 853d 170c 2fbd c1e5 1bbd 264f 633d
00000040: d01d 293d 14eb bd3d 8a6b 693d 4a70 c83c
00000050: 89aa 113e 58c4 ee3d 227f 8f3d dc85 15be
00000060: 6c81 f3bd 65d5 f43d ca25 80bd b13b 9b3d
00000070: e60c dbbd 0548 ab3d 24bb fdbc ccc8 abbd
00000080: 770c 543d 0486 743e 559a 98bd 2932 36be
00000090: 0a23 f9bd 4d4f d3bd 35af 80bd 1796 303e
000000a0: 0d9b fbbd e9c9 12bd 0dab 8a3d f7b6 b43c
000000b0: 9611 d0bd 7aaa 26be 0490 0fbe 8459 a7bd
000000c0: f850 a1bc 97d2 ff3c dfff f83d ee34 93bd
000000d0: f36f 163d 7ef6 8c3d 9e50 0b3d d1ef 81bd
000000e0: ec60 fcbd 789d eb3d e236 2fbe f8e9 933c
000000f0: aff4 4a3d 0cdc 94ba 0792 953c 0508 283d
00000100: 02b4 423d a9d0 5ebd f244 01bd a36d 8d3d
00000110: aca8 94bd 3519 bb3d 16f3 093e 098a 04be
00000120: c07f b23c 26df e13d 8adb 9ebd d8d4 89bc
00000130: 25ba 813d 2b2f 02be fb8d 4b3d c4a9 3c3e
00000140: 32e2 bc3c 30c8 3dbd 7990 893d cd3d e7bc
00000150: 2b67 44be f97c 9e3d e058 97bd 5802 44be
00000160: 707b 34bd 88b1 4b3d 8bd3 553d 1ee0 e43d
00000170: 28af 823c bd58 acba 6547 95bc 1d94 dc3d
00000180: 95f7 68bd 9f40 593d 914c 093d 0416 093e
00000190: ee71 d23d 7c4e 8abd 4dac 0abc 9e1c 813c
000001a0: 6416 6d3d 39a4 3cbe 37d4 74bc fc4f 1abe
000001b0: e42d 833d 1b93 67bc 552e 9e3c 3ace 95bd
000001c0: 2473 313d 6d5d d93c 83f6 52bb 0743 dbbd
000001d0: 56b5 febd b448 39bd 72bc 3ebd 44b5 003d
000001e0: 40f2 c6bb e376 363e ea1f ed3c 456b 033c
000001f0: 12f0 09be 024f 23bd 06e9 d83d 8e2d 9f3b
00000200: 2a0d 4fbe d5e3 b63d 1424 84bd dc1d 02be
00000210: 913a fe3a 304c af3d f9d6 10bd 8498 5239
00000220: 53fd 543e f5d1 513b 1b7a d03b 1073 f2ba
00000230: 3305 13bd 0772 b8bd 8176 ecbb 6e4e 2dbc
00000240: 329e f03c c153 1dbd 30ff e6bd 3435 ddbc
00000250: 5903 163e 396d 24bd f4a3 56bd d605 04bd
00000260: 2b0d 9e3c a0d1 323e 1c26 003c 7496 4bbd
00000270: 367f 963d 64ae 44be 06a5 9dbd a04c c2bd
00000280: 20dc ffbc d381 803d d418 b8bc 73c5 963d
00000290: b58c cebc 168a 30bd f2f7 1fbe ccc2 1f3d
000002a0: eb13 d2bd 3797 d4bd b773 0b3e 4f12 63be
000002b0: 5980 cb3d 04ba 053e b3e7 d13d ed86 94bb
000002c0: ef82 063e 107a 2cbe a977 10bd 6b23 68bd
000002d0: 8abc f23c 1512 f63b dfa1 ab3b a7bb 84bd
000002e0: 3acc 253e a1a9 ecbc ab3e 4c3e aac0 303e
000002f0: b8c5 263e 7679 073e 3ddf 423d 622e 55bd
00000300: a294 593e 8824 29be 422d ab3d 4bfd 0bbe
00000310: 2242 043e a1de b83d 7af7 b2bd 0988 f8bc
00000320: 1676 5bbd 16d3 8dbd c736 96bd 458e 44be
00000330: bf04 2a3e 9391 2abd 9258 db3c 59f7 bd3d
00000340: c927 fe3d 3c77 05bd 9104 07bc 8071 cd3d
00000350: fa8c b23c ccc5 93bd 83a1 25bd 498d 353d
00000360: 62ae a5bd 4653 f4bd 5149 3dbd 56b7 30be
00000370: 195d 14be d0cc 923d 0fd2 9bbd d9dc c53c
00000380: a92a 44bc e94b 7dbd 7917 7f3c 325a 21bd
00000390: be4d b43d 1a6b ff3c f717 8e3d c126 153d
000003a0: 1642 dfbd 31be 09be a968 4cbd 38c2 13bd
000003b0: 5ee6 543d f28b 983d 61bc 553b f5dd 253d
000003c0: cd1d 37bb cc44 c2bc 304b 55be c1ac 2cbd
000003d0: f74b f7bb ec8f 713d db72 10bd d8cf b6bd
000003e0: 4931 0bbd 8ca8 0f3e e639 d6bc ea99 14bd
000003f0: 8bad f8bd ffd5 f53d 9c52 05be 108f 38bd

network_body._body_endoder.seq_layers.2.bias f4 [128]
-0.019572321 0.009364924 -0.013935883 -0.003717828 0.011954048 -0.0018432381 -0.003607475 0.008077769
0.010398879 -0.0037897008 0.01575637 0.002285669 -0.009158215 -0.005857265 -0.00089271367 -0.0006188279
0.01703786 0.0026338622 -0.014039839 -0.014655126 0.017626267 0.023298174 0.0016688708 -0.004373683
0.017805167 0.014092898 -0.008700589 -0.011200513 0.015278467 0.003608259 -0.010926353 0.004670009
-0.011336493 -0.0010585886 0.00983449 0.012730837 -0.0068105585 -0.014888909 -0.0044794455 0.0009291374
-0.015269831 0.012922644 -0.01092602 0.013914277 -0.015218931 0.01409845 -0.009994516 0.011918766
-0.013647095 -0.013609587 0.021710064 -0.016163044 0.0042393175 0.011795885 -0.009388034 -0.013651667
0.01739493 0.0005115893 -0.012150268 0.016041214 0.011455632 0.008473576 -0.010614049 -0.011407146
-0.0023491564 0.015394859 0.009507413 0.013386578 -0.0058679455 0.0021282602 -0.006237819 -0.013315956
0.019528879 -0.0063506262 0.007935104 0.00051492313 0.015389252 0.017497847 -0.009135044 0.019153481
-0.002710113 -0.0060490314 0.00997044 0.010539827 0.01395376 -0.010324162 0.014823584 0.015383705
0.013174351 -0.0049317474 0.010082856 0.0032136883 -1.8470595e-05 0.030299252 0.01600461 -0.024018826
-0.007944777 -0.00022034216 0.005901029 0.007347547 -0.0078877555 -0.009575849 0.0076664863 0.014286747
-0.0076684305 -4.938895e-05 0.00874008 0.008268376 0.017662844 -0.0017577623 -0.009373284 -0.0060254643
0.018038435 -0.009088498 -0.0028911384 -0.0115211615 0.008015371 0.0041190996 -0.016180042 -0.016311256
0.0053408323 -0.008083943 -0.020442419 -0.004916812 -0.014572017 -0.0017687908 0.011127505 -0.00055340625
00000000: 2256 a0bc 576f 193c 5453 64bc cea6 73bb
00000010: e9da 433c cf98 f1ba 636b 6cbb 9e58 043c
00000020: 0f60 2a3c a15c 78bb 8113 813c 2acb 153b
00000030: 560c 16bc 4dee bfbb 0005 6aba d638 22ba
00000040: fb92 8b3c e09c 2c3b 5a07 66bc 0e1c 70bc
00000050: f664 903c d0db be3c 03be da3a 1d51 8fbb
00000060: 24dc 913c e6e5 663c ea8c 0ebc 5b82 37bc
00000070: 8952 7a3c 8a78 6c3b 7204 33bc e006 993b
00000080: b3bc 39bc 57c0 8aba d720 213c 0095 503c
00000090: 1b2b dfbb 9cf0 73bc 50c8 92bb 5b91 733a
000000a0: 502e 7abc 7fb9 533c 0d03 33bc b5f8 633c
000000b0: d358 79bc 2ffd 663c 0ac0 23bc ee46 433c
000000c0: 1198 5fbc bffa 5ebc 4ed9 b13c 5c68 84bc
000000d0: f9e9 8a3b 8743 413c 45d0 19bc 3eab 5fbc
000000e0: d07f 8e3c 2d1c 063a eb11 47bc dd68 833c
000000f0: 67b0 3b3c c1d4 0a3c 8ce6 2dbc 0ae5 3abc
00000100: 4ef4 19bb b83a 7c3c fbc4 1b3c 6153 5b3c
00000110: e547 c0bb 487a 0b3b 9e66 ccbb 2b2b 5abc
00000120: 07fb 9f3c ea18 d0bb 3d02 023c e8fb 063a
00000130: 3423 7c3c a557 8f3c 27ab 15bc c3e7 9c3c
00000140: 279c 31bb f436 c6bb 0e5b 233c 3daf 2c3c
00000150: 509e 643c ad26 29bc 9ede 723c ef0b 7c3c
00000160: 3cd9 573c 7f9a a1bb 9032 253c be9c 523b
00000170: 4df1 9ab7 2336 f83c 1a1c 833c 21c3 c4bc
00000180: cf2a 02bc a60b 67b9 6b5d c13b b1c3 f03b
00000190: a53b 01bc 06e4 1cbc 2637 fb3b f612 6a3c
000001a0: 7547 fbbb fb26 4fb8 8d32 0f3c 1578 073c
000001b0: abb1 903c b764 e6ba 6792 19bc 4271 c5bb
000001c0: 57c5 933c ece7 14bc 4179 3dbb 41c3 3cbc
000001d0: e752 033c 83f9 863b 028c 84bc 2f9f 85bc
000001e0: 2602 af3b 8472 04bc dc76 a7bc 351d a1bb
000001f0: 78bf 6ebc c5d6 e7ba 2450 363c 7712 11ba

network_body._body_endoder.seq_layers.4.weight f4 [128, 128]
-0.14759542 0.060000334 -0.08980757 0.0548301 0.033454627 -0.13661861 -0.069544844 0.072967716
-0.10540593 -0.03676108 0.16606657 0.120360605 -0.0974046 -0.099621624 0.026905553 0.02616996
-0.08180799 -0.0003254828 0.055977535 0.0064981277 0.12223357 -0.016689414 -0.03458497 -0.12493581
0.022680473 -0.036426708 0.060652863 0.011521186 -0.012598731 0.1224326 -0.17859255 0.035552204
-0.13754962 0.00995361 -0.17202884 -0.007903097 -0.061454028 -0.16935994 -0.04865432 -0.09134155
-0.003207462 -0.1244482 0.11175313 -0.016384872 0.071588695 -0.04725408 -0.030140735 -0.004035299
0.04266654 -0.03825992 0.15931311 0.0017805696 -0.066322826 0.014571103 -0.08078252 0.12231293
-0.038214404 -0.10355012 0.25290778 -0.031263486 -0.018227138 -0.0140731195 0.052306067 0.012537129
0.1367696 0.07645195 -0.12742807 -0.015396239 0.07571169 -0.011382864 0.08157682 0.0190347
-0.06386603 -0.07663855 -0.098892614 -0.033862043 -0.09805994 -0.11880193 0.039139383 0.13567463
-0.16785747 0.04173709 0.110839315 0.0777813 -0.07719948 0.07062194 0.04489882 0.030673869
0.13845576 -0.13701324 0.09715506 0.0768586 -0.05170288 0.11549851 0.005302846 -0.07863369
0.06322515 -0.03247436 -0.008915782 -0.073690206 -0.13197453 -0.015574721 0.029751161 -0.02051693
-0.009172129 0.04748589 0.07280576 0.02072168 0.18994255 -0.22064257 -0.005561631 0.1266702
0.12410433 -0.052258033 0.02982621 0.033671975 -0.10506111 -0.2145311 0.007492013 -0.022957824
0.041644126 -0.05575145 0.08546598 0.13642663 -0.017243769 0.04836759 -0.069675915 -0.19627184
-0.027957981 -0.0010863647 -0.10455816 -0.03182121 0.1350798 -0.08365319 -0.03366024 -0.026164668
0.094269045 -0.09553254 0.069207504 0.109650776 0.10752837 -0.14297007 -0.09360845 0.17342293
-0.042382896 -0.046830554 0.16667765 0.062240455 -0.040861644 -0.0039039806 -0.056801308 0.061855115
0.0141867995 -0.047303654 -0.1735549 0.031350397 0.018643958 0.085192464 0.09847302 0.0035565526
0.038174182 0.08661496 -0.18582086 -0.025137544 0.1810867 -0.033874944 0.05366741 0.06431543
0.0803436 -0.13702773 0.076287396 0.1263281 -0.14019841 -0.0033358103 -0.05241252 -0.20552818
-0.042028908 0.09300487 -0.05934555 -0.1551826 -0.12699147 0.11232149 -0.022946138 -0.036976743
0.08244776 -0.14667155 -0.07750975 0.03026029 0.042915683 -0.07046677 -0.02926863 -0.1222777
0.10595372 0.020160552 -0.056055974 0.06877971 -0.06691614 -0.067071036 0.15344778 -0.14814743
0.0036011394 0.017918214 -0.00075894094 0.07688688 0.0479606 -0.098530695 -0.042546224 0.045715664
-0.16871881 -0.050310336 0.12220892 0.14077425 0.14634877 0.06813965 -0.109764434 -0.22922422
0.023002638 0.20999545 0.081000194 -0.05767756 0.118266925 -0.009933659 -0.08678058 -0.08091392
-0.04918676 -0.07460231 0.01643111 0.016739458 0.004052145 0.12167255 0.0801669 0.022896776
-0.072530866 -0.03669368 0.16103585 0.058638766 0.08177546 -0.08626266 -0.12867805 0.06040852
-0.21978591 0.028311238 0.12293661 0.18988264 -0.072123386 -0.08265909 0.0125129465 -0.04132554
0.08091723 -0.04481357 0.1586164 0.054177023 0.009779474 -0.14371449 0.008870339 -0.06839551
00000000: 4123 17be e9c2 753d 08ed b7bd 8795 603d
00000010: b807 093d c0e5 0bbe 876d 8ebd 1970 953d
00000020: 10df d7bd c992 16bd 5b0d 2a3e 9f7f f63d
00000030: 107c c7bd 6c06 ccbd 0969 dc3c 6262 d63c
00000040: f38a a7bd 90a5 aab9 b348 653d 3fee d43b
00000050: 9855 fa3d 3db8 88bc f8a8 0dbd 59de ffbd
00000060: 66cc b93c 2c34 15bd 236f 783d 5bc3 3c3c
00000070: e86a 4ebc f1bd fa3d f7e0 36be 309f 113d
00000080: cfd9 0cbe 7714 233c 5428 30be fe7b 01bc
00000090: 38b7 7bbd b16c 2dbe c149 47bd 4711 bbbd
000000a0: 4834 52bb b3de febd d3de e43d 9139 86bc
000000b0: 189d 923d 7f8d 41bd b4e9 f6bc 8b3a 84bb
000000c0: 1cc3 2e3d 6fb6 1cbd fa22 233e 0062 e93a
000000d0: 43d4 87bd a3bb 6e3c 4e71 a5bd 347f fa3d
000000e0: b586 1cbd 1612 d4bd 217d 813e 240e 00bd
000000f0: 1451 95bc f192 66bc e33e 563d 8868 4d3c
00000100: 540d 0c3e d792 9c3d 817c 02be 8240 7cbc
00000110: bb0e 9b3d 317f 3abc bf11 a73d a9ee 9b3c
00000120: 31cc 82bd acf4 9cbd 3688 cabd edb2 0abd
00000130: a6d3 c8bd 6d4e f3bd 9e50 203d 4aee 0a3e
00000140: d4e2 2bbe 83f4 2a3d b9ff e23d cd4b 9f3d
00000150: c31a 9ebd 3ca2 903d d3e7 373d c447 fb3c
00000160: 59c7 0d3e 334d 0cbe 3bf9 c63d 0b68 9d3d
00000170: 66c6 53bd 7c8a ec3d 7fc3 ad3b b30a a1bd
00000180: 307c 813d d603 05bd 8013 12bc e4ea 96bd
00000190: 5524 07be 1d2d 7fbc b5b8 f33c 1f13 a8bc
000001a0: b346 16bc 9180 423d 301b 953d 83c0 a93c
000001b0: 4d80 423e 20f0 61be 583e b6bb d5b5 013e
000001c0: 692a fe3d 850c 56bd 1956 f43c a0eb 093d
000001d0: 472a d7bd 0aae 5bbe 8f7f f53b 0c12 bcbc
000001e0: 0893 2a3d a25b 64bd ca08 af3d 6cb3 0b3e
000001f0: ce42 8dbc 181d 463d 3fb2 8ebd 7cfb 48be
00000200: 2308 e5bc 5a64 8eba 9722 d6bd f556 02bd
00000210: 5c52 0a3e 5d52 abbd 52df 09bd 4957 d6bc
00000220: 2110 c13d 90a6 c3bd aabc 8d3d 9690 e03d
00000230: d637 dc3d bf66 12be c9b5 bfbd c895 313e
00000240: b099 2dbd 65d1 3fbd 8cad 2a3e d9ef 7e3d
00000250: 8a5e 27bd edd9 7fbb 7da8 68bd ca5b 7d3d
00000260: c06f 683c 7ac1 41bd 60b8 31be 4669 003d
00000270: 37bb 983c 6379 ae3d 39ac c93d 0d15 693b
00000280: 885c 1c3d 2f63 b13d d347 3ebe 40ed cdbc
00000290: cb6e 393e 74c0 0abd 5cd2 5b3d cfb7 833d
000002a0: 2f8b a43d ff50 0cbe 913c 9c3d 275c 013e
000002b0: 2c90 0fbe 9c9d 5abb 83ae 56bd fb75 52be
000002c0: 8126 2cbd 5679 be3d 5214 73bd 30e8 1ebe
000002d0: 0d0a 02be cf08 e63d 8af9 bbbc ed74 17bd
000002e0: 5fda a83d 1131 16be 6fbd 9ebd 6de4 f73c
000002f0: 5bc8 2f3d e250 90bd c4c4 efbc bb6c fabd
00000300: 44fe d83d be27 a53c f39a 65bd 60dc 8c3d
00000310: 540b 89bd 8a5c 89bd 6a21 1d3e f6b3 17be
00000320: 1801 6c3b 38c9 923c aaf3 46ba de76 9d3d
00000330: 5672 443d 76ca c9bd f344 2ebd 5940 3b3d
00000340: a0c4 2cbe 3612 4ebd ac48 fa3d 2027 103e
00000350: 74dc 153e cd8c 8b3d 2dcc e0bd c1b9 6abe
00000360: 0770 bc3c 0c09 573e 6ee3 a53d 4e3f 6cbd
00000370: ee35 f23d c9c0 22bc 04ba b1bd 33b6 a5bd
00000380: 0e78 49bd 19c9 98bd 899a 863c 3021 893c
00000390: dbc7 843b 752f f93d 8b2e a43d 0592 bb3c
000003a0: 108b 94bd 1d4c 16bd 95e6 243e 342f 703d
000003b0: e479 a73d 7aaa b0bd 2ec4 03be ed6e 773d
000003c0: 8f0f 61be f8ec e73c 30c6 fb3d 9870 423e
000003d0: 6db5 93bd 2b49 a9bd 1a03 4d3c f844 29bd
000003e0: efb7 a53d 6f8e 37bd 566c 223e bae8 5d3d
000003f0: 163a 203c e429 13be e654 113c f212 8cbd

network_body._body_endoder.seq_layers.4.bias f4 [128]
0.0061222273 -0.018295083 -0.012132871 0.002887706 0.013974182 -0.01580432 0.021227878 -0.012334068
-0.0045979046 -0.00095293607 -0.0013327136 0.004210027 -0.011132719 0.009922917 0.011323762 0.007812676
0.00041569886 0.01674937 0.004952985 0.007458564 -0.012879107 0.00059216225 0.014191114 0.0076923766
-0.009285143 -0.00013686738 0.011314992 0.011383975 -0.013710193 0.0012093282 0.0067689735 -0.011316294
0.012326407 0.018146884 -0.0027901232 0.015395175 0.0139575135 -0.005756015 0.0141653055 -0.013844239
-0.00240163 0.008043055 0.0015155304 -0.014148959 -0.014245201 -0.004632057 0.008303052 0.0025388391
0.016702507 0.012780844 -0.004961302 -0.007905353 -0.013275666 0.0042827786 0.012732258 -0.0011332802
-0.003918565 -0.013366568 -0.015325239 0.008690368 0.011732299 -0.0047773756 -0.013258735 -0.0061618336
-0.012583096 -0.013289918 -0.0015323409 -0.0109088635 -0.00017346154 0.014789526 -0.013491087 -0.005614528
0.0077090906 -0.016868936 0.011005126 0.013425925 0.008053897 0.006101777 0.0059459023 0.009169042
0.0064053657 -0.0039733932 0.009310857 -0.012760996 -0.0031028318 0.0067451033 -0.012927025 0.010480095
0.009587632 -0.015762018 -0.013470081 -0.0060246442 -0.0041367994 -0.002188415 -0.012469434 0.011485654
0.0043774056 -0.016130004 0.0053960816 0.005895595 0.0045260657 0.0039270143 0.00068227825 -0.016419046
0.009934512 -0.010323669 -0.00855936 0.0052164705 -0.0006066101 0.009462808 0.0012934051 0.015062086
0.009377844 0.012574711 0.0068938644 0.009741843 0.013433999 0.0012438565 -0.01330538 0.012956834
0.014611201 0.0125508895 0.006750557 0.0050770626 -0.010815621 -0.0004036147 0.017393872 0.009945378
00000000: f79c c83b 92df 95bc f3c8 46bc ab3f 3d3b
00000010: f8f3 643c 1078 81bc 16e6 ad3c d514 4abc
00000020: 05aa 96bb 75ce 79ba 73ae aeba 44f4 893b
00000030: 0266 36bc bb93 223c 4d87 393c bd00 003c
00000040: 28f2 d939 fa35 893c a64c a23b f866 f43b
00000050: e402 53bc 563b 1b3a d981 683c 5510 fc3b
00000060: b620 18bc 0f84 0fb9 8462 393c da83 3a3c
00000070: b8a0 60bc 5282 9e3a 44ce dd3b fa67 39bc
00000080: b3f4 493c c6a8 943c 80da 36bb 0b3c 7c3c
00000090: 0eae 643c f49c bcbb 9915 683c f2d2 62bc
000000a0: aa64 1dbb 05c7 033c c3a4 c63a 09d1 67bc
000000b0: b464 69bc 83c8 97bb 8609 083c a762 263b
000000c0: b2d3 883c bf66 513c 6b92 a2bb 7485 01bc
000000d0: 2e82 59bc 8d56 8c3b f69a 503c 938a 94ba
000000e0: 4e67 80bb 73ff 5abc b616 7bbc 0c62 0e3c
000000f0: d438 403c 888b 9cbb 2a3b 59bc 35e9 c9bb
00000100: 5429 4ebc f5bd 59bc d4d8 c8ba 17bb 32bc
00000110: 3ae3 35b9 c54f 723c b809 5dbc 13fa b7bb
00000120: 8a9c fc3b b930 8abc d84e 343c 69f8 5b3c
00000130: 7ef4 033c 6af1 c73b d8d5 c23b c039 163c
00000140: 1ae4 d13b 3d33 82bb 918c 183c 7f13 51bc
00000150: e158 4bbb 0706 dd3b dfcb 53bc b4b4 2b3c
00000160: 7115 1d3c 591f 81bc 9db1 5cbc 616a c5bb
00000170: fd8d 87bb 836b 0fbb 994c 4cbc 532e 3c3c
00000180: 5770 8f3b 1223 84bc 9dd1 b03b d62f c13b
00000190: 644f 943b 2fae 803b ebda 323a 3c81 86bc
000001a0: 5dc4 223c 9b24 29bc 8f3c 0cbc edee aa3b
000001b0: ea04 1fba e509 1b3c 7987 a93a f8c6 763c
000001c0: 87a5 193c 2906 4e3c ede5 e13b 409c 1f3c
000001d0: 471a 5c3c e608 a33a cffe 59bc e748 543c
000001e0: d263 6f3c 3fa2 4d3c c733 dd3b 7d5d a63b
000001f0: 0134 31bc 3f9c d3b9 987d 8e3c f0f1 223c

action_model._continuous_distribution.log_sigma f4 [1, 2]
-0.028726412 0.006487435
00000000: a753 ebbc 8d94 d43b

action_model._continuous_distribution.mu.weight f4 [2, 128]
-0.00038509202 0.00079625926 -0.011320311 0.032928664 0.014313645 -0.020538416 0.0036955306 -0.04327174
-0.07393606 0.008181062 -0.0026391775 -0.0072112638 0.005115502 0.0072530685 -0.005927211 0.015037649
-0.011916747 0.0076596667 0.027062237 0.036053482 0.005680966 -0.0002032517 0.01718915 -0.0087364195
0.0014347883 0.01688012 0.044835847 0.015697883 -0.03383018 -0.014380942 -0.013212839 -0.0040727304
0.006086806 -0.0048013623 -0.0011590422 0.02527053 0.0069605387 -0.046064425 -0.0024833945 -0.0049090018
0.0058375234 -0.024291413 0.03331084 -0.008856912 -0.015569153 0.024994811 0.017803362 -0.019516183
0.026347505 0.0004594638 0.0142614655 -0.0015641955 -0.030544646 -0.008840778 -0.007491838 -0.0045512924
0.010703196 -0.02670763 -0.0017404446 0.037707243 0.021894928 -0.008920403 -0.023635779 -0.050485488
-0.009119649 -0.020536102 0.0048809205 -0.029339965 -0.014095544 0.014984277 -0.018763391 -0.0052641826
0.03848988 -0.017335963 0.013423472 -0.00021751353 -0.013298289 -0.01926067 -0.0069572474 0.0020109646
0.025851944 -0.019730113 0.00454766 -0.018143628 0.028135946 0.02394836 0.0045791427 0.010878484
0.0018371388 -0.0068136384 -0.045028254 0.012328517 0.0037659777 -0.0020029729 -0.0076650665 0.0056310003
0.012466437 -0.014350723 -0.018387495 0.00054995547 0.016873421 -0.0017740092 0.022972954 -0.0011010184
-0.0082386155 -0.012118089 -0.0027012308 -0.014742971 0.015847696 0.00976946 -0.0012942548 0.04666936
0.038488977 0.015385553 -0.012548448 0.03902999 0.030208964 0.026005778 0.0022149358 0.03257357
0.022882886 0.025775004 0.0022862346 -0.0076135714 -0.020434653 0.013785776 0.007087243 0.0035231747
-0.002587519 -0.006460204 -0.052275278 -0.006597946 0.017338905 -0.025906855 0.02643244 -0.027127918
0.010384705 -0.016256053 -0.0016870623 0.0037364208 -0.006862945 0.022630038 0.01909433 0.015806366
0.00912885 0.030197583 0.00025062426 0.008102525 -0.0067089745 0.0055964063 0.025444822 0.03561231
-0.048092216 -0.02122256 0.020525552 0.01330033 -0.058182094 0.011627259 0.04019051 0.0010307562
0.032362375 0.026807925 0.007826245 0.026729183 0.012354106 -0.0041902433 0.013677865 -0.010933961
-0.0007320789 0.024901055 -0.0026402834 -0.015575508 -0.023730831 -0.021903709 0.009161986 0.012800994
0.0375964 0.044673808 -0.047423847 -0.03852201 -0.025406238 0.027191278 0.036868777 0.0018931469
-0.0127630215 -0.020441392 -0.0026817685 0.0067075444 0.019276103 -0.0044317553 -0.029021792 -0.0053378544
-0.024519578 -0.03113385 0.0041181142 -0.016303126 0.0089244405 0.028982228 -0.018032383 -0.009010629
0.006099873 -0.021205937 0.018884558 0.009147292 0.009502321 0.025874866 0.019652676 0.028143065
0.0016312909 0.0010289274 0.03159764 -0.013345578 -0.027154597 0.0070969104 -0.02544125 0.017532948
0.032844465 -0.02418607 -0.035762306 -0.023507467 -0.025378305 -0.0059253615 -0.03782776 0.030503657
-0.0012254197 -0.020908587 0.020744115 0.009610871 0.005416137 0.012898991 -0.022443809 -0.017950797
0.032040864 -0.010251776 -0.016532864 0.011437661 -0.024700588 0.0011556201 0.012160077 0.056608777
0.0087574525 0.011960551 0.0045548175 0.010319578 0.036231875 -0.004185657 -0.01936575 0.049649034
0.05665485 0.014597674 0.03397515 0.036794744 -0.026384214 0.0020950278 0.019809127 0.014831802
00000000: 2de6 c9b9 0ebc 503a d378 39bc 35e0 063d
00000010: c783 6a3c 2e40 a8bc b730 723b b53d 31bd
00000020: ca6b 97bd dc09 063c 0df6 2cbb 774c ecbb
00000030: f19f a73b 26ab ed3b 0d39 c2bb 7960 763c
00000040: 763e 43bc f1fd fa3b a0b1 dd3c d1ac 133d
00000050: 6627 ba3b f61f 55b9 43d0 8c3c 3323 0fbc
00000060: 820f bc3a 2d48 8a3c cba5 373d d998 803c
00000070: 8491 0abd 0b9e 6bbc aa7a 58bc 8a74 85bb
00000080: d473 c73b bf54 9dbb 01eb 97ba 2404 cf3c
00000090: 3b15 e43b 0dae 3cbd 72c0 22bb b1db a0bb
000000a0: b248 bf3b c9fe c6bc f370 083d 951c 11bc
000000b0: c315 7fbc ebc1 cc3c 5bd8 913c 67e0 9fbc
000000c0: b9d6 d73c 30e4 f039 eca8 693c b105 cdba
000000d0: c438 fabc e9d8 10bc 187e f5bb 0223 95bb
000000e0: 755c 2f3c f6c9 dabc a11f e4ba e972 1a3d
000000f0: fe5c b33c e226 12bc d29f c1bc dfc9 4ebd
00000100: 956a 15bc 543b a8bc 21f0 9f3b 5e5a f0bc
00000110: fff0 66bc 9d80 753c afb5 99bc 2a7f acbb
00000120: 90a7 1d3d 2604 8ebc 1fee 5b3c 5814 64b9
00000130: 11e1 59bc 8dc8 9dbc 9ff9 e3bb 63ca 033b
00000140: 75c7 d33c 0ca1 a1bc 8904 953b f2a1 94bc
00000150: 5b7d e63c 5a2f c43c a20c 963b ab3b 323c
00000160: 26cc f03a f144 dfbb 8c6f 38bd 8cfd 493c
00000170: 9fce 763b 4f44 03bb 3d2b fbbb 4184 b83b
00000180: 0740 4c3c 4b1f 6bbc 5fa1 96bc e32a 103a
00000190: 213a 8a3c df85 e8ba c731 bc3c 0c50 90ba
000001a0: 42fb 06bc f38a 46bc 2207 31bb 818c 71bc
000001b0: 07d3 813c 1610 203c fca3 a9ba 5f28 3f3d
000001c0: 9ea6 1d3d b013 7c3c 0198 4dbc e9dd 1f3d
000001d0: ca78 f73c 120a d53c 7528 113b dd6b 053d
000001e0: e474 bb3c 1a26 d33c a7d4 153b 447b f9bb
000001f0: 9366 a7bc bcdd 613c 1a3c e83b 10e5 663b
00000200: 5d93 29bb 1eb0 d3bb 9a1e 56bd 9533 d8bb
00000210: 520a 8e3c 9d3a d4bc d888 d83c 5e3b debc
00000220: 9c24 2a3c 6a2b 85bc 6b20 ddba bdde 743b
00000230: 8ee2 e0bb a162 b93c b66b 9c3c 5a7c 813c
00000240: 2c91 153c ec60 f73c 3866 8339 74c0 043c
00000250: f5d6 dbbb 0f62 b73b a971 d03c 37de 113d
00000260: 58fc 44bd efda adbc 3425 a83c a1e9 593c
00000270: 5950 6ebd 4280 3e3c ce9e 243d 701a 873a
00000280: 698e 043d 4b9c db3c a739 003c 29f7 da3c
00000290: e068 4a3c 4f4e 89bb 2019 603c 5b24 33bc
000002a0: fce8 3fba 4cfd cb3c 9b08 2dbb 6a30 7fbc
000002b0: 2967 c2bc 686f b3bc 281c 163c 43bb 513c
000002c0: affe 193d e2fb 363d 823f 42bd 41c9 1dbd
000002d0: be20 d0bc 3ec0 de3c b703 173d 7823 f83a
000002e0: fe1b 51bc b574 a7bc 9cc0 2fbb f6ca db3b
000002f0: ebe8 9d3c 4238 91bb 1cbf edbc 2be9 aebb
00000300: 48dd c8bc 6a0c ffbc 3ff1 863b 228e 85bc
00000310: d137 123c 236c ed3c a6b8 93bc 51a1 13bc
00000320: 72e1 c73b 13b8 adbc cab3 9a3c 86de 153c
00000330: 9faf 1b3c 87f7 d33c a6fe a03c 498c e63c
00000340: 0ad1 d53a 13dd 863a 876c 013d 69a7 5abc
00000350: 5173 debc 338d e83b 2b6a d0bc 42a1 8f3c
00000360: eb87 063d dd21 c6bc 7f7b 12bd bb92 c0bc
00000370: 2ae6 cfbc 8929 c2bb 48f1 1abd cee2 f93c
00000380: 439e a0ba 7c48 abbc 90ef a93c ea76 1d3c
00000390: da79 b13b 4a56 533c 14dc b7bc 8d0d 93bc
000003a0: 483d 033d 11f7 27bc ee6f 87bc 0765 3b3c
000003b0: e358 cabc 2d78 973a 0f3b 473c 9bde 673d
000003c0: 6b7b 0f3c 30f6 433c 9440 953b 7313 293c
000003d0: e067 143d d627 89bb eca4 9ebc c95c 4b3d
000003e0: ea0e 683d 152b 6f3c 8729 0b3d 16b6 163d
000003f0: b523 d8bc bc4c 093b c046 a23c 1601 733c

action_model._continuous_distribution.mu.bias f4 [2]
0.0070696385 0.011249115
00000000: 6da8 e73b 354e 383c

exp_avg f4 [128, 18]
1.3766633e-09 -1.690633e-05 2.689733e-10 -2.1126084e-06 1.3458579e-09 -3.5258759e-06 -1.1764577e-09 -8.306114e-06
-1.324302e-09 3.4441669e-06 6.9228157e-10 -3.9272545e-06 1.522034e-13 -5.147955e-07 9.056233e-11 -3.4506184e-07
-1.2643267e-10 -7.9019856e-08 -8.114668e-09 0.000105428575 -1.3814062e-09 -2.3023333e-05 -8.6649943e-10 5.858888e-05
2.4067186e-09 -8.663546e-05 2.901666e-09 3.786351e-05 2.9091962e-10 -0.00010570222 -1.6176211e-12 1.6743736e-05
-2.2409953e-10 -4.6634617e-05 5.211139e-10 3.8231115e-05 1.7875769e-09 -4.760219e-05 3.227592e-10 -5.8489454e-06
3.098492e-10 -3.1485062e-05 -7.611979e-10 9.126885e-06 -6.643166e-10 -1.1114124e-05 1.6269666e-10 2.1334714e-05
3.7947865e-13 -9.190066e-06 4.782283e-13 -1.8866252e-06 -1.4655908e-10 -2.117446e-05 -1.2618673e-10 2.9334935e-06
2.0677116e-10 3.2413484e-06 -4.6408902e-10 -1.6328771e-06 7.522931e-10 1.1104254e-05 8.464332e-10 -4.103529e-06
-3.945708e-10 6.967245e-06 7.4525516e-14 -4.6516743e-07 -5.4717616e-11 1.8468526e-06 8.6147435e-12 -6.135267e-07
-1.608191e-09 1.8492301e-05 -3.0936365e-10 -1.39824515e-05 1.3053197e-10 1.1033393e-05 2.1866928e-10 -3.358189e-05
1.8201561e-10 5.2591035e-06 3.0111508e-10 -3.3965807e-05 -2.2399845e-13 -9.4337895e-07 -3.5993205e-11 -1.8331586e-05
1.3745198e-10 4.9143955e-06 -1.1576815e-09 1.1946634e-05 1.2500874e-10 8.1852995e-06 -2.369535e-09 -1.0198732e-05
1.6215485e-09 3.2820193e-05 1.5030074e-09 -1.4558331e-05 -8.628245e-10 2.3965036e-05 3.7136296e-13 1.6751123e-06
-8.544038e-11 9.60508e-06 3.751809e-12 -8.7885755e-06 9.89822e-10 -8.405079e-06 -5.4235602e-11 -8.061175e-06
8.8559937e-10 5.268844e-06 -7.338617e-10 -2.410298e-05 -1.4865268e-09 1.0271669e-05 5.1362015e-10 -1.5660355e-05
-7.1823176e-14 7.5886334e-08 5.1756665e-11 -6.7521787e-06 -2.555188e-11 4.9314967e-06 -3.177458e-09 4.6133067e-05
-5.879693e-10 -2.2092965e-05 8.19071e-10 3.179528e-05 2.8650027e-10 -6.430727e-05 -3.0317457e-10 1.8773739e-05
8.286477e-10 -6.216494e-05 -5.255006e-13 3.8573694e-06 -6.7130815e-11 -2.6392225e-05 1.91139e-10 1.6742266e-05
-9.170989e-10 1.2851485e-05 -1.1010515e-10 2.8999516e-06 -6.902291e-10 3.7816972e-06 8.963079e-10 9.531533e-06
6.6771644e-10 -4.1114986e-06 -5.361618e-10 5.274086e-06 -1.2276047e-13 3.4787487e-07 -9.007695e-11 6.7447223e-07
5.558198e-11 -2.021185e-06 -6.385128e-10 1.0269633e-05 1.4943759e-10 6.4364813e-06 -1.740184e-09 2.7900157e-07
1.4754592e-09 2.494142e-05 1.1166235e-09 -9.509384e-06 -8.326172e-10 1.9062443e-05 1.325984e-13 9.542664e-07
-1.6553158e-11 6.5761324e-06 -1.3433663e-11 -4.963366e-06 6.1050174e-09 -8.1801976e-05 1.9787119e-09 5.894939e-06
-1.275568e-10 -5.750124e-05 -5.8535554e-10 6.4662316e-05 -5.056273e-10 -3.4674857e-05 -4.499742e-10 6.848205e-05
1.0729092e-12 -2.057419e-05 5.3310537e-11 1.4846547e-05 -1.5640758e-10 -3.5114033e-05 -1.0234885e-09 1.5666992e-05
-3.7432318e-10 -1.4943497e-05 -7.1932726e-10 9.634151e-06 1.6356742e-09 -2.9031273e-05 8.2338214e-10 3.9536326e-06
-2.580796e-10 -3.153449e-05 -2.990314e-13 -1.2848244e-06 -9.362031e-11 -1.7827415e-05 8.2726916e-11 4.118486e-06
-8.806449e-09 0.00013507695 -1.3819573e-09 -4.0895186e-05 -1.2483056e-09 6.319547e-05 4.125014e-09 -0.00011525998
2.9114464e-09 3.241823e-05 2.772409e-11 -0.0001231214 -1.5069841e-12 1.2733366e-05 -3.0858124e-10 -6.387024e-05
7.355536e-10 3.1222444e-05 4.3187542e-09 -4.7743586e-05 6.8169775e-10 -1.3132777e-06 1.3866377e-09 -3.267051e-05
-7.1234063e-10 1.02336435e-05 -1.5746315e-09 -1.3778711e-05 4.0785952e-10 1.3754249e-05 2.0897365e-13 -8.684051e-06
1.5362123e-10 -1.9445881e-08 -6.95693e-11 -9.243848e-06 -3.341128e-09 4.153164e-05 -5.182718e-10 -1.7536096e-05
00000000: 0935 bd30 11d2 8db7 a0de 932f 56c6 0db6
00000010: 2af9 b830 169e 6cb6 edb0 a1b0 7d5a 0bb7
00000020: bc02 b6b0 5622 6736 fc4a 3e30 dcc6 83b6
00000030: a55d 2b2a 7a30 0ab5 0f26 c72e f040 b9b4
00000040: a203 0baf a0b1 a9b3 b068 0bb2 8919 dd38
00000050: e9db bdb0 3b22 c1b7 7a2e 6eb0 55bd 7538
00000060: 7163 2531 0fb0 b5b8 a666 4731 a2cf 1e38
00000070: 4cef 9f2f 72ac ddb8 f1a8 e3ab e674 8c37
00000080: 6966 76af 8a99 43b8 213e 0f30 595a 2038
00000090: c5ae f530 76a8 47b8 5270 b12f 0f42 c4b6
000000a0: 6657 aa2f d40e 04b8 8a3c 51b0 ac1f 1937
000000b0: 209b 36b0 cd76 3ab7 0ae3 322f f3f7 b237
000000c0: a3a0 d52a 082f 1ab7 fb9b 062b f337 fdb5
000000d0: b724 21af ce9f b1b7 68be 0aaf 09dd 4436
000000e0: e858 632f f185 5936 b922 ffaf 3b29 dbb5
000000f0: ecc9 4e30 684c 3a37 71aa 6830 0cb1 89b6
00000100: e7ea d8af 2ec8 e936 09d1 a729 20bc f9b4
00000110: 8fa6 70ae 5fe1 f735 5b8d 172d 3cb1 24b5
00000120: 3107 ddb0 ea1f 9b37 1013 aaaf 2c96 6ab7
00000130: 7c85 0f2f 101c 3937 ee6d 702f 48da 0cb8
00000140: d720 482f 5b77 b036 2e8a a52f 8276 0eb8
00000150: 2833 7caa 823c 7db5 bf4c 1eae c8c6 99b7
00000160: 4b21 172f 56e6 a436 4c1c 9fb0 676e 4837
00000170: d572 092f 9853 0937 4dd5 22b1 381b 2bb7
00000180: 2add de30 6aa8 0938 5f92 ce30 8e3f 74b7
00000190: e02b 6db0 8608 c937 0b0f d12a 6cd4 e035
000001a0: a8e2 bbae 8125 2137 4b01 842c a572 13b7
000001b0: 440a 8830 8a03 0db7 dc87 6eae 7c3e 07b7
000001c0: 846e 7330 06cb b036 edb8 49b0 c130 cab7
000001d0: 834e ccb0 7c54 2c37 ce2e 0d30 5b5e 83b7
000001e0: 3ebb a1a9 f4f6 a233 d3a0 632e c690 e2b6
000001f0: b8c1 e0ad 3c79 a536 6f5a 5ab1 017f 4138
00000200: a99e 21b0 4854 b9b7 ff24 6130 ec5b 0538
00000210: 5481 9d2f b4dc 86b8 07ac a6af 4c7c 9d37
00000220: e6c6 6330 8c5e 82b8 4fea 13ab 8d6e 8136
00000230: 4a9f 93ae df64 ddb7 d828 522f be71 8c37
00000240: 1917 7cb0 b59c 5737 b01f f2ae ca9c 4236
00000250: 8eba 3db0 10c9 7d36 1060 7630 9fe9 1f37
00000260: 5e8a 3730 81f5 89b6 0861 13b0 0ef8 b036
00000270: 4c37 0aaa 8fc3 ba34 d114 c6ae 610d 3535
00000280: bf73 742e b2a3 07b6 5883 2fb0 bd4b 2c37
00000290: f14e 242f f4f8 d736 482b efb0 afc9 9534
000002a0: 1bc9 ca30 4b39 d137 b277 9930 7e8a 1fb7
000002b0: 3ade 64b0 49e8 9f37 e34a 152a 5814 8035
000002c0: 669a 91ad 8ca8 dc36 d753 6cad fd8a a6b6
000002d0: 4dc4 d131 1a8d abb8 def9 0731 24cd c536
000002e0: 0c40 0caf 7c2d 71b8 bce6 20b0 519b 8738
000002f0: 5cfc 0ab0 d86f 11b8 3d60 f7af 059e 8f38
00000300: a1ff 962b bd96 acb7 5476 6a2e 6f15 7937
00000310: d2f8 2baf 6847 13b8 cdaa 8cb0 9c6c 8337
00000320: 4ec9 cdaf d5b5 7ab7 28ba 45b0 5da2 2137
00000330: 2bce e030 2f88 f3b7 5e54 6230 72a9 8436
00000340: 7ae1 8daf e743 04b8 f756 a8aa 3b72 acb5
00000350: 8ddf cdae 158c 95b7 1deb b52e 8631 8a36
00000360: 2c4b 17b2 71a3 0d39 4def bdb0 df86 2bb8
00000370: d990 abb0 cf87 8438 02bc 8d31 bbb7 f1b8
00000380: b512 4831 cff8 0738 1add f32d 261a 01b9
00000390: d316 d4ab 64a1 5537 f3a4 a9af 13f2 85b8
000003a0: fc2f 4a30 d8f4 0238 2a64 9431 4940 48b8
000003b0: 3762 3b30 e143 b0b5 fa93 be30 b107 09b8
000003c0: 84ce 43b0 2ab1 2b37 6c6a d8b0 1d2b 67b7
000003d0: 2039 e02f 0dc2 6637 8e48 6b2a b7b1 11b7
000003e0: 88e8 282f f209 a7b2 09fc 98ae 0616 1bb7
000003f0: bf99 65b1 4232 2e38 2376 0eb0 7b1a 93b7

exp_avg_sq f4 [128, 18]
1.1564467e-08 1.499942e-08 9.9163655e-09 1.3929758e-08 1.2314009e-08 1.5711569e-08 7.669819e-09 1.1934108e-08
1.3057662e-08 1.5561694e-08 5.3647793e-09 1.1037718e-08 1.1968207e-08 1.457409e-08 2.9195697e-09 9.294728e-09
9.670525e-09 1.2290894e-08 8.422302e-08 1.2067763e-07 6.493657e-08 1.03845174e-07 8.056643e-08 1.18535645e-07
4.875382e-08 9.505459e-08 1.509897e-07 1.8345965e-07 5.3762637e-08 1.12674776e-07 1.6315302e-07 2.1134232e-07
1.8544878e-08 9.4810424e-08 1.392981e-07 1.8403321e-07 1.6789006e-09 6.1373386e-09 1.201885e-09 5.792421e-09
1.2894348e-09 5.4752185e-09 9.555787e-10 6.4462284e-09 1.0182265e-09 3.8587857e-09 2.02529e-09 8.500792e-09
1.9167352e-09 5.0969255e-09 2.8180497e-10 7.3947235e-09 1.1217351e-09 5.457641e-09 2.2233244e-09 2.9516936e-09
1.9875834e-09 3.1555747e-09 1.6095375e-09 2.294097e-09 1.5823353e-09 2.7642995e-09 2.1544044e-09 2.6371334e-09
1.8585423e-09 3.163716e-09 1.020722e-09 1.4458725e-09 1.1481464e-09 2.8330602e-09 5.2966687e-10 9.382668e-10
6.5479697e-09 9.498277e-09 5.7413483e-09 8.849363e-09 6.8051946e-09 1.0215427e-08 4.75343e-09 8.917198e-09
1.2726057e-08 1.5668387e-08 2.8298135e-09 7.074174e-09 1.2448639e-08 1.5604462e-08 1.8282672e-09 6.5162027e-09
1.14625465e-08 1.4139643e-08 6.004761e-08 7.045213e-08 5.274801e-08 6.6577776e-08 5.644897e-08 7.0192684e-08
4.7057565e-08 5.83765e-08 5.4787527e-08 6.520694e-08 2.773789e-08 4.171411e-08 4.2575696e-08 5.4675187e-08
2.1656435e-08 3.5966043e-08 2.7654611e-08 3.772948e-08 1.2302127e-09 3.0803469e-09 5.3375004e-10 2.9322884e-09
6.442539e-10 2.7691236e-09 2.6605018e-10 2.3377966e-09 1.7706311e-09 3.3586747e-09 3.6781922e-10 2.5920872e-09
1.7982263e-09 3.417364e-09 9.867498e-11 2.3059155e-09 1.4982129e-09 3.0447453e-09 1.4615867e-08 2.3208345e-08
8.88378e-09 2.0692317e-08 1.5785915e-08 2.6396384e-08 7.551377e-09 2.0470985e-08 1.4941705e-08 2.3793817e-08
8.127108e-09 2.234271e-08 1.2171805e-08 2.0451347e-08 4.3257105e-09 1.9945492e-08 9.914602e-09 1.7238076e-08
1.3584267e-09 2.417676e-09 1.319667e-09 2.3384e-09 1.4498527e-09 2.4116882e-09 1.1162247e-09 2.3972029e-09
9.748302e-10 1.7564764e-09 2.719485e-09 4.172625e-09 4.752981e-10 1.2567168e-09 1.1155904e-09 3.228185e-09
3.6778647e-10 1.1443484e-09 1.8253404e-08 2.269569e-08 1.527941e-08 2.155619e-08 1.6141419e-08 2.1389777e-08
1.344184e-08 1.882743e-08 1.5899783e-08 2.0016644e-08 7.362375e-09 1.3858649e-08 1.17400765e-08 1.6489606e-08
5.354645e-09 1.1701099e-08 8.126048e-09 1.20803065e-08 3.0590297e-08 4.8330655e-08 2.863841e-08 4.858619e-08
3.270364e-08 4.8038842e-08 1.3037909e-08 3.6864286e-08 1.9272573e-08 3.288264e-08 1.00149045e-08 3.4404884e-08
2.1874353e-08 3.6106766e-08 6.3515584e-09 3.1290433e-08 1.3119787e-08 2.5444539e-08 6.1925873e-09 8.343912e-09
6.6845876e-09 8.811702e-09 7.4004665e-09 9.200394e-09 5.796566e-09 8.827532e-09 6.4426553e-09 7.871982e-09
5.763035e-09 9.909289e-09 3.8139762e-09 5.292411e-09 3.0589695e-09 7.7134645e-09 1.8547498e-09 3.1037306e-09
1.6073007e-07 2.2066455e-07 1.4143365e-07 2.0659662e-07 1.767695e-07 2.414148e-07 1.2220912e-07 1.9730297e-07
2.2863348e-07 2.865048e-07 9.508714e-08 1.8646497e-07 2.147438e-07 2.7705565e-07 5.3690865e-08 1.5988638e-07
1.8125607e-07 2.376984e-07 1.7006258e-08 2.3565098e-08 1.363143e-08 2.1259877e-08 1.6426041e-08 2.2208319e-08
9.6963575e-09 1.6975136e-08 1.0834288e-08 1.5238701e-08 1.098807e-08 2.0813935e-08 2.1945903e-09 5.7584217e-09
9.507744e-09 1.9857342e-08 9.710336e-10 3.9993564e-09 1.6957499e-07 1.7904394e-07 1.6104954e-07 1.7032359e-07
00000000: 10ad 4632 13d8 8032 a35c 2a32 b94f 6f32
00000010: 968d 5332 1bf6 8632 38c4 0332 c306 4d32
00000020: 3454 6032 87ac 8532 1955 b831 66a0 3d32
00000030: bb9c 4d32 8761 7a32 9da1 4831 a5ae 1f32
00000040: 6b23 2632 ec27 5332 18de b433 9d93 0134
00000050: 4273 8b33 7d01 df33 dd03 ad33 a98d fe33
00000060: 6465 5133 d020 cc33 bc1f 2234 01fd 4434
00000070: a5e8 6633 9df7 f133 292f 2f34 56ed 6234
00000080: 9e4c 9f32 959a cb33 f891 1534 aa9a 4534
00000090: 10bf e630 9ae0 d231 922f a530 ad06 c731
000000a0: f437 b130 8820 bc31 7055 8330 a07d dd31
000000b0: a9f1 8b30 3d96 8431 472d 0b31 e10a 1232
000000c0: 90b7 0331 0821 af31 86ec 9a2f ad14 fe31
000000d0: 8c2b 9a30 eb85 bb31 23c9 1831 bed6 4a31
000000e0: f095 0831 75d9 5831 9136 dd30 2ea6 1d31
000000f0: 7979 d930 12f6 3d31 af0c 1431 f138 3531
00000100: a56f ff30 ae68 5931 7649 8c30 1eb8 c630
00000110: cfcc 9d30 b9af 4231 fe97 1130 54f4 8030
00000120: 8dfc e031 dd2d 2332 6f45 c531 e907 1832
00000130: 20d3 e931 ec7f 2f32 9d53 a331 4032 1932
00000140: caa1 5a32 2697 8632 9b76 4231 1811 f331
00000150: b1dd 5532 930a 8632 6f46 fb30 20e5 df31
00000160: d0ec 4432 cfea 7232 86f3 8033 784b 9733
00000170: 0d8d 6233 85f9 8e33 4d72 7233 d6bc 9633
00000180: 571c 4a33 a4b9 7a33 864f 6b33 e507 8c33
00000190: 4444 ee32 2629 3333 79dc 3633 01d4 6a33
000001a0: 0107 ba32 1579 1a33 228d ed32 010c 2233
000001b0: 4314 a930 09ae 5331 52b7 1230 5d81 4931
000001c0: 5617 3130 f04a 3e31 3c43 922f f4a6 2031
000001d0: 8b5a f330 6ece 6631 f435 ca2f 7b20 3231
000001e0: 7725 f730 e7d6 6a31 13fd d82e 1876 1e31
000001f0: aee9 cd30 ba3b 5131 4319 7b32 b15b c732
00000200: 479f 1832 e3be b132 9899 8732 43be e232
00000210: 4fbb 0132 2cd8 af32 2859 8032 2863 cc32
00000220: 669f 0b32 24ec bf32 2a1c 5132 fdac af32
00000230: 5aa1 9431 9a54 ab32 e154 2a32 ee12 9432
00000240: 64b3 ba30 3524 2631 a85f b530 91b1 2031
00000250: 2844 c730 deba 2531 aa69 9930 0abc 2431
00000260: cafa 8530 8568 f130 b0e1 3a31 cc5e 8f31
00000270: 21a6 0230 cbb8 ac30 5953 9930 d5d6 5d31
00000280: 5831 ca2f 2e47 9d30 a9cb 9c32 5af4 c232
00000290: c73f 8332 902a b932 5ba7 8a32 9ebc b732
000002a0: d6ed 6632 f5b9 a132 fe93 8832 11f1 ab32
000002b0: 23f8 fc31 fc16 6e32 67b1 4932 07a5 8d32
000002c0: f5fb b731 fa05 4932 bd9a 0b32 c089 4f32
000002d0: 6362 0333 1e94 4f33 8800 f632 15ad 5033
000002e0: 0876 0c33 4453 4e33 55fd 5f32 b654 1e33
000002f0: d68c a532 d83a 0d33 040e 2c32 92c4 1333
00000300: 36e6 bb32 cf13 1b33 e63c da31 3264 0633
00000310: 6f65 6132 2291 da32 93c6 d431 ea58 0f32
00000320: 41ae e531 4662 1732 3147 fe31 c30f 1e32
00000330: 222b c731 e5a7 1732 325e dd31 583d 0732
00000340: 3104 c631 843d 2a32 170c 8331 8ad8 b531
00000350: f635 5231 2d84 0432 35ea fe30 6849 5531
00000360: 2595 2c34 cfef 6c34 fcdc 1734 d9d4 5d34
00000370: 08ce 3d34 cc9b 8134 9638 0334 3ada 5334
00000380: 4b7e 7534 ebd0 9934 b532 cc33 1a37 4834
00000390: 5494 6634 3dbe 9434 bb99 6633 3cad 2b34
000003a0: 4a9f 4234 0a3a 7f34 2815 9232 336c ca32
000003b0: aa2f 6a32 f79e b632 3f19 8d32 9cc4 be32
000003c0: 0895 2632 b8d0 9132 b421 3a32 42e6 8232
000003d0: 0bc6 3c32 54ca b232 a4cf 1631 9ddb c531
000003e0: 8057 2332 c292 aa32 3575 8530 b66a 8931
000003f0: 6b14 3634 393f 4034 f6ec 2c34 31e2 3634
