results/SeekerAgent/SeekerAgent/SeekerAgent-38272.pt (torch, 876479 bytes, 48 tensors)

network_body._body_endoder.seq_layers.0.weight f4 [128, 18]
00000000: 02bc b63e 1173 d8bd 65d9 edbe 04c7 e33e
00000010: 51bb 8cbe f4b4 8dbe e790 c93e 6c8f 3cbf
00000020: 76ca 73bd 7974 bc3e adf9 82bd bb32 9d3e
00000030: 81bd 153e c3d9 cebd 757b 34bd 7e93 8b3e
00000040: 642a 81bd 26e7 84bd 52b7 50be e533 99be
00000050: 25d7 9f3e ba90 e5be 274e bcbe 49cf 9a3e
00000060: cc61 b43e 392e 87bc c85f 6a3d 06d0 d83d
00000070: 075b 3cbd 6ce8 e43e e4c9 84be 0fe2 6f3c
00000080: faa9 e13d 7bd6 16bf 0a88 81be d538 79be
00000090: 4e45 56be f3c2 19be a124 afbd 0144 cfbe
000000a0: 301c 0fbe a5de bf3e 7c29 40be ea3c 43be
000000b0: 84a7 1cbe 5b45 80be 8cff dabe e393 10bd
000000c0: d1ad 513c 6570 7d3e 9c5b 2a3d ec7d b83e
000000d0: b8f4 283f ab4e 91be fe77 8c3e 1611 4b3c
000000e0: 915a f93e bbde 75be 20a3 fcbd 7566 d43c
000000f0: 0c23 11be 5f14 5dbe 235d 0cbe b746 5d3c
00000100: 908f 533e 33ab f2bd c54d 8f3d a105 2dbe
00000110: eac1 e53d 2cb8 063f 53c8 b53e 2451 933e
00000120: d519 ca3d 4818 9d3e 7d6a 9c3e 51d2 b73e
00000130: 8435 88be 8da2 863e 9729 e4bd 12fd 213c
00000140: 9f9c 793e 36f4 c53d 63fe a43e 9fa6 883e
00000150: a754 593d cd0a 043e af36 73bd 3c51 c8bd
00000160: 6ffd 233d 85e2 963c 99a2 153e 6c2e 17be
00000170: c48e 773d abee cd3d 0c7e 8a3e ae1c 673e
00000180: 35b1 85bd 0511 0e3e 3aeb c5bd 533c 5e3d
00000190: d44d 4a3c 78cf 1fbe 5b5b d53d c5c6 2b3e
000001a0: 3ce5 2fbe dd1e fdbd 804b be3c 1f16 8e3d
000001b0: 9054 59be 955a b5bd fbb0 5e3e 70ca 2b3f
000001c0: ad53 80be a906 0cbd e4fa ab3d 3375 12be
000001d0: 75f5 15bf 9057 223d cd6f 6cbe 6610 3dbe
000001e0: d091 023e 6371 3d3e 590a e63d cb8b 80bd
000001f0: 6422 11be 0911 4cbe fad8 1dbd 800a a03e
00000200: e88e e0bd 15e0 ecbe 3a3e e93d f5f1 f7be
00000210: 5762 d0bd e9c2 ce3d 6724 723e 6733 0c3b
00000220: 7d06 86bc e9b8 0a3e 2df7 8a3e 803d fbbd
00000230: 59ef 47be 12b8 19be 4654 59be 348f 513c
00000240: 59f9 18be 0e62 cbbe 8571 993d 70ef d33e
00000250: 38c5 1cbd 452a fabe 1932 af3e d555 013f
00000260: d69d 21be 1e56 a5be b093 b6bd 0559 84bd
00000270: 965d f63d 3231 ae3c 0eab 623d 953e 7f3d
00000280: 015d e13d e1ca 2cbe 9889 a63e 8a6e 6c3d
00000290: 1ac7 02be 60d2 9d3e c5c3 3f3e faf7 80be
000002a0: 56ba 89bc 5662 52be b143 80bd 80de 40be
000002b0: a1b5 3dbb 7c14 983e 783f 6f3e 4979 91bd
000002c0: 1e62 d13e 06cd 55be ad4d 163e 21dd 98bd
000002d0: eeb7 323e 9077 dbbe 44fd 7f3e c1de 10be
000002e0: e53f 97be 6652 98bd b66f b3be a404 c43e
000002f0: b11b 87be a25d 76bd a382 353d 0ca6 913e
00000300: 6c96 263d 2f41 6e3d 7ad6 433e a8f5 8bbd
00000310: 795f 97bc 4ec5 89be ca59 18bd e3e2 8e3e
00000320: a78d eb3e 55bf 493e ba4e adbe 0955 0ebc
00000330: 75e0 f4bd 874d 243e 8f95 b8be 35a5 433e
00000340: a100 043e 684a 1cbf c141 46be 2cba 1bbe
00000350: 9ed8 c9be 5a30 033f 024f 49bd 0ef3 b23d
00000360: 0668 29be 2fa7 e03d cb9d 2e3e 705f 4f3e
00000370: 0174 903e afce af3c fae8 f03d ed26 883e
00000380: e681 c3bd 7453 18be fdcf e8bd eb7c b53e
00000390: ebd2 e03e 5bb9 ec3e 7805 0f3f 6cba dfbe
000003a0: 3296 6bbe 6cc4 d4bd d468 7dbe 3675 ba3e
000003b0: f981 41bd a259 48bd f814 0a3e e850 b43e
000003c0: 7a83 98bd 667d 133d 28fc 6a3e 8a23 0c3e
000003d0: 5e1c 753c c0e2 3c3e 6ea5 33be 7236 253d
000003e0: 5af4 8ebd 8b11 333e 7ff2 373e 9dac 523d
000003f0: d5c9 713e 1367 85be 77fc 55bd 7caa 813e
0.35690314 -0.10568822 -0.4645492 0.44487774 -0.2748666 -0.2767712 0.39368364 -0.73656344
-0.059519254 0.36807612 -0.06395278 0.30702767 0.14623071 -0.101001285 -0.04406305 0.27260965
-0.063069135 -0.064894006 -0.20382431 -0.29922405 0.3121883 -0.4483698 -0.36778376 0.3023627
0.35230863 -0.016501533 0.05722025 0.10586552 -0.045985248 0.44708574 -0.2593528 0.014641299
0.110187486 -0.5892102 -0.25299102 -0.24338086 -0.20924875 -0.15015773 -0.08551908 -0.4048157
-0.13975596 0.37474552 -0.18765825 -0.19066206 -0.15298277 -0.25052914 -0.42773092 -0.035297286
0.012797789 0.24749906 0.04159127 0.3603357 0.6599841 -0.2838033 0.27435297 0.01239421
0.4870191 -0.24010746 -0.12335801 0.025927762 -0.14173526 -0.21589802 -0.13707404 0.013505629
0.20660233 -0.1184906 0.06997255 -0.16896679 0.11218627 0.52624774 0.35504398 0.28772843
0.09868208 0.30682588 0.30549994 0.35902646 -0.2660333 0.2629589 -0.11140745 0.009886997
0.24376152 0.0966572 0.32225332 0.26689622 0.053059246 0.12894745 -0.059378322 -0.09781119
0.040036615 0.01841856 0.14612807 -0.14763802 0.060438886 0.10055288 0.2704929 0.22569534
-0.0652794 0.1387368 -0.096640065 0.05425675 0.012347657 -0.15606487 0.10417815 0.16775043
-0.1717729 -0.12359402 0.02322936 0.06937813 -0.21223664 -0.08855168 0.217472 0.6710577
-0.2506384 -0.03418604 0.08397463 -0.1430252 -0.5857766 0.039634287 -0.23089524 -0.18463287
0.12750936 0.18500285 0.112324424 -0.062766634 -0.14173275 -0.19928373 -0.038537003 0.3125801
-0.10964757 -0.4626471 0.11388822 -0.48426786 -0.10175007 0.1009577 0.23646699 0.0021392943
-0.016360516 0.135471 0.27141705 -0.122675896 -0.19524898 -0.15011624 -0.21223554 0.01279049
-0.14938869 -0.39723247 0.07492355 0.41393614 -0.03827402 -0.48860374 0.3421791 0.50521594
-0.15782866 -0.32292265 -0.08914888 -0.06462292 0.12029569 0.021263693 0.05533891 0.062315542
0.11004067 -0.16874267 0.3252685 0.057722606 -0.12771264 0.30824566 0.18727024 -0.2518919
-0.016812485 -0.20545325 -0.06262911 -0.18834877 -0.002894737 0.29703128 0.23364055 -0.071032114
0.4089517 -0.20878991 0.14678068 -0.07464052 0.17452976 -0.42864656 0.24998957 -0.14147474
-0.29540935 -0.07437591 -0.35046166 0.3828479 -0.26388314 -0.06014789 0.044314038 0.28446996
0.040670797 0.058167633 0.19124785 -0.068339646 -0.018478142 -0.26908344 -0.037195005 0.27907476
0.4600651 0.19701894 -0.33849126 -0.008687266 -0.11956874 0.160452 -0.36051604 0.1910599
0.12890865 -0.61051035 -0.1936102 -0.15207738 -0.39423078 0.51245654 -0.049147613 0.08737765
-0.16543588 0.10969388 0.1705238 0.2025125 0.28213504 0.02146086 0.11763187 0.26592198
-0.095462605 -0.14875585 -0.113677956 0.35446867 0.43910918 0.46235165 0.5586772 -0.43696916
-0.23006514 -0.10389027 -0.2474702 0.3641755 -0.047243092 -0.048913606 0.13484561 0.35217977
-0.07446952 0.03600826 0.22947752 0.13685432 0.014960377 0.18445873 -0.17543575 0.040335126
-0.069802 0.17487161 0.17963599 0.051434148 0.23612149 -0.26055202 -0.052242722 0.25325382

network_body._body_endoder.seq_layers.0.bias f4 [128]
00000000: 6747 02bc 33e7 003c 49cb 77bb bfbb 32bc
00000010: f011 3c3b d648 72bb a6af 3ebb f2bb 683b
00000020: 6b94 bdb9 4b25 0ebb 2ef0 493c ab62 8a3c
00000030: f76a 1cbc c97d 95bc 4eb7 46bc 67fb 293a
00000040: 680a 71bc a994 b5bb bb10 46bc 833b 6bbc
00000050: e54b b0bb 53b9 083c 6533 0d3c 82ef 19bc
00000060: 8966 59bc da97 453b 4b5a e33b 9924 82bb
00000070: 6e45 543c e196 96bb 056f 023b 1145 0f3b
00000080: 71ef 3c3b 70e4 f8bc 5ee9 c83b 612c 963b
00000090: 994f 47bb 55fa 203b b34f 4bbb e23b 363c
000000a0: fa80 39bb b55d 9e3b 3f0c 923b 6bc7 4e3a
000000b0: c6fa 1c3c c8fe eabb e4dd 32bc 3b58 98bc
000000c0: b5bc babb 5dfc 76bb 23f5 b1bb b0ff 5dbc
000000d0: f8f7 39bc af91 c93c fc6e fdbb 2033 c03b
000000e0: aa23 12bb d5ab 073c 56b4 5dba 51f0 183b
000000f0: 0083 35bc afb4 b9bb f5ea cc3b a3a6 08bb
00000100: a41d fbba 7972 8f3c 1111 f0ba 6e37 883c
00000110: be7c 0dbc 5fcb 4abb a033 93bb 9fde 333c
00000120: 649b d63b 3eed 9dbb 7a14 0e3c c255 033c
00000130: d816 523c 2f03 00bc acf7 d1bb 5061 89bc
00000140: c204 e4bb 2012 7bbb 5860 88bc 58f9 bb3c
00000150: 90c5 e6bb 4fb9 98bb 00e7 54b9 536b 9d3a
00000160: 450e d73c d53d 3e3c 764d 9ebc b435 873c
00000170: 7aac 663a 74d9 833c 08ac 69bc 9931 993c
00000180: 9393 b73c fe44 3dbc 980d 1abc e184 8a3b
00000190: d96c 543b 69c5 e6bb 9b0f 413b 2f83 1c3b
000001a0: df57 37bc dd1f 023a 9e28 48ba 09f0 913c
000001b0: 93e7 12bc bbbd 0abc d9be 6fbc 19ab b6ba
000001c0: 3ba3 9a3b a445 59bc 3aaa 75bb 2b0f 543b
000001d0: fafd 91bb eb96 863c 5ecd 423c 8484 87b9
000001e0: 1795 49bc 912f bcbc 14c9 b9ba ecf8 12bb
000001f0: e4c7 133c 1835 f1bb 02b5 6bbb 44f8 f13b
-0.007951594 0.007867622 -0.0037810376 -0.01090902 0.0028697215 -0.0036969683 -0.0029096394 0.0035512415
-0.0003615947 -0.0021689709 0.01232533 0.016892752 -0.009546987 -0.018248456 -0.012128664 0.00064843
-0.014711954 -0.0055414033 -0.01208895 -0.01435745 -0.005380141 0.008344966 0.00861821 -0.009395482
-0.013269075 0.0030150325 0.006938254 -0.003971648 0.012956006 -0.004595623 0.0019902599 0.0021861235
0.0028829242 -0.030382365 0.006131335 0.004582927 -0.0030412434 0.0024563272 -0.0031022846 0.011122676
-0.0028305636 0.004832948 0.0044570263 0.0007887992 0.009581273 -0.0071714856 -0.010917161 -0.018596759
-0.005698765 -0.0037687041 -0.005430834 -0.01354973 -0.011350624 0.0246056 -0.0077341776 0.0058654696
-0.002229909 0.008280714 -0.0008457353 0.00233366 -0.011078596 -0.005667291 0.006253595 -0.0020851276
-0.0019158614 0.01751064 -0.0018315633 0.016627993 -0.008635698 -0.0030943973 -0.004492238 0.01097837
0.0065492857 -0.0048195412 0.008671874 0.008016052 0.012822829 -0.007813259 -0.0064076986 -0.016770035
-0.006958575 -0.0038310364 -0.016647503 0.022946045 -0.0070425943 -0.0046607624 -0.0002030395 0.0012010135
0.026251921 0.011611422 -0.019324046 0.0165051 0.0008799505 0.0160949 -0.014262207 0.018700408
0.022409236 -0.011552094 -0.009402655 0.004227266 0.003241351 -0.007042576 0.0029458764 0.0023881902
-0.011190384 0.00049638544 -0.0007635447 0.017814653 -0.008966344 -0.008468087 -0.014632904 -0.0013936489
0.0047191656 -0.0132612325 -0.0037485496 0.0032357674 -0.004455325 0.016429385 0.011889784 -0.00025847938
-0.012303612 -0.0229719 -0.0014174306 -0.00224262 0.009019826 -0.0073610656 -0.0035966043 0.007384332

network_body._body_endoder.seq_layers.2.weight f4 [128, 128]
00000000: adee 4bbe 4a62 913d dde5 ff3c 3028 27bc
00000010: 4bec d1bd 44cd 7ebd fbd7 843d 8231 9fbc
00000020: a7a0 3b3d 4112 a93d c45e c5bd badc a9bd
00000030: a529 713c 308d c5bd bb9a f1bd 0743 d73c
00000040: 02e3 84bd 1038 bfbd 5d1c 37bd a01e 093e
00000050: 7fbf 37bd 2bf5 cb3d 26bc e8bc 01ad 8cbd
00000060: ca1b b0bd fca9 853c e6f2 88bd edc7 1c3b
00000070: ea30 44bc de3e d43d ba9e 453d 1606 543d
00000080: 7211 f1bd 588b d43c 7b5c 313e 1e03 203e
00000090: af84 b3bc c597 82bd a08b 653c f4bd f13b
000000a0: 353d 28bd 16b9 923d b362 d8bc 0ee4 2bbd
000000b0: 8d25 753c d6c7 39be 1693 5d3d 6875 f83c
000000c0: 6dc1 10bd 1977 07be ecd3 893d 3ca2 103e
000000d0: c825 b83d 35fc cabc b12c 10bd 02db babc
000000e0: 4182 b73d d03b 2bbd aa06 cd3d 215a 55bc
000000f0: 3430 003d ab2c 51be 667d 4abd 078d aa3d
00000100: 9392 a33d bb53 2b3e caa8 b13c 7006 363d
00000110: b96a c43d afc4 013e bd54 c23b 830d 4cbd
00000120: 6295 e73d 656a 3c3d e30a d5bd 2d44 9f3d
00000130: 72ee b03d ce98 a03c b9f3 e6bd f7e2 27bd
00000140: a25e e0bd f79b e1bc 3c25 68bd c2f5 0d3d
00000150: 0a96 293d f9c2 21bc 3dcc 03be 6f48 963d
00000160: 9b04 2b3e 9b9d d4bd 3780 c43d ded6 83bd
00000170: 2c5b a2bd 8d76 283e d3a2 edbd c545 9e3d
00000180: 1e55 653c 519f 8e3c bc01 0fbe 9af0 91bc
00000190: a0fe 81bd 53e9 97bc 3a5e 2ebd 7a51 37be
000001a0: afdd aebd f417 80bc 35bf 23bc c895 9e3c
000001b0: 4db4 14be 7606 00bd 58ed 033e 0afa 863d
000001c0: dc2b 9abd 8cfd ecbc 3f6e 463d 6f67 cb3d
000001d0: fba5 16bd a27a 443e 1a5e 2d3e 974c 993c
000001e0: bd0a 063e 10ff a3bd 8bfa 9abd 61b1 52bd
000001f0: e231 3abd 9dca 8dbd b36a 1bbe e793 053e
00000200: d526 a33c 36ab 933d 3261 0d3d a70d 36be
00000210: dcf0 283e 7086 34be 247e 813d d0dc 9a3d
00000220: abef 9e3c 6e47 ae3d 612f 1f3e 8906 edbd
00000230: 2dfa 23be ea00 323d 1b1c 20bb ad0c 98bd
00000240: 5258 30be 893a 373d fd5e a73d c426 873d
00000250: 06d3 393d 418e abbd 4fe9 b53d 74c2 82bc
00000260: 2d44 613d be4c 7dbd bc2b 9f3d 9f5e b13d
00000270: bd22 bbbc b1ad 27bd 05d1 e1bd 6b5f c93d
00000280: 6165 1a3e 7cd0 883c c8c5 93bd 5dd5 1c3d
00000290: 091b 6b3a bfc9 c1bd f565 3c3e f5d0 253d
000002a0: 6dc1 8abd 3dd5 4eba 7453 ed3c f87b 34be
000002b0: 607b 1dbd 99e7 fabd 16c4 5a3d bffa f53d
000002c0: 6b10 043d d012 debc 10e5 a0bd afef 03bd
000002d0: 5ef9 b83d 7124 493a a895 8d3d 6d0c 80bd
000002e0: 4025 d03d 3f4b 1e3e 5643 3ebd 12e8 d63d
000002f0: 26c3 763d 2415 65bd 038c 0bbe 1559 073e
00000300: e514 4f3d 1bcc e93b 2bf6 12bb abd8 ca3d
00000310: 5b5f d4bd f5c5 f63d 91e2 ae3c e358 9bbd
00000320: 803c 3cbe 4519 b23c 4b58 39be 0224 053c
00000330: b88e 2ebd 7658 03bb 2639 2f3d 5ab4 31bc
00000340: 45cd 9a3d f0fd 73bd 5413 0abd 3d8e 923d
00000350: 8735 98bc bb2d 1ebd a610 e3bd 26de 77bd
00000360: bc4a 5d3d 1610 003e 35f8 b83d ff13 243e
00000370: 3b82 f6bd 4d90 5fbe e9cc 833d 3361 33bd
00000380: 8653 4dbc 2161 c53d 98db e9bc f355 433d
00000390: fa5b 283e 4aff a9bc 462c 2cbd f3a4 13bc
000003a0: 192d b6bd 4e89 653d 8bcd 503e 6155 c7bd
000003b0: 3f52 babc 09e1 923e 3042 ecbd 72d7 d3bd
000003c0: e856 803d a594 ac3d 9f4a 52bd 1f74 89bd
000003d0: 2086 503c aaa8 533d c6cb 8e3c 8f68 2e3d
000003e0: 09aa 1d3e 6cb7 023d 0aee 0a3d 80cd 923c
000003f0: c7e0 dcbd c5b7 47bd 8e55 ebbd 9be1 e5bd
-0.19915266 0.07098825 0.031237537 -0.010202453 -0.102501474 -0.062207475 0.064865075 -0.019432787
0.045807507 0.08255435 -0.09637216 -0.082940534 0.0147194015 -0.0964607 -0.117970906 0.026277078
-0.06488611 -0.09336865 -0.044704784 0.13390589 -0.04486036 0.099588715 -0.028410029 -0.068689354
-0.0859905 0.016316406 -0.06686954 0.0023922876 -0.011974553 0.103635535 0.048247077 0.051763617
-0.117709056 0.02594535 0.17320435 0.15626189 -0.021913854 -0.06376604 0.01401034 0.0073773805
-0.041073997 0.071642086 -0.026414251 -0.041965537 0.014962566 -0.18142638 0.05409535 0.030329421
-0.035340715 -0.13229026 0.06729874 0.14124388 0.08991581 -0.024778465 -0.03519887 -0.02280951
0.08960391 -0.04180509 0.10011037 -0.013021977 0.03129597 -0.20427196 -0.049435996 0.0832768
0.07986941 0.1673116 0.02168693 0.044439733 0.09590668 0.12672685 0.0059305117 -0.049817573
0.113077894 0.045999903 -0.10402467 0.077766754 0.0863923 0.019604113 -0.11276955 -0.040987935
-0.1095555 -0.02754019 -0.056676134 0.0346582 0.041402854 -0.009873145 -0.1287088 0.07338034
0.16700976 -0.10381623 0.095947675 -0.06437467 -0.07927546 0.16451474 -0.11603322 0.07728151
0.013997344 0.017409952 -0.13965505 -0.017814923 -0.06347394 -0.018543875 -0.04257033 -0.17902175
-0.085383765 -0.015636422 -0.009994318 0.01935853 -0.14521904 -0.03125616 0.12883508 0.0659066
-0.07527897 -0.028929494 0.048444983 0.09931838 -0.036779385 0.19187406 0.16930428 0.018713279
0.13090034 -0.08007634 -0.075673185 -0.051438693 -0.04545773 -0.06923411 -0.15177421 0.13044702
0.019915977 0.0721039 0.03451652 -0.17778645 0.1649813 -0.17629409 0.063228875 0.07561648
0.019401392 0.08509718 0.15545417 -0.11573512 -0.16013403 0.043457903 -0.0024430815 -0.07424293
-0.17221192 0.044733558 0.081724145 0.06599191 0.045367263 -0.08376742 0.08882391 -0.015961863
0.054996658 -0.061840765 0.077720135 0.08660626 -0.022843713 -0.04093713 -0.110261954 0.09832653
0.15077735 0.016700976 -0.07215458 0.038289417 0.0008968567 -0.09462308 0.18398269 0.04048248
-0.06775174 -0.00078900513 0.028970458 -0.17625415 -0.038447738 -0.12251205 0.05340966 0.12010717
0.03224222 -0.02710858 -0.0785619 -0.032211002 0.09031938 0.00076729717 0.0691331 -0.0625237
0.10163355 0.15458392 -0.046450935 0.10493483 0.0602447 -0.055928364 -0.13627629 0.13217576
0.050557036 0.007134927 -0.002242456 0.099046074 -0.1036975 0.12049476 0.02134827 -0.07585313
-0.18382454 0.021740565 -0.18100087 0.008126261 -0.042616576 -0.002004174 0.04277911 -0.010846222
0.07558683 -0.059568346 -0.03370984 0.07156036 -0.018580211 -0.03861783 -0.1108716 -0.06051459
0.05402635 0.12506136 0.09031717 0.16023253 -0.12036558 -0.2183239 0.06435568 -0.04379387
-0.012532121 0.096376665 -0.028547093 0.04768939 0.16441336 -0.020751614 -0.04203441 -0.009011495
-0.088953204 0.056039147 0.20390908 -0.097330816 -0.022744296 0.28687313 -0.11536062 -0.10343827
0.06266576 0.08426789 -0.051340695 -0.067116015 0.01272729 0.051674522 0.017431151 0.042580184
0.15396895 0.031913206 0.033918418 0.017920256 -0.107850604 -0.04875924 -0.11490928 -0.112246715

network_body._body_endoder.seq_layers.2.bias f4 [128]
00000000: 1d83 8f3b b214 17bc 947d d03c b101 d3bb
00000010: c8c5 65bb af82 71bb dfc7 3fbc 3a54 92bc
00000020: 358c bc3b d0ec 40bc 6d77 083b 362b 4ebb
00000030: 4823 80bb b1a7 fc3b 6dd6 0b3b b707 063c
00000040: af6c 353c 8661 e0ba 8030 bebb 404d dabb
00000050: 5476 3d3c 27d9 c5bb 520f 623b 692d 79bc
00000060: 9570 7e3c 42e0 563b 61dd 01bc 0f35 8c39
00000070: 17d6 503c 08d6 2f3c 3fbb 383b ad7b e0bb
00000080: d8bb b6bb 748e 0fbc 1682 19bb 8949 923c
00000090: f176 04ba 2e12 013c e0be c8ba 05b5 12bc
000000a0: 7045 cdbb 5707 103c a93c 41bc 18fd 17bb
000000b0: d890 2abc 4585 443c 5287 da3b c107 ef3b
000000c0: 12cb 87ba a0cb 41bc 1247 5c3b 5eb8 d4b9
000000d0: 05b4 913c 2a1c 363a de53 843c db2f 82ba
000000e0: b054 33ba 93e3 1b3b a20e e6ba 7903 a4bb
000000f0: 3c90 b63b d2ad 4fbc 9c41 3abc 0a8f 2dbc
00000100: 88de 253b a2d3 5abc 6f97 e7bb 4e39 9dbc
00000110: 5f62 debb 1925 c83a 781c 353c e3a0 85bc
00000120: 0fd5 303b b27f c93c ed31 a0bb 6245 d8ba
00000130: bf80 b73a 3f83 e23a dc05 8c3b 7e38 e93b
00000140: 8319 2abb 9ae5 32bb f8d4 81bc a8c6 97bc
00000150: af26 cb3a 4a75 4c3b c914 9e3b 823b a53c
00000160: 9ffb c43a eb42 57bc b450 373b a72b 8dbb
00000170: 92dd a93c 7d82 93bb c803 0bbc 97f3 1abc
00000180: fea1 a1ba 303f 973b f62c 58bc f29d 21bc
00000190: f7fc 84bc abc0 123c 8314 b8bb 4bf6 23bc
000001a0: 2527 44bc 46b3 b7b9 e722 043a 0d33 26bb
000001b0: d071 253c 8729 2abc 51b3 1d3c c059 7abc
000001c0: 6864 003b 60bb 8c3c d44b 58bc a0e7 2fbb
000001d0: ab24 293b f74b 473b 2025 7dbb b9a7 ba3b
000001e0: ece3 343b 24db 9bbb 6fd5 1e3b 8df0 e0bb
000001f0: 33bd 1e3c 40fa c53c f743 faba eb6b 94bc
0.0043796436 -0.009221243 0.025450505 -0.0064394106 -0.0035060514 -0.0036851575 -0.011705368 -0.017862428
0.0057540187 -0.0117752105 0.0020823136 -0.0031458861 -0.003910456 0.00771042 0.0021337525 0.00818055
0.0110732755 -0.0017118908 -0.0058041215 -0.006662041 0.011563856 -0.0060378495 0.0034493995 -0.0152085805
0.015529771 0.0032787477 -0.007926316 0.00026742413 0.0127463555 0.010732181 0.002818778 -0.006850681
-0.005576592 -0.008761991 -0.0023423485 0.01785733 -0.0005053124 0.0078778695 -0.0015315674 -0.008954291
-0.006264381 0.008790812 -0.011794248 -0.0023191627 -0.01041051 0.011994665 0.0066689635 0.0072946255
-0.0010360202 -0.011828333 0.0033611697 -0.00040573155 0.017786035 0.0006946946 0.016153272 -0.0009932475
-0.00068409275 0.0023786768 -0.0017551968 -0.005005297 0.0055713933 -0.012675719 -0.011368182 -0.010593185
0.002530964 -0.013356121 -0.007067613 -0.019192364 -0.006786629 0.0015269845 0.011054151 -0.016312068
0.0026982462 0.024597023 -0.004888764 -0.001650017 0.0014000161 0.0017281546 0.0042731594 0.00711733
-0.0025955148 -0.0027297498 -0.015848622 -0.018527344 0.00154992 0.003119784 0.004824255 0.020169977
0.0015028602 -0.013138513 0.0027971687 -0.0043081823 0.020735536 -0.0045016394 -0.008484788 -0.00945749
-0.0012331603 0.004615687 -0.013194313 -0.009864317 -0.016233904 0.008957068 -0.0056176796 -0.010007451
-0.011972223 -0.0003503805 0.0005040601 -0.0025360018 0.010097936 -0.010385877 0.009625272 -0.015280187
0.0019591097 0.017179191 -0.013201673 -0.002684094 0.002580921 0.0030410269 -0.0038626865 0.0056962636
0.0027601672 -0.004756348 0.0024236103 -0.0068646134 0.009688663 0.02416718 -0.0019093741 -0.018117866

network_body._body_endoder.seq_layers.4.weight f4 [128, 128]
00000000: 4932 1b3e 6b7b efbd 6064 d3bd 9a75 8abc
00000010: 7f03 fdbd ba9c 94bd 950d 95bd 9739 b73c
00000020: 6bbd 5b3b 72a7 143e 12fa 35bd e2f3 593d
00000030: f5e6 9e3c 0a66 02bd c8ca 3dbe e155 48be
00000040: 301d 953d 21a9 233d 8cb8 a9bc 5db6 043e
00000050: 4372 61be 9217 94bd 6454 2f3e a9a1 e9ba
00000060: be75 a2bd b55f 913b b4ec 00be afa1 fd3c
00000070: a468 703d eac3 873d e69d 79bc 2bc8 98bc
00000080: e946 873c 4064 1abe bd7c 44bd 573c 1fbd
00000090: e06f 25bd 5213 1e3c fbb3 0a3e 315e e4bd
000000a0: ff67 803d 3999 df3d f4b6 723e 305c a13c
000000b0: a5a0 6a3e 2990 d23d a177 f53c 764f a2bd
000000c0: d737 5ebd e4af f13d f618 82bc a796 cb3c
000000d0: 3571 31bd 89c6 023e b172 7bbe 9e5d 943d
000000e0: d8a3 aabc 6c82 ec3d b959 95bb 21c5 39bd
000000f0: 0159 10bd 8bb9 8c3d 3aa6 1b3d bf83 debb
00000100: d270 23be 4275 1d3e 621c b63d 7975 013e
00000110: 2ac5 ad3c 8a0c 0d3d b22d da3d b663 b73c
00000120: 6663 97bd f4b1 00bd cf77 313c 46d5 9fbd
00000130: 5a8e 9dbc 62f2 403c 3f52 d9bd b647 843d
00000140: cb43 8fbd 6003 dbbb a4f5 1e3e 93bd acbd
00000150: 489c fcbd db43 febc 97ad 47bd cf88 17be
00000160: 5ce5 c9bd d6c9 8c3d edba 8e3d 5475 4fbd
00000170: 6c5e 923d 292b 9d3d b207 71bc 6112 f73d
00000180: 0d37 a0bd c96d 23bc bf49 7bbc 738a 7fbd
00000190: a512 99bc 09bb fd3d 52c7 c4bb dc5c aa3d
000001a0: 5a44 7a3c 9685 f23c 7055 fe3d 9e11 ddbc
000001b0: 48b9 8a3c 9e15 21bd bb09 14bd 258a 943d
000001c0: 7a1e 263c 0100 5abe 9dc5 0abe 8440 553e
000001d0: 8b1f 97bc 36f0 0abd 8d50 97bc 6ecf de3c
000001e0: 4904 0a3e 8d93 eabd 4037 1e3b 7f33 1fbd
000001f0: 2c8c 763c fb01 e3bd c9f3 c23c 9ea1 713d
00000200: 86e4 fdbd a7b3 d03d a5af 3b3b a747 32be
00000210: 542b 40bd ad1d 813d 1317 afbd ef97 96bd
00000220: ce35 65bd 3580 593b acc8 ba3c 7fe0 d73d
00000230: 80ed 9c3d 5408 25bd 8bea 833c 377f ce3d
00000240: 504e 3fbd 0599 753d ec52 08bd ffc2 08bc
00000250: 74f6 67bd ff97 a5bd 4d32 8dbc 393d f63d
00000260: 9817 0c3d 1906 8f3c 05db fdbd b3e5 2e3e
00000270: 0705 3b3b e45e 8e3d 1352 07bd ee61 8cbd
00000280: 291f debc 383f a0bd ac08 0ebd 07eb f5bd
00000290: 880c b4bd 097a ff3d 0495 723d 4b8b 84bd
000002a0: 21ae b03d 08f8 5cbd 8bc9 0a3b f087 f83d
000002b0: 7d55 7ebc 2896 c83a 365d 3f3c 3265 71bd
000002c0: 7d5a 45bc 23ae a93c 9399 abbc c2eb f6bc
000002d0: 69a4 b7bd 64a8 2b3d 8c4f 33be fea3 933d
000002e0: 094d a13c b67f 02be 213b 053e e29d b83d
000002f0: 2b16 f63d 549e 873d 98b8 c8bb a828 e73b
00000300: 4f35 6b3d cda4 463d c184 dfbd 4333 b43d
00000310: 5031 1cbe fcbd 08bc 9dfd d3bd 8bcf 0bbd
00000320: 9260 5dbc ff4d d5bc 055a 0cbd 7858 4bbd
00000330: af69 a0bd 364f 69bd 060a 803d ea18 c5bd
00000340: 2599 563d 278b 963a d1a1 123d 8262 c83b
00000350: 3a2c a53d f395 cbbd 74f9 253b 9862 69bd
00000360: 4825 a83d e02e 0bbe e3af 4bbe aaf1 4c3e
00000370: 8a85 f5bc 67a0 043e d757 8d3d fdff 19be
00000380: 7a69 42bd a1fc ab3b 58e5 a23b 15a1 1a3c
00000390: 1463 5abe a0f3 48bd cf17 63bb 9aea 7a3d
000003a0: 3d40 b63d 9347 043d b7ba 88bc 7983 133c
000003b0: ba5c 86bd f60b 50be c2e3 bcbc acc4 0dbd
000003c0: 33d8 963c 1151 4abd b5a9 a93b 5bcd f7bd
000003d0: 7d58 803d ce0e 033d 5053 ea3b 3699 c73c
000003e0: 8359 863c 80ef 51bd 9743 f2bd 4ba9 f13d
000003f0: 011f 063e 7833 f1bd d26b 103e e7e8 83bd
0.15155901 -0.11693462 -0.103218794 -0.01690178 -0.123541825 -0.07256456 -0.07277981 0.022366328
0.003352965 0.14517 -0.04442794 0.0532111 0.019397238 -0.031835593 -0.18534386 -0.1956401
0.07280958 0.039956216 -0.020717882 0.12960191 -0.22016244 -0.07231058 0.17122036 -0.0017824668
-0.07932614 0.004436458 -0.12590295 0.030960886 0.058693543 0.066291645 -0.0152354 -0.018650135
0.016513305 -0.15077305 -0.047970522 -0.038875904 -0.040389895 0.009648161 0.1354522 -0.11150778
0.06269836 0.10917897 0.23702604 0.019697279 0.22912844 0.102814026 0.02996427 -0.07925312
-0.05425247 0.118011266 -0.015881043 0.02485211 -0.043320853 0.12771048 -0.2455547 0.072444186
-0.02083008 0.115483135 -0.004557815 -0.045354012 -0.03524113 0.06871327 0.038000323 -0.0067906077
-0.15961006 0.15376762 0.08892132 0.12642469 0.02121218 0.034435786 0.10653247 0.022386413
-0.073920056 -0.03141971 0.010831787 -0.078043506 -0.019232918 0.011776539 -0.1061139 0.0645899
-0.06995352 -0.006683752 0.15523392 -0.08434596 -0.12334496 -0.031038215 -0.048749533 -0.14798282
-0.098582 0.06874435 0.06969247 -0.050649002 0.07146916 0.07674248 -0.014711307 0.120640524
-0.07823 -0.009974905 -0.015337407 -0.062387895 -0.018685648 0.1238919 -0.006005206 0.08318493
0.015275085 0.029604714 0.1241864 -0.02698594 0.016934052 -0.039327256 -0.036142092 0.072529115
0.010139102 -0.21289064 -0.13551946 0.20825392 -0.018447658 -0.03392049 -0.018471027 0.02719852
0.13478197 -0.11453924 0.0024141818 -0.03886747 0.015048068 -0.11084362 0.023797886 0.05899202
-0.12397103 0.10190516 0.0028638628 -0.17410146 -0.04691632 0.06304488 -0.08549323 -0.07353198
-0.055959515 0.003318799 0.022800766 0.10540866 0.07662487 -0.040291145 0.01610305 0.10082858
-0.046705544 0.059960384 -0.033282205 -0.008347272 -0.05663152 -0.080856316 -0.0172359 0.12023396
0.03420219 0.017458962 -0.1239529 0.17079811 0.0028536932 0.06951693 -0.033037256 -0.06854616
-0.027114468 -0.07824558 -0.03467624 -0.120077185 -0.08791453 0.12474448 0.059224144 -0.064718805
0.086269625 -0.05394748 0.0021177258 0.12135303 -0.015523312 0.0015303539 0.011679938 -0.058934398
-0.0120455 0.020712918 -0.020947253 -0.030141715 -0.089669056 0.041908637 -0.17510813 0.072090134
0.019690054 -0.1274403 0.13010837 0.09014489 0.12015947 0.066219956 -0.006125521 0.007054407
0.057423886 0.04849701 -0.10913993 0.0879884 -0.15253186 -0.008346077 -0.10351107 -0.034133475
-0.013511794 -0.026038168 -0.034265537 -0.049644917 -0.078326575 -0.056960307 0.06251912 -0.096238926
0.052392144 0.0011485562 0.03579885 0.0061152587 0.08065076 -0.0994071 0.0025325688 -0.056978792
0.08210236 -0.135921 -0.19891314 0.20014063 -0.029970903 0.12951814 0.0690152 -0.15039058
-0.04746387 0.0052486216 0.0049711876 0.009437819 -0.21326858 -0.049060464 -0.0034651642 0.06125889
0.08898971 0.03229482 -0.016690595 0.0090035135 -0.06560655 -0.20317063 -0.023057822 -0.03461139
0.018413639 -0.049393717 0.0051777014 -0.12099715 0.06266878 0.03199654 0.007151045 0.024365049
0.016400104 -0.051253796 -0.11829298 0.11799868 0.13097765 -0.11777395 0.1410363 -0.06440907

network_body._body_endoder.seq_layers.4.bias f4 [128]
00000000: af02 cabb c1df e6bb 817d 43bc 95b7 a4bc
00000010: 83b6 9fbc 4806 96bc abb0 823c 4ab7 593c
00000020: 421a e83b b0c8 0abc ce14 21bc 60e4 4c3c
00000030: 7177 7c3c f271 0d3c 2b74 7abc 6986 bdbb
00000040: e8db 5ebc 2090 263a 550e 663c 6f8c e03b
00000050: 41d3 b03c 4fd6 463c fcb9 fdba eda0 653b
00000060: 21e8 4e3b 524d 8ebc 2a03 9a3b 03eb a5bb
00000070: b2c2 a6bc ada9 8b3c d6ba a73c e671 c23a
00000080: 0745 73bc 618f 993c 1b90 06bc d8cc 833b
00000090: 9511 2abc 629c 22bb 7dd6 073b 9057 483c
000000a0: 54b3 3c3c a7a8 c13a 5296 253c 5c0e 4b3c
000000b0: 7574 86bc b1ea 813c 7952 963c 6550 273c
000000c0: 7ea9 c83c edb3 8ebc b42c a13c fa80 763c
000000d0: f1aa 6ebc b557 3abc 2d24 06bc f94d 77bc
000000e0: eec6 113c b533 6a3c bbd1 79ba 9964 663b
000000f0: 351c 3bbb 165a 5a39 11ef 453a 02ab 633c
00000100: 446f 86bc 7ab9 033b 57a0 823c 8f2a b13c
00000110: 57e7 17bc 48a2 75bc ff7b 13bc c702 873c
00000120: d193 88bc 6c55 80bc 52d0 643c 627c 8dbb
00000130: 39f4 8fbc 378e 7ebc 7a44 4e3c f19c 8cba
00000140: b707 943b b05d 2c3c 17d4 d03b 10f5 fbbb
00000150: f694 2b3c 4499 f9bb 574b 713c 5fbf 86bc
00000160: e6d1 1abc 4230 a3ba a333 6739 b7ae 983c
00000170: ca7e 2c3c 5906 dc3b 36d8 23bc 0d82 aebc
00000180: 37f4 bc3b eba1 953c c210 a33a 7572 6fbc
00000190: 31b1 66bc ac24 493b 20ef ae3b 3272 93bc
000001a0: 0ec6 133c 00fa e63b 56c8 8cbb bd95 b63a
000001b0: c1ab a73b 1837 19bc c082 643c 93c0 9eb9
000001c0: 9514 8cbc 5a32 033c c057 ca3c 1ded 473c
000001d0: cd62 243b f0a9 a7bc 0cf7 6cbc 6a5d 84bc
000001e0: 319c 6bbc 0f95 063c 6645 55ba 6d69 1abc
000001f0: b8a5 d9bb d8cf a3bc ead6 453c 9053 a93a
-0.0061648707 -0.0070457165 -0.011931778 -0.02010707 -0.019496208 -0.018313542 0.015953382 0.013288328
0.0070832083 -0.008470699 -0.00983162 0.012505621 0.015409336 0.008633124 -0.015286486 -0.005783845
-0.013602234 0.0006353874 0.014041503 0.0068526785 0.021585109 0.012136056 -0.0019357796 0.0035038546
0.0031571465 -0.017370854 0.004700084 -0.005063416 -0.02035651 0.017048681 0.020474833 0.001483497
-0.014848 0.018745126 -0.008213068 0.004022222 -0.010380168 -0.002481245 0.002072721 0.012227908
0.0115173645 0.0014774994 0.01010664 0.01239356 -0.016412953 0.01585898 0.018349873 0.010212039
0.024494883 -0.01741978 0.019674636 0.015045399 -0.014567123 -0.01137345 -0.008187336 -0.015094274
0.008897526 0.0142945545 -0.00095298485 0.0035155176 -0.0028550748 0.0002082366 0.0007550577 0.013895752
-0.016410477 0.0020099566 0.015945597 0.021626739 -0.009271464 -0.014992304 -0.009001731 0.016480817
-0.016672047 -0.015665732 0.013965683 -0.004317806 -0.01757251 -0.015536836 0.012589568 -0.0010727925
0.0045175212 0.010520384 0.0063729393 -0.007689126 0.010472527 -0.0076171476 0.014727435 -0.016448675
-0.009449458 -0.0012450295 0.00022049113 0.018637998 0.010528276 0.006714624 -0.010000279 -0.021302247
0.0057664174 0.018265685 0.0012440907 -0.014614691 -0.014080332 0.0030692024 0.0053385645 -0.017998789
0.009019388 0.0070488453 -0.004296343 0.0013930124 0.00511691 -0.009351514 0.013947189 -0.00030279587
-0.017099658 0.00800761 0.024700046 0.012202528 0.0025083304 -0.020466775 -0.014463197 -0.016157825
-0.014380501 0.008214249 -0.00081356463 -0.0094245495 -0.0066420697 -0.019996569 0.012075165 0.001291858

action_model._continuous_distribution.log_sigma f4 [1, 2]
00000000: 88f6 013a d4a6 933c
0.00049576955 0.018023886

action_model._continuous_distribution.mu.weight f4 [2, 128]
00000000: 365c 843b 7da6 f83c af98 9a3c 23f6 453c
00000010: c424 f43c 4791 db3c 03a5 d9bc 17c1 fabc
00000020: 1f75 1e3c 7a54 88ba b323 0f3d e2c9 02bd
00000030: e0c4 cabc da34 c9b9 d508 ad3c 26c5 343c
00000040: 7ce2 8fbb 7357 5ebc ee77 f4bc b79f bebc
00000050: 12da 28bd acf1 ebbb 2eee e9ba b53e 07bd
00000060: bd50 febc 7eec ad3c 6f64 a6bb 4005 d53a
00000070: 15f2 263d 0709 efbc d21b 32bd 143d 63bc
00000080: bb98 0a3d e390 cfbc eebd 063d 1eec b0bc
00000090: 847b 8c3c 7d3d 71bc 82b9 643c 6eff 45bc
000000a0: d95a b6bb 64c2 80bc 44e1 90bc 9849 d2bb
000000b0: 0199 fd3c d72a 6dbd 58f1 2bbd 0e42 95bc
000000c0: 9924 f4bc 8f39 ed3c ba54 46bd 26d9 57bc
000000d0: 2d16 af3c cd6f c33c 6ad1 513b 4c22 a93c
000000e0: 5af7 24bc 95f9 c0bc 66ae ae3a b321 e5bb
000000f0: c5e5 843c b191 85ba c5ba f5bb 95c6 3cbd
00000100: f79b 4a3c f9da a8bc 0004 f7bc 08f9 1cbd
00000110: 4c11 273c 859e 253d 955a 92bb 311d e2bc
00000120: f0f5 623d 2ed3 b83c b1f3 d3bb 784f 2c3c
00000130: 20f4 8f3c 23d2 2d3d bb69 57bb 9d6e 2d3c
00000140: 5304 f23b 732d 98bc 11f8 91bc 0c65 42bc
00000150: f76b 56bc 3345 c9bb cb5b 50bc 4bd6 7d3c
00000160: 5d6a 513a 83ce d0bc b749 0fba 2c41 d8bc
00000170: b3ec 52bc 8d09 8fbc 1d46 343d ba65 123c
00000180: 8d4b 5abc 3781 d1bc 749e a93c ac3c 153d
00000190: 499d ef3c 183c ed3b 7a8c 4f3c 9726 993c
000001a0: 3731 e4bb 5813 ecbb e430 28bc 4ecd 59bb
000001b0: cf3b e5bb 81b4 c33b 99bd 0abd f344 87bc
000001c0: 287d 473d a710 ffbc d05d e8bc d2e3 17bb
000001d0: 49e7 a5bc 736a 833c 55aa 253c 76ea e33c
000001e0: e072 253d 05a7 f8ba b804 513b 8994 edbb
000001f0: 71de 34bb 4400 a73c 4462 5fbc f565 53bc
00000200: 98c6 003d 978d 89bc b651 7f3b bcd4 f138
00000210: cf8c 603c 594b 353b 8c73 5a3c cf44 05bd
00000220: c3be 343b 2a28 c73c 2240 2bbc ed9d 32bb
00000230: f09d d7bc d114 3abc 0d41 83ba fcc0 933c
00000240: d930 843c 70d9 c9bc 01df 81bc 66ac 44bc
00000250: 681b 6bbb df0e e6bb 70d0 eb3c 7cad 433d
00000260: 20f8 073d 2f50 66bb 69b6 39ba 642c 833b
00000270: a782 a83c 9254 ecbc d5a7 e7bb c2a0 b93c
00000280: f0a5 e53b a9d1 7bbc 8112 25bc 3e02 e63c
00000290: 092b adbb d3bb db3c c4f1 9abb 7bfb 49bb
000002a0: d7b9 00bc 3be3 143d 24e2 35bc 1a73 8cbc
000002b0: e1f8 ad3c 4d5a 0f3c cdb0 44bd 0355 1dbc
000002c0: 03c8 6bbc 070e 6e3c 4aa2 8dbb 7ac4 38bc
000002d0: 2c30 293c 7566 8bb9 b2d9 d93c ba6d 0e3c
000002e0: 3df9 7a3b b151 9fbc 893c 963b 2929 73bc
000002f0: 2bb4 ca3b c7a0 4dbc 37a7 9bbc 4d05 e03b
00000300: 3a3d 463c 27ec 093d 7924 debc 1975 4ebc
00000310: 71da 183d 783b 87bc 97b0 843c d251 efb8
00000320: 0232 653a 52ae 4e3c aa32 e5bc f7a6 bb3c
00000330: 3fa1 073c 9dcc bfbb 1f43 84ba 8847 77bc
00000340: ca00 4abc f009 983b e7cd 2f3c 32bb 18bc
00000350: 5290 6fbc 49da 9fba e49f 06bc 45e5 1d3c
00000360: 368c 3c3c ddf0 9b3c e146 173d 8999 f7bb
00000370: 4812 9fbb 6618 d4bc 9444 47bc 9b32 2d3c
00000380: 6934 21bc c415 62bc 0fde e7bc 56af 7d3c
00000390: 7b72 d13c ca60 87bc 1eaf 823b 5e12 833b
000003a0: 9d5f d1bb ea43 fdbc 845e 913c 2f03 9eba
000003b0: 40c7 0ebd 67d5 073d 6796 63bb 3711 ca3c
000003c0: 5c48 5f3c f002 1c3c d928 48bc 112a dabb
000003d0: 778b b33c d393 603c 95ba a83c 81aa 1e3c
000003e0: c32d 003d 4bc1 bbbc a51e 4f3c ea10 d6bb
000003f0: 593b c43c 851f c73b 94ec eebc 53a7 c43c
0.0040393127 0.030352825 0.018871633 0.012082609 0.029802687 0.026802672 -0.026567942 -0.03060965
0.0096714785 -0.0010401153 0.034946155 -0.03193081 -0.02475208 -0.00038377085 0.021122376 0.011033332
-0.0043910127 -0.013570654 -0.029842343 -0.023269517 -0.041223593 -0.0072004404 -0.0017847472 -0.033018786
-0.031044358 0.021230932 -0.0050778906 0.0016252175 0.04075821 -0.02917911 -0.043483563 -0.013869543
0.03383706 -0.025337642 0.032895975 -0.021596964 0.01714874 -0.014724133 0.013960244 -0.012084825
-0.005565029 -0.015717693 -0.01768554 -0.0064174645 0.030956747 -0.057902183 -0.04197821 -0.018219974
-0.029802607 0.02895811 -0.048420645 -0.013174331 0.021372879 0.023857022 0.003201569 0.020646237
-0.010068739 -0.02355651 0.0013327121 -0.0069925427 0.016222844 -0.0010190514 -0.0074990713 -0.04608782
0.0123662865 -0.020612227 -0.030153275 -0.038323432 0.010196995 0.04043438 -0.0044663646 -0.02760181
0.055410326 0.022561636 -0.0064682593 0.010516994 0.017572463 0.04243673 -0.0032869417 0.010585454
0.0073857694 -0.01857636 -0.017818483 -0.011864912 -0.013087264 -0.0061422824 -0.012717198 0.015492986
0.00079885666 -0.025489097 -0.00054660015 -0.026398264 -0.012873816 -0.017460609 0.044012178 0.008935386
-0.013323677 -0.02557431 0.02070544 0.036434814 0.029249804 0.0072398297 0.01266777 0.018695159
-0.0069638747 -0.0072044544 -0.010265563 -0.0033233943 -0.006995655 0.0059724455 -0.03387222 -0.01651237
0.048703343 -0.03113587 -0.028365046 -0.0023176563 -0.020251887 0.01604197 0.010111411 0.02782176
0.040392756 -0.0018970674 0.0031893682 -0.007250373 -0.0027598406 0.020385869 -0.013634268 -0.012902726
0.031439394 -0.016791148 0.0038958616 0.000115314004 0.013705446 0.002766332 0.013333213 -0.032536324
0.0027579523 0.024311144 -0.010452302 -0.0027254776 -0.026320428 -0.011357502 -0.0010013893 0.018036358
0.016136574 -0.024639815 -0.015853407 -0.012003994 -0.003587449 -0.0070208157 0.028785914 0.04777287
0.033195615 -0.0035143008 -0.0007084371 0.0040030945 0.020570112 -0.02884892 -0.0070695677 0.022659663
0.0070083067 -0.015369811 -0.010075212 0.028077241 -0.005284671 0.02682296 -0.0047285277 -0.003082006
-0.007856808 0.036349516 -0.011101279 -0.017144728 0.021236839 0.008749557 -0.048020173 -0.009602788
-0.014390948 0.014529712 -0.004322325 -0.011277312 0.0103264265 -0.00026588482 0.026593063 0.008693153
0.003829553 -0.019448133 0.004584853 -0.014841356 0.0061860285 -0.012550539 -0.019000633 0.0068365694
0.0120995585 0.033672478 -0.027117 -0.01260116 0.037317697 -0.01650785 0.016197486 -0.00011411648
0.00087431085 0.012614803 -0.02797826 0.022906763 0.00827819 -0.005853249 -0.0010090804 -0.015092738
-0.01232929 0.0046398565 0.010730243 -0.009321975 -0.014621811 -0.0012195791 -0.008216832 0.009637182
0.011508038 0.019035751 0.03693283 -0.0075561446 -0.004854474 -0.02589054 -0.012162346 0.010571147
-0.009839156 -0.013799135 -0.028304128 0.015483698 0.025567284 -0.016525645 0.0039881608 0.0039999923
-0.006389572 -0.030916173 0.017745264 -0.0012055392 -0.03485799 0.0331625 -0.0034727098 0.024666412
0.013628092 0.009522185 -0.01221677 -0.0066578467 0.021917088 0.013707119 0.020596782 0.009684206
0.03129364 -0.022919318 0.012641584 -0.006532778 0.02395408 0.0060767555 -0.029165544 0.024005568

action_model._continuous_distribution.mu.bias f4 [2]
00000000: ce4e a0bc f1ae c5bb
-0.019568827 -0.0060328175

exp_avg f4 [128, 18]
00000000: e749 37b7 ae00 2f37 6fad c036 a4e5 7ab8
00000010: 0754 4eb7 5de9 ff35 b3a9 5a37 e082 54b7
00000020: 78b7 3338 d9a2 5738 30b5 8736 33d4 85b6
00000030: e5ce 4c38 37f1 4d38 6ba8 e337 552c 3538
00000040: f5e8 47b8 5865 f034 2680 01b6 a8c9 1fb7
00000050: daa5 bdb5 ff46 f7b5 96fe d8b5 5b53 cbb5
00000060: 65fd abb5 ff61 13b6 0b03 9fb6 b2c7 17b7
00000070: caea 2235 8d5a eeb6 8a81 bbb6 4c90 74b7
00000080: 8fd1 40b6 5192 8db7 2fbb 46b5 ebf8 31b7
00000090: 8d63 54b8 1671 1837 35a3 8e37 2bc1 6e37
000000a0: 5545 4ab8 07cb e9b7 2e3a f836 868d 0238
000000b0: ebf5 73b7 cf0e 8eb6 cf75 8435 7e55 2f38
000000c0: d8cf c5b7 12b1 37b7 b6e5 bf36 6e26 6038
000000d0: 7390 85b8 319a 1ab8 35e5 12b8 9e7c 8637
000000e0: b102 a637 c6d5 9537 d0c4 0eb8 c34a 63b7
000000f0: 963b 6f37 b873 1438 2b21 b9b6 aa07 1136
00000100: f9f4 f9b6 77d9 0638 0cb6 2cb6 d31a 5f36
00000110: 9c0d 02b6 7269 1e38 c84e 02b8 b755 39b7
00000120: 730a 2c38 0187 0ab8 cd20 34b8 6f02 21b7
00000130: 1b4c 2d38 ad59 e737 6e7a 21b8 2c50 48b8
00000140: 8233 56b7 2e3e 9eb7 d805 0f37 12e2 2eb8
00000150: 4cde aeb7 ae5b f6b7 4a40 12b5 9f66 90b8
00000160: 3501 5a38 31f2 1137 dddb 9ab7 31fb 2bb6
00000170: 4a60 6837 8c85 e738 af5e 8ab7 584c 15b7
00000180: 4b36 95b7 2f38 5638 e755 46b8 cf84 5ab8
00000190: d119 74b7 a07e 4138 8daa 4cb8 e035 45b8
000001a0: b9ff 34b8 abde 56b7 9908 6d38 b7ec 0eb5
000001b0: 7be4 beb6 437a b3b8 bee1 9fb7 4bad 3cb9
000001c0: 7779 c1b6 0dc8 08b8 da52 c735 48c4 e3b8
000001d0: e5f1 30b5 19a4 1fb7 9ad8 f136 07e0 fbb8
000001e0: 815c 8837 c3ef 16b5 ba23 4538 c1ef c2b8
000001f0: fe55 91b8 9e6c fdb7 f250 6236 6ae3 9e36
00000200: 9967 8d35 0098 8536 9bd5 5136 d8eb 9e34
00000210: 6611 0e36 0e8a 5c36 bfe8 b7b4 121b ecb5
00000220: 0987 a135 34a5 c235 8fa7 1db6 b661 5eb6
00000230: 66c2 11b5 d5f6 1936 dc69 6db6 cb79 75b6
00000240: 62f3 4936 cf89 55b8 3124 0936 4db2 dab8
00000250: 7f77 4136 f9ce f9b7 431a e436 68c9 70b8
00000260: 7724 1637 f29c a5b6 7014 c636 f344 93b8
00000270: 4b71 a237 7fb1 70b7 0486 8037 b2ce 7bb8
00000280: 3ce4 84b8 c3ec 52b8 021d 0538 af3c 91b6
00000290: 1cfe e5b6 a822 ecb8 6ead f237 d608 4737
000002a0: 36c2 9837 5ab8 4bb8 4c0f 5d38 2b0b 4938
000002b0: 969a 9d37 b757 88b8 ca51 5c38 84c7 f937
000002c0: c6d2 3d38 81f2 4eb7 67fe 8bb8 f131 c2b7
000002d0: 83de 7036 66fb 74b6 319c 1036 f488 81b7
000002e0: 9357 5336 5db4 24b6 a825 9336 1488 07b7
000002f0: ff97 8336 1900 8336 af36 9036 6fe6 17b7
00000300: be1a 2e36 489e 8136 5500 d236 272f 4bb6
00000310: 9c7c f1b6 f53c 5ab5 af5a 2237 873d abb7
00000320: eec5 a5b7 320a a537 ebc7 1237 e91e 7337
00000330: d0ff 46b7 8390 3bb7 a749 49b7 b3ab 6fb7
00000340: e36c 0936 e070 87b6 35cc 86b7 6dfb 8cb7
00000350: 4410 f1b6 88ab 1ab8 827a 7938 a58f 8037
00000360: 559a a337 b002 15b7 2c6c c5b6 ad46 3db8
00000370: 3bc8 9837 38b4 5737 5034 0d37 947c f1b7
00000380: c736 ac37 1034 9037 b4fc de36 f8aa 13b8
00000390: ca5e cb37 2502 8a37 688c a537 8e5b bcb7
000003a0: 980c aa33 aec1 cc36 47de 32b8 b1af 05b7
000003b0: 0b8d cd37 34ca 5738 53f1 26b8 e05f dbb7
000003c0: 6f5f 8d36 3d76 2938 ca06 26b8 f8d8 0bb8
000003d0: 8086 82b7 fdc8 2438 e1e3 0bb8 585c afb7
000003e0: 634e c7b7 d369 8f36 c0b7 c736 57b1 43b6
000003f0: df67 b0b7 c2cf c7b6 009a 8037 77d2 ce37
-1.0924857e-05 1.0430971e-05 5.742236e-06 -5.9818514e-05 -1.2298121e-05 1.9066898e-06 1.3033324e-05 -1.2666656e-05
4.2847794e-05 5.141166e-05 4.0444065e-06 -3.988412e-06 4.8830076e-05 4.9100458e-05 2.7138934e-05 4.319505e-05
-4.7662255e-05 4.477722e-07 -1.929709e-06 -9.52409e-06 -1.4129866e-06 -1.8423597e-06 -1.6167348e-06 -1.5148938e-06
-1.281424e-06 -2.1961748e-06 -4.7389235e-06 -9.046797e-06 6.0691366e-07 -7.103494e-06 -5.5881146e-06 -1.457713e-05
-2.8732209e-06 -1.6876644e-05 -7.4033136e-07 -1.0607978e-05 -5.0637453e-05 9.086236e-06 1.7003718e-05 1.4230881e-05
-4.8225123e-05 -2.7870306e-05 7.397749e-06 3.112622e-05 -1.4541186e-05 -4.2336537e-06 9.869053e-07 4.1802872e-05
-2.3581015e-05 -1.0948877e-05 5.7189854e-06 5.3441552e-05 -6.36884e-05 -3.6860063e-05 -3.502258e-05 1.6032074e-05
1.9789995e-05 1.786173e-05 -3.4038734e-05 -1.3547661e-05 1.42593835e-05 3.539372e-05 -5.517291e-06 2.1611145e-06
-7.449297e-06 3.215062e-05 -2.5735962e-06 3.3245203e-06 -1.9379431e-06 3.776834e-05 -3.1067786e-05 -1.1046816e-05
4.1017727e-05 -3.3027496e-05 -4.2945892e-05 -9.596914e-06 4.1317293e-05 2.7579104e-05 -3.8499413e-05 -4.775838e-05
-1.2767387e-05 -1.8864022e-05 8.524825e-06 -4.1695377e-05 -2.0845931e-05 -2.9368177e-05 -5.448279e-07 -6.88557e-05
5.1976374e-05 8.699063e-06 -1.8460612e-05 -2.5627198e-06 1.3850697e-05 0.000110398134 -1.6494972e-05 -8.898867e-06
-1.7787466e-05 5.10739e-05 -4.728688e-05 -5.2098938e-05 -1.4549544e-05 4.6132714e-05 -4.8796228e-05 -4.7018635e-05
-4.3153505e-05 -1.2807238e-05 5.651321e-05 -5.324359e-07 -5.68904e-06 -8.558158e-05 -1.9059396e-05 -0.00017993634
-5.7659886e-06 -3.261124e-05 1.4850768e-06 -0.00010860764 -6.591711e-07 -9.5153455e-06 7.2075754e-06 -0.00012010341
1.6255539e-05 -5.6228254e-07 4.7001733e-05 -9.2952985e-05 -6.930156e-05 -3.0210529e-05 3.372374e-06 4.7352414e-06
1.053547e-06 3.981404e-06 3.1267762e-06 2.9601392e-07 2.1169776e-06 3.2862913e-06 -3.425575e-07 -1.7591249e-06
1.2034735e-06 1.4502207e-06 -2.3492355e-06 -3.3137453e-06 -5.4299596e-07 2.2942452e-06 -3.537737e-06 -3.6578738e-06
3.0093001e-06 -5.09115e-05 2.0435657e-06 -0.00010428261 2.8828797e-06 -2.9779492e-05 6.7979868e-06 -5.7408033e-05
8.949187e-06 -4.935654e-06 5.903239e-06 -7.022349e-05 1.9364661e-05 -1.4346441e-05 1.5321195e-05 -6.0035563e-05
-6.3367625e-05 -5.0288403e-05 3.1736687e-05 -4.3284012e-06 -6.854314e-06 -0.00011259812 2.8929408e-05 1.1863382e-05
1.8210249e-05 -4.8570662e-05 5.2704752e-05 4.7932535e-05 1.8787843e-05 -6.5013235e-05 5.252826e-05 2.977602e-05
4.525741e-05 -1.2335019e-05 -6.6754226e-05 -2.3149858e-05 3.5892306e-06 -3.6505166e-06 2.1548587e-06 -1.5441772e-05
3.1492425e-06 -2.454289e-06 4.385325e-06 -8.07831e-06 3.921799e-06 3.9041156e-06 4.2979004e-06 -9.053953e-06
2.5943586e-06 3.862926e-06 6.2585264e-06 -3.0276803e-06 -7.196866e-06 -8.130003e-07 9.677066e-06 -2.041344e-05
-1.9761701e-05 1.967428e-05 8.748825e-06 1.44911255e-05 -1.1861281e-05 -1.1179715e-05 -1.1997682e-05 -1.4285487e-05
2.0477971e-06 -4.036454e-06 -1.6069136e-05 -1.680638e-05 -7.1842533e-06 -3.6876212e-05 5.948032e-05 1.5325679e-05
1.950298e-05 -8.881718e-06 -5.8836504e-06 -4.5126933e-05 1.8213052e-05 1.2856959e-05 8.416435e-06 -2.878745e-05
2.0529505e-05 1.7190381e-05 6.645534e-06 -3.520676e-05 2.4243625e-05 1.645188e-05 1.9734915e-05 -2.245398e-05
7.918533e-08 6.102221e-06 -4.264552e-05 -7.968324e-06 2.4503583e-05 5.144831e-05 -3.9802235e-05 -2.615148e-05
4.2132374e-06 4.0402858e-05 -3.9583807e-05 -3.334225e-05 -1.5559839e-05 3.9287832e-05 -3.335241e-05 -2.0904627e-05
-2.375915e-05 4.2740517e-06 5.9520535e-06 -2.916049e-06 -2.1029204e-05 -5.9548483e-06 1.53305e-05 2.4655119e-05

exp_avg_sq f4 [128, 18]
00000000: 8725 dc31 9cdf f732 b459 db31 b937 e432
00000010: a68c d331 6000 f132 cc62 0f32 5bdc be32
00000020: 54aa 2032 ffbb e632 0532 1032 c975 f732
00000030: 8421 0732 ea85 e632 e3f8 f232 e481 3e33
00000040: fe48 2c32 3c02 dd32 454b d42f 76b2 9d30
00000050: 7be3 e72f 452e 8530 d5af c72f bba6 be30
00000060: 4c3c 8330 c07b d730 8e88 da2f 2a15 b830
00000070: 6685 8730 928e ef30 91bb 972f dd7b b030
00000080: c08b b530 5874 0131 27ce ed2e b026 8530
00000090: 0328 2531 93e7 8932 235e 5630 3a20 5832
000000a0: 59f2 6631 3748 a732 3144 3b30 516b 4732
000000b0: 2864 c131 6203 9832 bf16 9f30 485c 8b32
000000c0: 243b ea31 8883 b432 2746 9232 e7d4 e932
000000d0: d286 4d32 da99 b832 4851 7532 2b9d c432
000000e0: 9248 7432 337d b532 e90e 7032 bd9c c232
000000f0: 4c35 7532 054b a932 3d46 3a32 ef2c a732
00000100: 933f 5b32 f533 af32 ba8d 0732 c576 9c32
00000110: 2302 b432 2955 de32 fa44 2232 f7ac 9b32
00000120: c974 ce32 95a3 6633 334e ca32 6f03 5533
00000130: c1cf ca32 def2 6a33 d62a bf32 28dd 4c33
00000140: 72a1 f732 59a9 6633 002d 5932 c19f 2b33
00000150: cf7a e632 13cc 6f33 c7ee fd32 2e49 4c33
00000160: 75cb e432 edb6 5233 e480 0f32 717b e332
00000170: 12bb 0032 c4cc c632 8697 1432 70e8 ef32
00000180: 9e66 ac31 7346 a132 58fa 3732 2286 df32
00000190: 2ea6 8331 3068 a232 f9ea 2a32 85c6 ea32
000001a0: 59e6 8f32 6f7a 0033 a06d 5332 822d e632
000001b0: 3869 8031 a26e 1833 1924 8731 47a6 0433
000001c0: 5b47 6b31 0af5 1e33 f89f 4431 1a85 ca32
000001d0: 1630 8031 1c0b 0433 f453 1e31 6105 cf32
000001e0: 24ca 8d31 e0ce 1733 9e3e 0533 2cf9 5633
000001f0: 391e 0032 538a 0833 dc1c 0930 454e 9c30
00000200: 4540 c12f b51b 8230 35b3 1530 6055 9330
00000210: 31b6 d72f 6bef 8a30 c294 1430 ba5b 9830
00000220: 6784 b12f 91f1 8330 fd72 0730 dd05 9d30
00000230: 3325 d72f 938f 7230 27c9 1430 9c0e a930
00000240: 9ddb 1d31 b44b 1532 e80e 3f31 641a 4232
00000250: ca3a 0c31 37c9 0432 6e25 8a31 bf4c 3f32
00000260: f72a e630 9377 dd31 e1e7 6a31 8089 4732
00000270: f059 d630 03c9 0432 0822 ed31 3b62 7132
00000280: a2ae 7731 a335 1632 4545 b132 4562 5333
00000290: 287b a932 dab9 4533 ac31 b132 c181 5133
000002a0: 7277 a032 e0ce 2533 23e9 bd32 acc7 4233
000002b0: b17d 8e32 4aa1 3033 d97b a432 aaaf 5333
000002c0: 9003 1b33 0a89 7533 5c91 ca32 1dbe 5333
000002d0: 26d8 5330 f76f 6431 d75b 6230 45ea 5231
000002e0: 788d 2d30 e054 7531 6fea c830 f6a4 8d31
000002f0: b551 2a30 c714 6e31 9839 0431 b576 a231
00000300: d356 1030 7970 7431 44bc 7831 7a0e c631
00000310: 04dd 3b30 624e 4e31 2ffa 9b31 f248 1733
00000320: 0ff7 aa31 5c09 ff32 9fcd 8631 b51f 0b33
00000330: 46a7 b531 1c3c 0233 4682 9431 6fb1 fa32
00000340: 5f8e 9331 0644 e632 2f45 8f31 b994 fd32
00000350: 2666 c432 9d26 3b33 f642 de31 c71e e732
00000360: 3e58 9732 d2a5 db32 216c 8f32 4266 d432
00000370: 6ef4 9032 ec52 e532 2540 9a32 77e0 d232
00000380: 2abf 8232 7478 d332 80ff 8232 ad57 bb32
00000390: 6fc5 4232 4390 ca32 6d6f 9a32 a123 c732
000003a0: c962 2732 2bc0 a832 ff88 5732 e288 cc32
000003b0: c594 3d32 8414 9f32 97f8 5832 491b d332
000003c0: fdca 2832 de14 8b32 024e 6932 310d bc32
000003d0: 3fb7 1e32 8de6 9132 f9d4 1332 bb00 ab32
000003e0: 0f23 8d32 0efb c732 2095 3332 4ccb a132
000003f0: cc2e 3732 ccbb 6f32 e41d 1132 edae 5632
6.407109e-09 2.885627e-08 6.383937e-09 2.6568033e-08 6.156898e-09 2.8056263e-08 8.346159e-09 2.2219117e-08
9.351954e-09 2.6861015e-08 8.393276e-09 2.8808147e-08 7.865655e-09 2.6836421e-08 2.8285688e-08 4.4355957e-08
1.0028314e-08 2.5728802e-08 3.8616058e-10 1.1473975e-09 4.218029e-10 9.690174e-10 3.6322825e-10 1.3871707e-09
9.548642e-10 1.5678481e-09 3.9750997e-10 1.3393777e-09 9.860457e-10 1.743006e-09 2.7600014e-10 1.284089e-09
1.3209203e-09 1.8838104e-09 1.0814132e-10 9.688019e-10 2.4033404e-09 1.6054207e-08 7.7986523e-10 1.2580182e-08
3.3607164e-09 1.9474198e-08 6.812711e-10 1.16077254e-08 5.6284257e-09 1.7696667e-08 1.1575237e-09 1.6223694e-08
6.81702e-09 2.1014571e-08 1.7028539e-08 2.7221587e-08 1.1963225e-08 2.1490383e-08 1.4279358e-08 2.2888875e-08
1.421917e-08 2.1128107e-08 1.3973229e-08 2.2655849e-08 1.4272995e-08 1.9708304e-08 1.0842595e-08 1.9461792e-08
1.2761933e-08 2.0396309e-08 7.890259e-09 1.82148e-08 2.095573e-08 2.5882928e-08 9.4453245e-09 1.812303e-08
2.4034664e-08 5.3699825e-08 2.3551456e-08 4.959605e-08 2.361037e-08 5.4703257e-08 2.2254806e-08 4.769859e-08
2.8828001e-08 5.370507e-08 1.2641294e-08 3.9959335e-08 2.6831371e-08 5.583213e-08 2.956166e-08 4.7564008e-08
2.6635215e-08 4.9060805e-08 8.353002e-09 2.6482413e-08 7.4931155e-09 2.314335e-08 8.649186e-09 2.7928962e-08
5.017525e-09 1.8774903e-08 1.07089235e-08 2.6021613e-08 3.8314942e-09 1.8906661e-08 9.948729e-09 2.7331462e-08
1.6752141e-08 2.9913675e-08 1.2306742e-08 2.6796219e-08 3.7372523e-09 3.5490878e-08 3.933121e-09 3.0884873e-08
3.4237562e-09 3.7010103e-08 2.8612686e-09 2.3576423e-08 3.730757e-09 3.074375e-08 2.3039748e-09 2.4100418e-08
4.126621e-09 3.534558e-08 3.1023426e-08 5.005238e-08 7.457452e-09 3.1790773e-08 4.988132e-10 1.1372739e-09
3.5152162e-10 9.46662e-10 5.446055e-10 1.0719923e-09 3.9237727e-10 1.0108868e-09 5.4053484e-10 1.1085526e-09
3.229019e-10 9.600162e-10 4.927612e-10 1.142492e-09 3.9134704e-10 8.824312e-10 5.412794e-10 1.2300521e-09
2.2971343e-09 8.690154e-09 2.7802631e-09 1.1298287e-08 2.04061e-09 7.729162e-09 4.020584e-09 1.1135113e-08
1.6746914e-09 6.4455405e-09 3.418329e-09 1.1614588e-08 1.5596111e-09 7.729116e-09 6.9014767e-09 1.4050381e-08
3.6042498e-09 8.743345e-09 2.0637012e-08 4.921664e-08 1.9730194e-08 4.6036668e-08 2.06281e-08 4.8779615e-08
1.8680769e-08 3.8605208e-08 2.2108514e-08 4.5350745e-08 1.6588134e-08 4.1124885e-08 1.9148432e-08 4.928703e-08
3.609199e-08 5.7168144e-08 2.3581997e-08 4.9300173e-08 7.706852e-10 3.3242011e-09 8.2348833e-10 3.0692189e-09
6.313807e-10 3.5700438e-09 1.4618545e-09 4.122394e-09 6.196175e-10 3.4645369e-09 1.9241266e-09 4.728316e-09
5.251028e-10 3.5570606e-09 3.6195766e-09 5.7642042e-09 6.8344286e-10 3.00215e-09 4.5395363e-09 3.522377e-08
4.9757385e-09 2.9690163e-08 3.9232897e-09 3.2392297e-08 5.28681e-09 3.0322653e-08 4.3221773e-09 2.9184518e-08
4.294449e-09 2.6806457e-08 4.169713e-09 2.9520708e-08 2.2863855e-08 4.357445e-08 6.468663e-09 2.6905935e-08
1.7618841e-08 2.5570362e-08 1.6696562e-08 2.472655e-08 1.687496e-08 2.6696817e-08 1.795713e-08 2.4549292e-08
1.5220923e-08 2.4618409e-08 1.525018e-08 2.1809536e-08 1.1337177e-08 2.3581498e-08 1.797863e-08 2.3182851e-08
9.7431405e-09 1.9645162e-08 1.2545796e-08 2.3810973e-08 1.1035074e-08 1.8519366e-08 1.26293775e-08 2.457604e-08
9.825041e-09 1.6191219e-08 1.3580122e-08 2.189208e-08 9.238476e-09 1.6985064e-08 8.6049505e-09 1.9907352e-08
1.6430503e-08 2.3280815e-08 1.0453078e-08 1.8835316e-08 1.0662642e-08 1.3954331e-08 8.446907e-09 1.2496213e-08
