results/SeekerAgent/SeekerAgent/SeekerAgent-388639.onnx (onnx, 344226 bytes, 12 tensors)

101 f4 [1, 256, 128]
0	0x3da318a7	0.079636864
1	0x3b535568	0.003224695
2	0xbda2d97a	-0.079516366
3	0xbccebcf5	-0.025236586
4	0xbd58fcde	-0.052975528
5	0xbd3c0dfc	-0.045911774
6	0x3d451ad5	0.048121292
7	0xbd1b582e	-0.03792589
8	0xbd415171	-0.04719681
9	0x3e023743	0.12716393
10	0xbe0d87a8	-0.1382128
11	0x3bd37d71	0.0064541628
12	0xbd288f55	-0.041152317
13	0xbc308f32	-0.010776328
14	0xbc5e4728	-0.01356677
15	0xbde0aaae	-0.109700546
16	0x3e5b6cc0	0.21428204
17	0x3bea5eb6	0.0071524037
18	0xbe3700fd	-0.17871471
19	0x3e35d028	0.17755187
20	0x3e0956d9	0.13412036
21	0xbe067a90	-0.13132691
22	0x3e283813	0.1642764
23	0x3bc10c8b	0.005891388
24	0x3dddb616	0.10825746
25	0x3d945a16	0.07243745
26	0xbdaea16a	-0.08526881
27	0xbe286a07	-0.16446696
28	0xbce22875	-0.027607182
29	0x3d1988fd	0.037484158
30	0x3e0e31ba	0.13886157
31	0x3e613213	0.21991758
32	0x3db84a05	0.08998493
33	0x3d087655	0.033315975
34	0xbde3c447	-0.11121421
35	0x3d3af880	0.045647144
36	0xbdf627c9	-0.12019307
37	0xbe2f0f15	-0.17095597
38	0xbdab48b6	-0.08363478
39	0x3ca7fb70	0.020505637
40	0xbdb9f67e	-0.09080218
41	0xbe0ebac4	-0.13938433
42	0x3d475767	0.048667338
43	0xbe46adaa	-0.19402185
44	0xbd0381c3	-0.032106172
45	0xbe2095d3	-0.15682153
46	0x3e176882	0.1478596
47	0x3e3f7487	0.18696795
48	0xbd00e0fb	-0.031464558
49	0xbe1e862a	-0.15480867
50	0x3daec31e	0.085333094
51	0x3d330fde	0.043716304
52	0xbd30252c	-0.0430042
53	0xbb0396ac	-0.002007882
54	0xbdb44544	-0.08802274
55	0x3d278eae	0.040907554
56	0xbddddf12	-0.10833563
57	0x3dde9c28	0.10869628
58	0x3dbe97df	0.09306311
59	0x3df09b1c	0.11748335
60	0x3ce54bbf	0.02799022
61	0xbdf67edb	-0.120359145
62	0xba23eeab	-0.0006253521
63	0xbddd3b58	-0.108023345
64	0x3d029ca6	0.031887673
65	0xbe02968d	-0.12752743
66	0xbd5fa113	-0.05459697
67	0xbe0cc27f	-0.1374607
68	0x3d725a38	0.05916807
69	0x3e326f73	0.17425327
70	0xbdbc1ff2	-0.091857806
71	0xbc12d279	-0.008961313
72	0xbe132f23	-0.1437345
73	0x3e2288f0	0.1587255
74	0xbc71177f	-0.014715075
75	0xbdca021a	-0.09863682
76	0xbddd1b17	-0.107961826
77	0xbda5fa41	-0.08104373
78	0xbe0b4269	-0.13599552
79	0xbc516127	-0.012779511
80	0x3c72a1fd	0.014809129
81	0xbce81aa7	-0.028333021
82	0xbe14e7b7	-0.14541517
83	0xbe2420fa	-0.16028205
84	0xbdd33692	-0.10313143
85	0x3d235387	0.03987458
86	0x3bb634df	0.005560502
87	0x3cf03861	0.029323759
88	0xbd1b3008	-0.037887603
89	0x3e12be76	0.14330468
90	0x3b4a77a1	0.0030894058
91	0xbd27e9d5	-0.040994484
92	0x3dada7a5	0.08479241
93	0xbe092590	-0.13393235
94	0x3dcd238c	0.10016546
95	0x3df9cda6	0.121974275
96	0xbcd3f5f1	-0.02587411
97	0x3da5bba1	0.08092428
98	0x3cd1cfa0	0.025611699
99	0xbc97567a	-0.018473852
100	0xbd791c1f	-0.060817834
101	0xbdf5ace0	-0.11995864
102	0x3dc0c1b8	0.09411949
103	0xbe0b02cf	-0.1357529
104	0x3e00c5b3	0.12575416
105	0xbd3f637e	-0.046725743
106	0xbda4ef8b	-0.08053502
107	0x3ca9bc7f	0.020719765
108	0xbc100075	-0.008789171
109	0x3e1f9cbe	0.15587136
110	0xbd14f896	-0.036369883
111	0xbd0a5502	-0.033772476
112	0x3de38f19	0.11111278
113	0xbd02e371	-0.031955186
114	0xbc6815b1	-0.014165328
115	0x3dd17b54	0.10228601
116	0xbd57669c	-0.05258809
117	0xbdbce47d	-0.09223268
118	0xbdbb1253	-0.091343544
119	0xbcaeb405	-0.021326074
120	0x3e51ebc5	0.20500095
121	0x3e4d692d	0.20059653
122	0x3e1e4e78	0.15459621
123	0x3d60f03c	0.054916605
124	0xbe39eba8	-0.18156302
125	0xbcffe6d0	-0.03123799
126	0xbe1876f5	-0.14889129
127	0xbe0c0fa6	-0.13677844
128	0xbe12bc27	-0.14329587
129	0xbe354474	-0.17701894
130	0x3c223aa9	0.009901681
131	0xbd9eaa62	-0.07747342
132	0x3e383b13	0.17991285
133	0xbdb4b7e3	-0.08824136
134	0x3dfbc4e6	0.12293415
135	0x3ddfbd47	0.10924774
136	0xbe21a802	-0.15786746
137	0x3e65a864	0.22427517
138	0x3e415ce6	0.18883094
139	0x3b4d5268	0.0031329636
140	0x3c7e6dc9	0.0155291045
141	0x3cd2f776	0.025752764
142	0xbe0acfa4	-0.13555771
143	0x3e00a95b	0.12564604
144	0xbda7c619	-0.08192081
145	0xbe64c0a2	-0.22339109
146	0xbd1f6e7f	-0.038923737
147	0x3d9363bf	0.071967594
148	0xbd2e60b3	-0.04257269
149	0x3e35c2d9	0.1775011
150	0x3c5b3a31	0.013380573
151	0x3d6528af	0.055947002
152	0x3e02e1a7	0.12781392
153	0x3e049761	0.12948371
154	0x3e17b0e5	0.14813574
155	0xbdd32698	-0.103100955
156	0x3d8e1f94	0.06939617
157	0x3e05b2b7	0.13056456
158	0x3dafe436	0.0858845
159	0x3e11f1dc	0.14252418
160	0xbdb93bff	-0.090446465
161	0xbd7a93a5	-0.06117596
162	0xbde6e14c	-0.11273441
163	0xbe5bedf4	-0.2147749
164	0x3d9aee5e	0.07564996
165	0x3de0d102	0.10977365
166	0x3dc14c26	0.09438352
167	0x3e4f745f	0.20259236
168	0x3e416313	0.1888545
169	0x3d4e6fe4	0.050399676
170	0xbdb96fc7	-0.09054523
171	0x3e117e64	0.1420837
172	0xbe151f98	-0.14562833
173	0xbdc2859d	-0.09498141
174	0xbe00addd	-0.12566324
175	0x3dafa601	0.085765846
176	0xbdebfb4a	-0.11522539
177	0x3d6570ec	0.056015894
178	0xbd77aa1d	-0.060464967
179	0x3c59fa0f	0.0133042475
180	0x3ddb934d	0.10721455
181	0xbd56bb7a	-0.052424885
182	0x3e0c4539	0.13698281
183	0x3e108361	0.14112617
184	0x3e215171	0.15753724
185	0x3bbe3fd4	0.0058059487
186	0xbc8155ce	-0.015787985
187	0xbdeb4da8	-0.11489421
188	0xbe2421cc	-0.16028517
189	0x3e145586	0.1448575
190	0x3e49c40e	0.19703695
191	0xbdadf024	-0.08493069
192	0xbde6981b	-0.112594806
193	0xbe2d0009	-0.16894545
194	0xbd6a0108	-0.05712989
195	0x3c704c61	0.014666648
196	0xbd6933b0	-0.05693406
197	0xbe12b409	-0.1432649
198	0xbd26058b	-0.04053263
199	0x3cf7230f	0.030168084
200	0x3d5d0629	0.053960953
201	0x3a7e1559	0.0009692512
202	0x3e0cacf4	0.13737851
203	0x3da59e02	0.08086778
204	0xbddf4086	-0.10900979
205	0xbd4ceb4b	-0.05002908
206	0xbd4df0a6	-0.05027833
207	0xbe63f970	-0.22263122
208	0xbe0769b7	-0.13223921
209	0x3d10c667	0.03534546
210	0xbc96822f	-0.018372623
211	0x3b15926a	0.0022822865
212	0x3e4e949b	0.20173876
213	0x3c9ec8e9	0.01938291
214	0x3e04c032	0.12963942
215	0xbe29ad08	-0.16569912
216	0xbca0ca8f	-0.019627837
217	0x3dcd6f89	0.10031039
218	0xbd4c4111	-0.04986674
219	0xbd300520	-0.042973638
220	0x3de42a6e	0.11140905
221	0xbd4974ce	-0.04918366
222	0xbd888a37	-0.066669874
223	0x3e2656d3	0.16244058
224	0xbd807fc0	-0.062743664
225	0xbe5c9ea1	-0.21544887
226	0x3dfe69ad	0.124225
227	0xbe09bac7	-0.13450156
228	0xbb1ac567	-0.0023616196
229	0xbd82528e	-0.06363402
230	0x3e153758	0.14571893
231	0x3e148d13	0.1450694
232	0xbdf4e358	-0.11957425
233	0x3e4b51cb	0.1985542
234	0xbd79e4de	-0.06100928
235	0xbd3cd899	-0.046105
236	0x3d9aaac2	0.07552101
237	0xbdf518d8	-0.11967629
238	0xbdde2c51	-0.108482964
239	0xbd9d8d80	-0.076930046
240	0x3e330a48	0.1748439
241	0xbdd0d2cd	-0.10196457
242	0x3e1ea22a	0.15491548
243	0x3d6d1b33	0.057887267
244	0xbd909bc6	-0.070609614
245	0xbd2e73f3	-0.042591047
246	0xbb89fa5c	-0.0042107534
247	0xbdee46bb	-0.116345845
248	0xbe35594d	-0.17709847
249	0xbe42abfd	-0.19010921
250	0xbd2b73ae	-0.041858368
251	0x3e100fa1	0.14068462
252	0x3dee029d	0.11621592
253	0x3e1be363	0.1522346
254	0x3d149702	0.036276825
255	0xbdffc716	-0.124891445

102 f4 [1, 256, 64]
0	0x3d3b0ae5	0.045664687
1	0xbe4d379b	-0.20040743
2	0xbdb421e4	-0.087955266
3	0x3e3543f0	0.17701697
4	0xbb664303	-0.0035135157
5	0x3d8d74c2	0.069070354
6	0x3d2840e2	0.041077502
7	0x3c834c68	0.016027644
8	0x3c9e0e1e	0.019293841
9	0x3d72c487	0.059269454
10	0x3db6a319	0.08917827
11	0xbde9cc5a	-0.1141593
12	0x3d6d8b65	0.057994265
13	0x3d92aeeb	0.07162269
14	0x3d19a3b4	0.037509635
15	0x3d97da2a	0.07414658
16	0x3ce202ab	0.027589163
17	0x3e3542b8	0.17701232
18	0x3e012e2c	0.1261527
19	0x3cdc209c	0.026871018
20	0xbdcdb9ec	-0.100452274
21	0x3e2cee69	0.16887821
22	0x3da16cc7	0.07882076
23	0xbd35133d	-0.0442078
24	0x3e65622b	0.2240073
25	0xbe7bd9c7	-0.24594794
26	0x3cf1fcb3	0.029539442
27	0x3cdb315c	0.026756935
28	0x3cabdea5	0.020980189
29	0xbd440f89	-0.047866378
30	0x3e1ef65f	0.1552367
31	0xbe56416a	-0.20923391
32	0x3d4bbd70	0.04974121
33	0xbb4f7dc0	-0.0031660646
34	0xbe3bde37	-0.18346487
35	0xbe0cb840	-0.13742161
36	0xbe032d40	-0.1281023
37	0x3dff223b	0.12457701
38	0x3dddbf44	0.10827497
39	0xbdf08781	-0.11744595
40	0xbc8eaa78	-0.01741527
41	0x3dc3425a	0.0953414
42	0xbda9ca91	-0.082905896
43	0xbdf6fef7	-0.120603494
44	0x3e312357	0.17298637
45	0xbe0fea49	-0.14054216
46	0xbd7f13d5	-0.062274773
47	0x3d889a0d	0.06670008
48	0x3dff751b	0.12473508
49	0xbc506eb6	-0.012721708
50	0x3dfb958c	0.12284383
51	0x3dc47800	0.09593201
52	0xbe559738	-0.20858467
53	0xbd1596d9	-0.036520813
54	0x3e5ddaaa	0.21665445
55	0x3d75c689	0.06000379
56	0xbd0dec73	-0.034649324
57	0x3d33ae19	0.043867204
58	0x3db33f18	0.087522686
59	0xbd91ff13	-0.0712873
60	0xbe19c769	-0.15017475
61	0x3e3251b0	0.17413974
62	0xbe5ecb5f	-0.21757267
63	0x3e33a17e	0.17542073
64	0xbe58d89b	-0.21176378
65	0x3ddab74a	0.10679491
66	0x3d254c56	0.040356003
67	0x3e5bb79a	0.21456757
68	0x3d459177	0.04823443
69	0xbdf3d82d	-0.11906467
70	0xbcf4e065	-0.029892156
71	0xbe1a20c3	-0.1505156
72	0x3cb7c7aa	0.022434074
73	0x3c615e57	0.0137554025
74	0xbc711fe0	-0.014717072
75	0x3e294fe8	0.16534388
76	0x3e22c534	0.1589554
77	0x3e5abba3	0.2136064
78	0x3e005360	0.12531805
79	0x3c925c77	0.017866356
80	0x3dd8a1e2	0.10577752
81	0xbe5c6b32	-0.21525267
82	0x3e3e638e	0.18592665
83	0xbd98ad67	-0.07454949
84	0x3dc53dcc	0.096309274
85	0x3e13e314	0.14442092
86	0xbd62bae1	-0.055354003
87	0xbe0a4e3e	-0.1350641
88	0xbc477eb9	-0.012176209
89	0xbdfc88c0	-0.123307705
90	0xbe183d93	-0.14867239
91	0xbc0716d2	-0.008245187
92	0xbe471502	-0.19441608
93	0xbd92f63a	-0.0717587
94	0xbd9a313d	-0.07528923
95	0xbb8377de	-0.004012092
96	0xbde4f937	-0.111803465
97	0x3e1c9f6d	0.15295191
98	0xbe6a415f	-0.228765
99	0xbe0f9f12	-0.14025524
100	0xbe4a94c6	-0.19783315
101	0xbddbe37d	-0.10736749
102	0xbe05a7b4	-0.13052255
103	0xbda1b109	-0.07895095
104	0xbe328a46	-0.1743556
105	0xbcd20a54	-0.02563969
106	0x3d8b8c22	0.068138376
107	0xbe348d28	-0.17631972
108	0x3dd68e41	0.104763515
109	0xbe06cf34	-0.13164979
110	0xbe12fd29	-0.14354385
111	0xbdeac398	-0.11463088
112	0x3d9fa3cd	0.077949144
113	0x3d527847	0.051384237
114	0xbe0d60c8	-0.1380645
115	0x3d9caf93	0.076506756
116	0x3e2537a4	0.16134506
117	0xbe26e024	-0.1629644
118	0xbd1f228f	-0.038851317
119	0x3e5b508d	0.21417446
120	0x3e396d17	0.1810802
121	0xbd879957	-0.06621044
122	0x3c631640	0.013860285
123	0x3e5d74ab	0.21626537
124	0x3d8a4d5d	0.06753037
125	0xbca030e4	-0.019554563
126	0x3e067375	0.13129981
127	0x3d055b08	0.032557517
128	0x3d2ad8d6	0.041710697
129	0x3de0650a	0.10956772
130	0xbd2090a4	-0.03920044
131	0xbe36d780	-0.17855644
132	0x3e0c3adc	0.13694328
133	0x3d8571de	0.06515859
134	0x3d0fd406	0.03511431
135	0x3dadefa5	0.08492974
136	0xbe12b177	-0.1432551
137	0x3e578b6c	0.21049279
138	0xbe485976	-0.19565377
139	0x3e6847f4	0.22683698
140	0xbd824215	-0.063602604
141	0xbe01f45d	-0.12690873
142	0xbd7f74d7	-0.062367287
143	0xbe29eb6a	-0.1659371
144	0xbd9ce747	-0.076613
145	0x3c6d26ed	0.014474613
146	0x3dd7dbaf	0.10539948
147	0x3d7296a9	0.059225712
148	0x3d3b24f9	0.045689557
149	0xbe48e8e5	-0.19620092
150	0x3e08b6e1	0.13351013
151	0xbd8f8d9e	-0.07009433
152	0xbda0b094	-0.078461796
153	0x3c721fb8	0.01477807
154	0xbe4c064f	-0.19924282
155	0x3d261b8a	0.040553607
156	0xbd406535	-0.04697152
157	0xbe26f82a	-0.16305605
158	0xbe319f8c	-0.17346019
159	0x3c60552d	0.0136921825
160	0xbd82a29e	-0.06378673
161	0xbe10b970	-0.14133239
162	0x3e202f8d	0.15643139
163	0x3e31e09b	0.17370836
164	0xbdb7fd79	-0.08983893
165	0xbd4eabc8	-0.050456792
166	0xbe31aea4	-0.17351776
167	0x3c9b8df0	0.01898858
168	0x3d965ec7	0.07342296
169	0xbd1a19e9	-0.037622366
170	0x3dc08ae1	0.09401489
171	0xbda9871f	-0.082777254
172	0x3ccf013e	0.025269147
173	0xbc918624	-0.017764159
174	0xbe6bb577	-0.23018442
175	0xbe228ba2	-0.15873578
176	0xbe075a91	-0.13218142
177	0x3d006e22	0.03135503
178	0xbe453a02	-0.1926041
179	0xbe437950	-0.19089246
180	0x3e5b1d01	0.21397783
181	0x3e01565c	0.126306
182	0xbdac02e8	-0.08398992
183	0xbd01e187	-0.03170922
184	0x3a9b1f51	0.0011834895
185	0x3b958a8c	0.004563635
186	0xbd49fba2	-0.04931224
187	0xbd0cb776	-0.03435465
188	0x3e5ee490	0.21766877
189	0xbce6426a	-0.02810784
190	0x3d52ba85	0.05144741
191	0x3e15a626	0.14614162
192	0xbc5247b1	-0.012834475
193	0xbc7838f4	-0.015150297
194	0x3d167cce	0.036740117
195	0x3dbbf681	0.09177876
196	0xbe5faaf4	-0.21842557
197	0xbbd91d29	-0.0066257906
198	0x3dcbe928	0.099565804
199	0x3c1b721c	0.009487655
200	0x3e5e49bd	0.21707816
201	0xbe26bed9	-0.1628374
202	0x3b951ba0	0.0045504123
203	0xbe372913	-0.17886762
204	0x3da3ef1b	0.0800459
205	0xbe3a1fe6	-0.18176231
206	0xbbb78cec	-0.005601516
207	0xbe2a9c24	-0.16661125
208	0xbd9009f8	-0.070331514
209	0xbe5ff015	-0.21868928
210	0xbdd07d86	-0.10180192
211	0x3df10062	0.11767651
212	0x3da72284	0.0816088
213	0x3db797db	0.08964511
214	0xbe180624	-0.14846092
215	0x3e52f52b	0.20601337
216	0x3d8f9c35	0.07012216
217	0x3c4b1832	0.012395905
218	0x3ccf9b2d	0.025342548
219	0xbdf385d5	-0.11890761
220	0xbd171e4f	-0.03689414
221	0xbe21f4d9	-0.15816058
222	0xbd5aaa9c	-0.053385362
223	0xbdd8cf8e	-0.10586463
224	0xbe0b6ff9	-0.13616933
225	0xbb2a3e5d	-0.0025977113
226	0xbdb22ed3	-0.08700337
227	0xbd99043f	-0.07471513
228	0xbd7e1935	-0.062035758
229	0x3e0a6e7d	0.1351871
230	0x3d80d6c0	0.0629096
231	0x3d3ea1f6	0.046541177
232	0x3dece917	0.11567896
233	0x3b6c08f1	0.0036016072
234	0xbdee2594	-0.11628261
235	0x3e40ad27	0.18816052
236	0xbd19073a	-0.037360407
237	0x3d5842c6	0.052798055
238	0xbd9220f1	-0.07135189
239	0x3e0f558e	0.1399748
240	0xbe280c3d	-0.16410919
241	0x3ddac3c6	0.10681872
242	0xbe2109fe	-0.15726468
243	0x3dca29dc	0.09871265
244	0x3de476a9	0.11155445
245	0x3d04ba14	0.03240402
246	0x3e47e0de	0.19519374
247	0xbe2faba5	-0.17155321
248	0x3e325fb0	0.17419314
249	0x3d50e7cd	0.051002312
250	0x3e35592f	0.17709802
251	0x3e4a95e0	0.19783735
252	0x3da229d4	0.07918134
253	0xbe08bfad	-0.13354369
254	0xbce1ba0c	-0.027554534
255	0xbe48c4a2	-0.1960626

103 f4 [1, 512]
0	0x3b8f4ce9	0.004373182
1	0x3ce77fc1	0.02825916
2	0xbba5991e	-0.0050536534
3	0x3d0373ee	0.03209298
4	0x3c70b232	0.014690923
5	0xbb0e243c	-0.0021689078
6	0x3c7ab87d	0.0153027745
7	0x3da4e6d6	0.08051841
8	0xbce1d432	-0.027567003
9	0x3c96c795	0.018405715
10	0xbc800cfb	-0.01563119
11	0x3cddd456	0.027078789
12	0x3e062676	0.13100609
13	0x3ba9ac19	0.0051779863
14	0x3c2173d4	0.009854276
15	0x3cc576ff	0.024104593
16	0xbc1bfc8f	-0.009520664
17	0x3d0752a0	0.03303778
18	0x3bcc2593	0.006230065
19	0x3df7a37a	0.120917276
20	0xbd8f9f88	-0.0701285
21	0x3c828ac2	0.015935306
22	0x3c51c346	0.0128029045
23	0x3e05564a	0.13021198
24	0x3c1de285	0.009636526
25	0x3c79906b	0.015232186
26	0x3d01ab9e	0.031657808
27	0xbc6e862b	-0.014558355
28	0x3d6d0d9b	0.057874303
29	0xbb72f41b	-0.0037071768
30	0x3c862433	0.016374683
31	0x39760b3d	0.00023464575
32	0x3cc4d334	0.02402649
33	0x3d9de786	0.07710175
34	0x3ce9d9fc	0.028546326
35	0x3caf007c	0.021362536
36	0x3c1d6cec	0.0096084885
37	0x3c032fd9	0.008007013
38	0x3c98b9f3	0.018643355
39	0x3be7ac89	0.0070701283
40	0xbd8471b2	-0.06466998
41	0x3d6b9ae8	0.057520777
42	0x3dd4816a	0.10376246
43	0xbb1c8907	-0.0023885386
44	0x3c964c48	0.01834692
45	0x3d4e8522	0.050419934
46	0x3ba10d9b	0.004914952
47	0x3d3de65a	0.04636226
48	0x3d0754ae	0.03303974
49	0x3c1b258e	0.009469403
50	0x3b7df046	0.003874795
51	0x3cc87e3c	0.024474256
52	0xbb794efa	-0.0038041458
53	0x3c294961	0.010332436
54	0x3c74423d	0.014908371
55	0x3d4cebf5	0.050029714
56	0x3c28e480	0.010308385
57	0x3ccc50e2	0.024940912
58	0xbc785f56	-0.015159449
59	0xbc0effad	-0.00872795
60	0x3d0aa6eb	0.03385059
61	0x3d11c7c0	0.035590887
62	0x3cbee1f2	0.023301098
63	0xbb9a498e	-0.0047084754
64	0xbc8239f1	-0.01589677
65	0x3d7d7288	0.061876804
66	0x3d5c2d8c	0.053754374
67	0x3d6d9b18	0.058009237
68	0x3beae137	0.007167961
69	0xbd592f74	-0.05302377
70	0xbc8f6663	-0.017504876
71	0x3d82fa00	0.0639534
72	0x3cb45688	0.022013918
73	0x3d0eb560	0.03484094
74	0xbc648f3a	-0.0139501635
75	0xbd30db4c	-0.043177888
76	0x3e060ebc	0.13091558
77	0x3d90b187	0.07065111
78	0xbc83ea5c	-0.016102962
79	0x3c954f5b	0.018226316
80	0xbd381486	-0.044941448
81	0x3d6977d5	0.056999046
82	0x3c8cca37	0.017186267
83	0x3dcc5c49	0.099785395
84	0x3de2749d	0.110573985
85	0xbbe54be6	-0.006997573
86	0xbcc35d77	-0.023848278
87	0x3e0a87c6	0.13528356
88	0xbca21819	-0.019786881
89	0x3d08fb99	0.033443067
90	0x3d375ce0	0.044766307
91	0x3d780a5d	0.06055676
92	0x3d1fc9f2	0.03901095
93	0x3b07c22a	0.0020715096
94	0xbc2af93c	-0.010435399
95	0x3d01dd31	0.031705085
96	0x3d30e925	0.043191094
97	0x3d147bb5	0.03625079
98	0xbd549218	-0.05189714
99	0x3db0fa4e	0.08641492
100	0xbc6f6c3a	-0.014613206
101	0x3cd8dfeb	0.02647396
102	0x3d6bc161	0.057557467
103	0x3d57b76b	0.052665155
104	0x3d784128	0.060609013
105	0x3d410379	0.047122452
106	0x3dbe6bea	0.09297927
107	0x3d108f26	0.035292767
108	0x3da612e1	0.081090696
109	0x3c9807a7	0.018558336
110	0x3cd39515	0.025827924
111	0x3d48bb0d	0.04900651
112	0x3be75964	0.0070602167
113	0xbcb6b44a	-0.022302765
114	0x3d18bb3c	0.037287936
115	0xbccef002	-0.025260929
116	0xbd4c7036	-0.0499117
117	0x3ce3ed4a	0.02782311
118	0x3d4350cf	0.047684487
119	0x3d3a1201	0.045427326
120	0x3d02b4e9	0.03191081
121	0x3bbd387f	0.005774557
122	0x3d27beb1	0.040953342
123	0xbc9dc1a7	-0.01925738
124	0x3d6abde7	0.05731001
125	0xbd38c4b4	-0.045109466
126	0xbc49cf8f	-0.012317552
127	0x3d74a8f5	0.059731442
128	0x3f7d737d	0.99004346
129	0x3f800f3a	1.0004647
130	0x3f84d3f5	1.0377184
131	0x3f83bbac	1.0291648
132	0x3f7ce4f0	0.9878683
133	0x3f7d2cad	0.98896295
134	0x3f808f18	1.0043669
135	0x3f75a651	0.95956904
136	0x3f8009f4	1.0003037
137	0x3f864a6a	1.0491459
138	0x3f7d40fb	0.9892728
139	0x3f7d095a	0.98842394
140	0x3f639d54	0.8891194
141	0x3f8040b7	1.0019749
142	0x3f7e8481	0.99420935
143	0x3f800bc1	1.0003587
144	0x3f82d4f9	1.0221244
145	0x3f835583	1.0260471
146	0x3f82fdb7	1.0233678
147	0x3f75dab6	0.9603685
148	0x3f80f19e	1.0073736
149	0x3f82d65a	1.0221665
150	0x3f81ba49	1.0134975
151	0x3f6eb690	0.9324732
152	0x3f81b255	1.0132548
153	0x3f7ac8d8	0.97962713
154	0x3f87a939	1.0598518
155	0x3f77625a	0.9663445
156	0x3f7d8974	0.9903786
157	0x3f815e58	1.0106916
158	0x3f8119c7	1.0085992
159	0x3f807c58	1.0037947
160	0x3f80159a	1.0006592
161	0x3f7c40e0	0.9853649
162	0x3f7ed72d	0.9954708
163	0x3f7e3338	0.99296904
164	0x3f80f7e6	1.0075653
165	0x3f80c8a6	1.0061233
166	0x3f85e5b2	1.0460722
167	0x3f83fd40	1.0311661
168	0x3f7dee1c	0.9919145
169	0x3f7171e3	0.943144
170	0x3f6a183d	0.91443235
171	0x3f7f5dc8	0.99752474
172	0x3f835740	1.0261002
173	0x3f7486af	0.9551801
174	0x3f833969	1.0251895
175	0x3f7b528d	0.9817284
176	0x3f809f03	1.0048527
177	0x3f807cf1	1.0038129
178	0x3f82d129	1.0220081
179	0x3f7e51c0	0.9934349
180	0x3f7dc2fa	0.99125636
181	0x3f7c67e0	0.98596
182	0x3f82a924	1.0207868
183	0x3f7ad367	0.97978824
184	0x3f808f8d	1.0043808
185	0x3f8171ab	1.0112814
186	0x3f8101c5	1.0078665
187	0x3f80a002	1.004883
188	0x3f833970	1.0251904
189	0x3f7df5c0	0.9920311
190	0x3f779370	0.96709347
191	0x3f83a73c	1.0285411
192	0xbc305719	-0.010762953
193	0xbcdd041f	-0.026979504
194	0xbcae2ef0	-0.021262616
195	0x3d6a374a	0.057181634
196	0xbc32e405	-0.010918622
197	0x3c5f8d47	0.013644523
198	0xbc06d3e7	-0.008229232
199	0xbd0d324c	-0.034471795
200	0x3c94866f	0.01813051
201	0x3d1132c9	0.035448823
202	0xbcaf7d16	-0.02142195
203	0xba980ee8	-0.0011601122
204	0x3ca970ab	0.020683607
205	0x3c030af3	0.007998216
206	0x3b7ea628	0.003885636
207	0x3a6ac956	0.0008956393
208	0xbc90ddf0	-0.017683953
209	0x3cf99b28	0.030469492
210	0xbba62cbb	-0.0050712503
211	0x3c2c481d	0.01051524
212	0xba99edc6	-0.0011743836
213	0x3c861cef	0.016371218
214	0x3be613ee	0.007021419
215	0xbcc83244	-0.024438031
216	0x3b6d0797	0.0036167854
217	0xbbd548a4	-0.0065089036
218	0x3cb7105d	0.02234667
219	0x3c989e9d	0.01863032
220	0x3c758327	0.014984882
221	0x3cc18b17	0.023625894
222	0xbbf8402d	-0.0075760097
223	0xbcd7e4ee	-0.02635428
224	0xbb274d4e	-0.0025528255
225	0x3bbbef1e	0.005735292
226	0x3bfe8c2e	0.0077681756
227	0xbce562a6	-0.02800114
228	0x3b83ab38	0.0040182136
229	0xbcb96ccf	-0.022634892
230	0x3ba60c77	0.005067404
231	0x3beb2a9b	0.00717671
232	0x3ae59dd6	0.0017518352
233	0xbc714f28	-0.014728345
234	0xbd239fc9	-0.039947305
235	0xbc424c7f	-0.011859058
236	0xbd0d497d	-0.034493912
237	0xbd0b3b83	-0.0339923
238	0xbc51e410	-0.012810722
239	0x3bd466c4	0.006481977
240	0x3c022499	0.007943296
241	0x3aa73cf2	0.0012759252
242	0xbcafbd5b	-0.021452596
243	0x3c329778	0.010900371
244	0x3c77394e	0.015089346
245	0xbab33b9a	-0.0013674379
246	0x3d1134a5	0.035450596
247	0x3ba59df7	0.0050542313
248	0xbc55136f	-0.013005122
249	0x3ca66896	0.020313542
250	0x3d29ca3d	0.041452635
251	0x3c95f1da	0.0183038
252	0x3d08e0c9	0.033417497
253	0xbbe554c3	-0.00699863
254	0xbcc1833a	-0.023622144
255	0xbc2731fc	-0.010204788

action_model._continuous_distribution.log_sigma f4 [1, 2]
0	0xbe23e5c0	-0.16005611
1	0xba53e921	-0.000808375

action_model._continuous_distribution.mu.bias f4 [2]
0	0x3d03aadd	0.03214537
1	0x3c4db07c	0.012554284

action_model._continuous_distribution.mu.weight f4 [2, 64]
0	0xbbd3d1f5	-0.006464238
1	0xbe44d362	-0.19221261
2	0x3cfbd20a	0.030739803
3	0x3e4be12c	0.19910115
4	0x3bfbd633	0.0076854466
5	0xbe06ce7e	-0.13164708
6	0xbc90fa08	-0.01769735
7	0xbdf7d0cb	-0.12100371
8	0x3d8a5d15	0.06756035
9	0x3e2db2ca	0.16962734
10	0xbd228990	-0.03968197
11	0x3dd9aa40	0.10628176
12	0x3e739792	0.23788288
13	0x3e2cac6a	0.16862646
14	0x3d9acda1	0.07558752
15	0xbd8a2845	-0.06745962
16	0x3d877061	0.066132315
17	0x3e11b3a9	0.14228691
18	0xbbe0cda1	-0.0068604504
19	0x3e3757dc	0.1790461
20	0xbe7d947b	-0.24763672
21	0xbd89618a	-0.06708057
22	0x3d1b4adc	0.03791319
23	0xbe736549	-0.23769106
24	0xbdb79ae2	-0.089650884
25	0x3c2b0928	0.010439195
26	0x3e0dde71	0.13854386
27	0x3e2ee5f9	0.17079915
28	0x3d3c9fcb	0.046050828
29	0xbcd69427	-0.026193691
30	0xbd8c9598	-0.0686447
31	0xbccc8f94	-0.024970807
32	0x3b86ac8b	0.004109924
33	0x3db3e8c8	0.08784634
34	0x3dc8bbe3	0.098014615
35	0xbd9319cd	-0.071826555
36	0x3d844464	0.06458357
37	0xbd91e6bd	-0.07124088
38	0xbc45fef7	-0.012084714
39	0x3d126e6f	0.03574985
40	0x3e4475ef	0.19185613
41	0xbd823f98	-0.06359786
42	0xbe39aefa	-0.18133155
43	0x3dd05d37	0.10174029
44	0xbe42b20b	-0.1901323
45	0xbdba4f56	-0.090971634
46	0xbdf38deb	-0.11892303
47	0x3c745f48	0.014915295
48	0x3e091442	0.13386634
49	0x3d0f0d5e	0.034924857
50	0x3bc08741	0.0058754985
51	0x3df0adf4	0.11751929
52	0x3dc992eb	0.098424755
53	0x3d8ca89a	0.06868096
54	0x3d725c71	0.05917019
55	0xbd84cfcc	-0.064849466
56	0xbe08a5ba	-0.1334447
57	0x3cf6d9b7	0.030133111
58	0x3da527d5	0.08064238
59	0xbd2168b9	-0.039406512
60	0x3e154190	0.14575791
61	0xbe000d0d	-0.12504978
62	0x3d7ff380	0.06248808
63	0xbe01ac97	-0.12663494
64	0x3d575b5a	0.052577354
65	0x3d01a167	0.031648066
66	0x3d069c39	0.03286383
67	0xbb83fd74	-0.0040280167
68	0x3dd4eb7d	0.10396478
69	0x3bce84fd	0.0063024745
70	0x3ce3783f	0.027767299
71	0x3d1c283f	0.03812432
72	0x3ccc3d3e	0.024931546
73	0x3b16f293	0.002303277
74	0x3dbd742f	0.09250676
75	0xbcfdfb51	-0.031003626
76	0x3d888927	0.06666785
77	0xbd775003	-0.06037904
78	0x3bb44021	0.005500809
79	0x3da7758e	0.08176719
80	0x3b987db9	0.004653659
81	0x3d2b5cb3	0.04183645
82	0x3dd1aa65	0.10237578
83	0xbda6ba66	-0.081410214
84	0xbcc5da0e	-0.024151828
85	0xbbe5ba8f	-0.007010765
86	0xbc96839b	-0.018373301
87	0xbc8f8a79	-0.017522084
88	0x3d58b529	0.052907143
89	0x3da55ca1	0.08074308
90	0x3c9c123f	0.01905167
91	0x3d253f56	0.040343605
92	0xbd87d2ea	-0.066320255
93	0xbd2a5e1d	-0.04159366
94	0x3d51db58	0.051234573
95	0x3d84b917	0.064806156
96	0x3d26d3ac	0.04072921
97	0x3dc0aac8	0.09407574
98	0x3aceed7f	0.0015787332
99	0x3dcc7fd3	0.09985318
100	0xbd062d16	-0.03275784
101	0x3cd04880	0.025425196
102	0x3dd69eb1	0.10479487
103	0xbc519d90	-0.0127939135
104	0x3d066514	0.03281124
105	0xbd3006f7	-0.042975392
106	0x3ca35114	0.019936122
107	0x3ca8eb3b	0.02061998
108	0xbb9ff9d4	-0.0048820768
109	0x3d5454de	0.05183875
110	0x3a255cb7	0.0006308066
111	0xbd6a7e94	-0.05724962
112	0xbcc6fe25	-0.024291107
113	0xbcae8ecc	-0.021308325
114	0x3d07b0b8	0.033127517
115	0xbd5b608e	-0.05355888
116	0xbc67db10	-0.01415135
117	0x3ce77f66	0.02825899
118	0x3df01e54	0.11724535
119	0xbc86fb1f	-0.016477166
120	0xbd80dbb4	-0.06291905
121	0xbcd2c385	-0.025727997
122	0x3c8ab572	0.016932223
123	0xbbb9525d	-0.0056555704
124	0x3d776664	0.06040038
125	0x3c2f60d5	0.010704239
126	0x3d94ae49	0.07259805
127	0xbdcfa5ce	-0.101390466

network_body._body_endoder.seq_layers.0.bias f4 [128]
0	0x3bd6976a	0.0065488117
1	0xbca7807c	-0.020447008
2	0x3d5a7043	0.053329717
3	0xbc92c8bf	-0.017917989
4	0xbca5898e	-0.020207193
5	0x3d3e5d18	0.0464755
6	0x3c48387e	0.0122205
7	0x3d412b4e	0.04716044
8	0x3d43c976	0.04779955
9	0xbd1ccc80	-0.038280964
10	0xbcc947d6	-0.024570387
11	0xbccb0544	-0.024782784
12	0x3c00eddd	0.007869211
13	0xbcd8f59e	-0.026484307
14	0x3c7c06af	0.015382453
15	0xbcc058ea	-0.023479898
16	0x3d42fd00	0.04760456
17	0xbd55b270	-0.052172124
18	0xbd2cce71	-0.042189065
19	0xbd14d67b	-0.036337357
20	0x3db0e1f2	0.08636846
21	0xbcfb0240	-0.030640721
22	0xbba23b0e	-0.0049508875
23	0xbd2fd954	-0.04293187
24	0xbd2f42ae	-0.0427882
25	0x3d21a94c	0.039468095
26	0x3d649f33	0.055815887
27	0x3d341028	0.04396072
28	0xbcdf5394	-0.027261533
29	0xbd61cc47	-0.055126455
30	0x3cc378a3	0.023861235
31	0xbd86cda1	-0.06582189
32	0x3b52fd3a	0.0032194392
33	0x3d6d99df	0.05800807
34	0xbc4c6a57	-0.012476525
35	0x3d6fbc42	0.058529146
36	0x3b39a7cd	0.0028328777
37	0xbc9595c2	-0.018259887
38	0x3b5e5cfd	0.0033929937
39	0x3df95179	0.12173743
40	0x3db01531	0.08597792
41	0xbd563fab	-0.052306812
42	0xbd00f10f	-0.03147989
43	0x3c444c08	0.011981018
44	0xbd8aee52	-0.06783737
45	0x3d298c17	0.041393366
46	0xbd2effc9	-0.042724404
47	0x3db5758f	0.08860313
48	0xbd80462f	-0.062633865
49	0xbc9d5f22	-0.019210402
50	0xbce7d0f4	-0.028297879
51	0xbcdec673	-0.027194237
52	0xbcbac55a	-0.022799183
53	0xbd126384	-0.035739437
54	0xbcb7fe2e	-0.02246007
55	0x3dcf11bd	0.10110805
56	0x3da0fff7	0.078613214
57	0x3d17692d	0.036965538
58	0xbd907c12	-0.070549145
59	0x3bf646ec	0.0075157788
60	0xbd365a2e	-0.044519596
61	0xbd09e144	-0.033662096
62	0x3dd191ba	0.10232873
63	0x3da3abc6	0.079917476
64	0x3c4271d5	0.01186796
65	0x3cbb6f91	0.022880347
66	0xbbc1f067	-0.005918551
67	0xbc9f4065	-0.019439885
68	0x3d9f702f	0.07785069
69	0xbcc76293	-0.024338996
70	0xbcbecb33	-0.023290252
71	0xbd84005f	-0.06445383
72	0xbcedc9cf	-0.029026894
73	0x3dacbe93	0.08434787
74	0xbd937ff3	-0.07202139
75	0x3d582965	0.052773852
76	0x3d5bc3ab	0.0536534
77	0x3bd4d20d	0.0064947666
78	0x3d3a6e99	0.04551563
79	0x3d3b0008	0.045654327
80	0x3dad7a8a	0.08470638
81	0xbd293682	-0.04131175
82	0xbbf4d935	-0.007472182
83	0x3d5d6116	0.054047666
84	0xbc974c82	-0.018469099
85	0xbb91975a	-0.0044430913
86	0x3d42d284	0.047564045
87	0x3d41896e	0.047250204
88	0x3dc069e2	0.093951955
89	0xbd1ef9c7	-0.038812425
90	0xbc08e4cb	-0.00835533
91	0xbcecc485	-0.028902302
92	0x3d69f1c1	0.05711532
93	0xbcef85c9	-0.029238598
94	0xbd5de430	-0.054172695
95	0xbc293616	-0.0103278365
96	0xbcfdf0f8	-0.030998692
97	0xbb9a4d4c	-0.0047089215
98	0x3d0de4dd	0.03464209
99	0xbd2af26e	-0.041735105
100	0xbd95038d	-0.07276068
101	0xbdafed20	-0.0859015
102	0x3dcb2a9f	0.09920239
103	0xbc84117c	-0.016121618
104	0xbac9bcc5	-0.0015391341
105	0xbd330db2	-0.043714233
106	0xbd042a6c	-0.03226702
107	0xbd1ef32d	-0.03880613
108	0x3dc8cb48	0.09804398
109	0x3c73907e	0.014865993
110	0x3de9a3d4	0.11408201
111	0xbd29f722	-0.04149545
112	0xbcfc6bd2	-0.030813131
113	0xbd927308	-0.07150847
114	0x3d32524e	0.043535523
115	0xbd52d107	-0.051468875
116	0x3da0a5c9	0.07844121
117	0xbd547350	-0.051867783
118	0xbd33d318	-0.043902487
119	0x3d8d48d1	0.06898654
120	0x3cd68f46	0.026191365
121	0x3d81d2f2	0.06339063
122	0x3dcf0e16	0.101101086
123	0x3d97e377	0.07416432
124	0x3d8e7fa8	0.06957942
125	0x3d25d857	0.04048952
126	0xbd85cf1b	-0.06533643
127	0xbd297b31	-0.04137725

network_body._body_endoder.seq_layers.0.weight f4 [128, 18]
0	0x3f0b59c4	0.54433846
1	0x3ed70a56	0.42000073
2	0x3d08095f	0.033212062
3	0xbc737880	-0.014860272
4	0xbd4a7c81	-0.049435142
5	0xbf071664	-0.5276854
6	0xbe17c368	-0.14820635
7	0x3dabe452	0.08393158
8	0x3e1350c2	0.14386275
9	0xbdd8d75c	-0.105879515
10	0xbdf6b692	-0.12046541
11	0xbcf27d54	-0.029600777
12	0xbdf43910	-0.11924946
13	0xbcefb794	-0.029262342
14	0xbec01689	-0.37517193
15	0x3dad430e	0.08460055
16	0xbde26359	-0.11054105
17	0x3e903330	0.28164053
18	0xbe914b4d	-0.28377762
19	0x3e136a68	0.1439606
20	0x3e1a348f	0.15059112
21	0xbdbf470d	-0.09339724
22	0xbec389f6	-0.38191193
23	0xbec09819	-0.3761604
24	0xbd04d6ba	-0.03243134
25	0xbe184f1c	-0.14873928
26	0x3e901a9f	0.2814531
27	0xbd6ad48f	-0.057331618
28	0xbd37172d	-0.044699837
29	0x3ec2b13b	0.3802584
30	0x3edce9e3	0.4314719
31	0xbb9d39b0	-0.0047981367
32	0x3d1317d0	0.03591138
33	0xbd3aba1d	-0.045587648
34	0x3e5e3b2c	0.2170226
35	0xbd33509e	-0.043778054
36	0x3dc0623b	0.09393736
37	0xbe951940	-0.29120827
38	0x3e11c2a4	0.14234406
39	0xbe198545	-0.14992245
40	0xbf07fe24	-0.5312216
41	0xbe3a9e0c	-0.18224353
42	0xbe035da7	-0.12828694
43	0x3e5ef10b	0.21771638
44	0x3e372c5b	0.17888014
45	0x3dd0ad80	0.101893425
46	0xbedc1ccf	-0.4299073
47	0xbd2dedef	-0.04246324
48	0x3ea2379a	0.31683046
49	0xbd6a0aed	-0.057139326
50	0x3e5acc60	0.21367025
51	0xbf1fd9cc	-0.62441707
52	0x3e84518b	0.25843462
53	0x3d57dd8a	0.05270151
54	0x3e42d108	0.19025052
55	0x3eca7a35	0.39546362
56	0xbdb8c236	-0.09021418
57	0xbddf0e85	-0.10891441
58	0xbe6e4380	-0.23267937
59	0xbe0a10bf	-0.1348295
60	0xbec29aef	-0.3800883
61	0xbd960d8e	-0.07326804
62	0xbe17231a	-0.14759484
63	0x3e32313b	0.17401592
64	0xbef05f24	-0.46947587
65	0x3e86d88e	0.26337093
66	0xbef810cb	-0.48450312
67	0x3e430fed	0.19049044
68	0x3e98c436	0.29837197
69	0x3f042587	0.5161976
70	0x3d9215df	0.07133078
71	0xbd8148aa	-0.06312688
72	0xbd494af0	-0.04914373
73	0xbcde2d64	-0.027121253
74	0x3e5017ff	0.20321654
75	0x3d8152ba	0.06314607
76	0xbeb7b6fd	-0.35881796
77	0xbe383fa1	-0.17993023
78	0x3e0968d8	0.13418901
79	0xbe0718ad	-0.13193007
80	0xbe0f9b73	-0.14024143
81	0x3b0f6000	0.0021877289
82	0x3e776033	0.24157791
83	0xbe74f70c	-0.23922366
84	0x3e506b42	0.20353416
85	0xbe2cbd23	-0.16869025
86	0x3edc745a	0.4305752
87	0xbdcd7c66	-0.10033493
88	0x3c8f8f6e	0.017524447
89	0x3e7f5242	0.24933723
90	0x3bb4f69b	0.0055225617
91	0xbe6b6e76	-0.22991356
92	0xbc9f1ee8	-0.019423917
93	0x3e53ad1b	0.20671503
94	0x3c9b3d1d	0.01895004
95	0x3d2ba8c6	0.041909
96	0x3bfde5eb	0.0077483556
97	0xbd73e750	-0.05954677
98	0xbdb0f850	-0.08641112
99	0xbe812de9	-0.2523034
100	0x3df9924d	0.12186108
101	0x3daa8bb3	0.08327427
102	0x3da58446	0.0808187
103	0xbe2b71eb	-0.16742675
104	0xbd9b0847	-0.07569938
105	0xbb80b48b	-0.0039277724
106	0x3ce83980	0.02834773
107	0xbe7ee818	-0.24893224
108	0x3ec7e2b0	0.39040136
109	0x3ea14ba2	0.31503016
110	0xbd440538	-0.04785654
111	0xbf1feeaf	-0.6247358
112	0x3cab54c7	0.020914448
113	0xbd861d95	-0.06548611
114	0xbd16a922	-0.03678239
115	0xbe43e4af	-0.19130205
116	0x3e38ea5d	0.18058152
117	0x3e5a7521	0.21333744
118	0xbe36d546	-0.17854795
119	0x3e1933b9	0.14961137
120	0x3d1212eb	0.035662573
121	0x3d8ef98e	0.069811925
122	0xbe0d5073	-0.1380022
123	0xbf044e87	-0.51682323
124	0xbd997175	-0.07492343
125	0x3e7f4d6e	0.24931881
126	0xbeafb122	-0.3431483
127	0xbe4a7778	-0.19772136
128	0x3e9792ec	0.2960428
129	0x3dc67ded	0.09691987
130	0xbe07a688	-0.1324712
131	0xbcf66770	-0.03007862
132	0xbef0350f	-0.4691548
133	0x3d542626	0.051794194
134	0xbe86a216	-0.26295537
135	0xbe8f9d99	-0.28049925
136	0xbec5ee61	-0.3865843
137	0x3bbcda7b	0.0057633496
138	0x3e467e76	0.19384179
139	0x3eb23d48	0.3481238
140	0xbe6acd87	-0.22929965
141	0xbe5878ee	-0.21139881
142	0xbe01617e	-0.12634847
143	0xbe07657d	-0.13222308
144	0x3e4fc769	0.20290913
145	0xbd9d210d	-0.076723196
146	0xbe175818	-0.14779699
147	0xbe997b05	-0.2997667
148	0xbf1156e7	-0.5677323
149	0xbe89a4b9	-0.26883486
150	0xbe93242c	-0.28738534
151	0xbe5c8c69	-0.21537937
152	0xbee51976	-0.44745988
153	0xbde1fd11	-0.11034597
154	0xbe600fa5	-0.21880968
155	0x3e092a18	0.13394964
156	0x3dd52104	0.10406688
157	0xbdb56815	-0.08857743
158	0x3e93e2cc	0.2888397
159	0xbcc5a608	-0.024127021
160	0xbd91170d	-0.07084475
161	0x3e56cac9	0.20975794
162	0xbdee6b2e	-0.11641537
163	0x3d92c212	0.07165922
164	0x3daabdff	0.0833702
165	0x3e06e61f	0.13173722
166	0x3e760336	0.24024662
167	0x3db430db	0.08798381
168	0x3e937b37	0.28804943
169	0x3e52a40a	0.20570388
170	0x3b92dd70	0.004481964
171	0xbdcc7af8	-0.09984392
172	0xbeb214ed	-0.3478159
173	0xbe240219	-0.16016425
174	0xbd3a2a84	-0.045450702
175	0x3d16717c	0.03672932
176	0x3ebc8bc9	0.36825398
177	0x3e661d11	0.22472025
178	0x3e803d91	0.2504697
179	0xbc59bb6b	-0.013289313
180	0x3e526ee2	0.20550111
181	0x3e9ecdf9	0.3101652
182	0xbe4c5aaa	-0.1995646
183	0x3d8d6480	0.069039345
184	0x3ded5f76	0.11590473
185	0x3e44494d	0.19168587
186	0x3df9e4b0	0.12201822
187	0x3dca6550	0.09882605
188	0xbdf00918	-0.117204845
189	0xbe442947	-0.19156371
190	0xbd900e83	-0.07034018
191	0x3ed30330	0.4121337
192	0x3e9b5d3b	0.30344567
193	0x3e8b0a02	0.27156073
194	0x3eef3648	0.467211
195	0x3e709270	0.23493361
196	0x3e265007	0.16241466
197	0xbdf9456f	-0.121714465
198	0xbe7e47f4	-0.24832135
199	0xbe6325e8	-0.22182429
200	0x3ec5129c	0.3849076
201	0x3e138b9a	0.14408723
202	0xbea4693d	-0.3211154
203	0xbdf10b40	-0.11769724
204	0xbed41108	-0.41419244
205	0x3e84b5c2	0.2591992
206	0xbcd97745	-0.02654613
207	0xbcb59333	-0.022164917
208	0x3d70e10d	0.058808375
209	0x3e6a04e1	0.22853424
210	0x3ea43835	0.32074133
211	0x3e3903e7	0.18067895
212	0x3e29cae8	0.16581309
213	0xbdee19dd	-0.11626027
214	0x3df8be71	0.12145699
215	0xbd7cdb51	-0.061732594
216	0x3e93099c	0.2871827
217	0xbe153dcd	-0.14574356
218	0x3e9f8bb7	0.3116128
219	0xbe5843e5	-0.2111965
220	0xbe86b7b8	-0.2631204
221	0xbc2568da	-0.010095799
222	0xbdb744ed	-0.089486934
223	0x3b86ff48	0.0041197874
224	0xbdd138b2	-0.10215892
225	0xbe0c211c	-0.13684505
226	0xbed42d11	-0.41440633
227	0x3edb84d1	0.42874768
228	0xbd96ee4c	-0.0736967
229	0x3ed31adf	0.4123144
230	0x3dc8ccda	0.09804697
231	0x3e950c60	0.29111004
232	0xbc858177	-0.016297085
233	0x3e6e83b9	0.23292436
234	0x3dd2e187	0.10296922
235	0x3e72ec7a	0.23723021
236	0xbd9b7ffb	-0.0759277
237	0xbd879e17	-0.0662195
238	0x3eb33507	0.35001394
239	0x3e46b757	0.19405876
240	0x3d8898f1	0.06669796
241	0xbe1a2f57	-0.15057121
242	0x3cc96456	0.024583977
243	0x3c4a023c	0.012329634
244	0x3e98d0e1	0.29846862
245	0xbd819c25	-0.0632861
246	0x3e555032	0.20831373
247	0xbe47881c	-0.19485515
248	0xbde03763	-0.10948064
249	0x3f095f9a	0.536615
250	0xbd5e1d4b	-0.054227155
251	0xbe254e62	-0.16143182
252	0xbf1474d4	-0.57990766
253	0x3e9ce279	0.30641535
254	0xbf4321e6	-0.762236
255	0xbd8399a7	-0.06425791

network_body._body_endoder.seq_layers.2.bias f4 [128]
0	0xbb0827c5	-0.0020775658
1	0x3d60e0dd	0.054901946
2	0xbbaa5b33	-0.00519886
3	0x3d488567	0.048955347
4	0xbcdd7026	-0.027031016
5	0xbc7fe03f	-0.015617429
6	0xbd884815	-0.066543736
7	0xbca2a178	-0.019852385
8	0x3d8476f9	0.06468005
9	0xbc016003	-0.007896426
10	0xbc07acf4	-0.008280981
11	0x3a7faf00	0.0009753555
12	0xbcc53c97	-0.024076743
13	0x3d5df11c	0.054185018
14	0x3c519c26	0.012793576
15	0xbcd2d87b	-0.025737992
16	0x3d865f71	0.06561173
17	0xbd6f8385	-0.058475036
18	0x3da36c5b	0.079796515
19	0xbc5aa711	-0.013345496
20	0x3d30d3d1	0.043170754
21	0x3cb52a69	0.02211495
22	0x3db94c18	0.09047717
23	0x3d3114c4	0.043232694
24	0xbc87b66c	-0.016566478
25	0xbc4b6f96	-0.012416741
26	0xbc5df575	-0.013547291
27	0xbc4b8462	-0.012421699
28	0xbd51b0eb	-0.051194113
29	0x3ce34c03	0.027746206
30	0x3d98e663	0.07465818
31	0xbc82305c	-0.0158922
32	0xb96b826e	-0.00022459935
33	0xbcbffc42	-0.023435716
34	0xbc9b6460	-0.018968761
35	0xbca3f6d2	-0.020015154
36	0xbcc3977d	-0.023875946
37	0xbd54f64e	-0.051992707
38	0x3bb4eb8b	0.005521243
39	0x3d58168d	0.05275588
40	0x3d81351c	0.06308958
41	0xbcf940bd	-0.030426377
42	0xbcdbd688	-0.026835695
43	0xbcc9b257	-0.024621172
44	0x3dc56f1c	0.09640333
45	0xbcfbb2e3	-0.030724948
46	0x3d7dceae	0.061964683
47	0xbd1ba97d	-0.038003433
48	0xbc991eda	-0.018691469
49	0x3c47d194	0.012195963
50	0x3d71b1f0	0.059007585
51	0xbd139a13	-0.03603561
52	0x3aed0ab0	0.001808485
53	0x3d06699d	0.032815564
54	0xbcb1ab7d	-0.021688217
55	0xbcf6b2ff	-0.030114649
56	0xbb82a2c3	-0.003986688
57	0xbc12faeb	-0.008970956
58	0x3da6708c	0.08126935
59	0xbcd4001d	-0.02587896
60	0x3c3acf60	0.011401981
61	0x3d9dfc5c	0.07714149
62	0xbc41c07b	-0.011825676
63	0x3da2b2f7	0.07944291
64	0xbba1b8c3	-0.0049353554
65	0x3d8317b6	0.06401007
66	0xbd002627	-0.031286385
67	0x3d086ab4	0.033304885
68	0xbc2ce39f	-0.010552316
69	0x3d566ca8	0.052349716
70	0x3d415974	0.04720445
71	0xbcdce1da	-0.026963163
72	0x3d683b31	0.056697074
73	0x3d4ece41	0.050489668
74	0x3d804977	0.06264012
75	0xbc243d86	-0.010024434
76	0xbd0056fc	-0.031332955
77	0xbd2be85d	-0.041969646
78	0xbca887bb	-0.020572534
79	0x3ceb0c80	0.028692484
80	0xbc5284eb	-0.012849073
81	0xbd3e8fa0	-0.04652369
82	0x3da6d629	0.081463166
83	0x3d01024e	0.03149634
84	0xbd1d9650	-0.038473427
85	0x3d42d29f	0.047564145
86	0xbbbc8db9	-0.0057541993
87	0x3d9ebc11	0.077507146
88	0xbc90d69d	-0.01768046
89	0xb9c13ce4	-0.00036857196
90	0x3d6a660f	0.057226237
91	0xbd49d021	-0.049270753
92	0x3dbec3fb	0.09314724
93	0x3c4b14f9	0.012395137
94	0xbd044101	-0.032288555
95	0x3d3b76b5	0.045767505
96	0x3a7f6e18	0.0009743883
97	0xbd4bb135	-0.049729545
98	0xbd03a1f5	-0.032136876
99	0x3d0d2a74	0.034464315
100	0xbd09eb9a	-0.033671953
101	0x3d1849e8	0.037179857
102	0x3d7b8edc	0.06141554
103	0x3d5a37bc	0.05327581
104	0x3c2f4493	0.010697502
105	0x3d09d376	0.03364893
106	0xbd94d5e7	-0.07267361
107	0x3cf1bea1	0.029509844
108	0x3d9087ee	0.070571765
109	0x3cc2b5eb	0.023768386
110	0x39f5c78d	0.00046878718
111	0xbc3958c3	-0.011312666
112	0xbd3ff6db	-0.04686628
113	0xbcacff39	-0.021117793
114	0x3d9136c2	0.07090522
115	0xbcc1fcd9	-0.023680137
116	0x3cc58de7	0.024115516
117	0x3d201292	0.03908021
118	0x3dbc301f	0.09188866
119	0x3d83f968	0.06444055
120	0xbd0eb323	-0.034838807
121	0x3cac8b12	0.021062408
122	0x3cb8674e	0.022510197
123	0x3d63a2dc	0.055575237
124	0x3cb2dd28	0.021833971
125	0xbc3b4a7b	-0.011431332
126	0x3dbdfadc	0.09276363
127	0x3d9d166b	0.076702915

network_body._body_endoder.seq_layers.2.weight f4 [128, 128]
0	0xbd9dc48d	-0.07703505
1	0xbbff1c3a	-0.0077853473
2	0xbe27f742	-0.16402915
3	0x3d1e61bc	0.038667426
4	0x3c23b984	0.009992961
5	0xbb847b10	-0.0040429905
6	0xbd01932d	-0.0316345
7	0x3bfdc6e6	0.007744658
8	0xbdf241a4	-0.11828926
9	0xbba9121b	-0.005159629
10	0x3e2f678d	0.17129345
11	0xbca4c6b7	-0.020114286
12	0x3ddb6e83	0.10714438
13	0xbb9b216e	-0.0047342097
14	0x3db6dc5d	0.0892875
15	0x3dbfc854	0.093643814
16	0xbde3d8ef	-0.11125361
17	0x3bc37127	0.0059644165
18	0xbd8f17e6	-0.0698698
19	0xbdc3938d	-0.095496275
20	0xbe5a295b	-0.21304838
21	0x3d835a19	0.06413669
22	0xbd3778e5	-0.04479303
23	0x3d77bbf0	0.060481966
24	0x3ded16f8	0.115766466
25	0xbdc33f5b	-0.095335685
26	0x3d96edd2	0.073695794
27	0xbd695c02	-0.05697251
28	0x3e088ba4	0.13334519
29	0x3ceb3fdd	0.028716976
30	0x3addf119	0.0016932815
31	0x3d0c885b	0.034309726
32	0xbdfdf774	-0.124007136
33	0xbd878912	-0.06617941
34	0xbda0b0cd	-0.07846222
35	0xbdb7f260	-0.08981776
36	0x3daacf00	0.08340263
37	0x3dbbee43	0.09176304
38	0x3dd0c8c8	0.10194546
39	0xbc876237	-0.016526325
40	0xbdef1e7d	-0.11675737
41	0x3da3a388	0.079901755
42	0x3e4a1fc8	0.19738686
43	0xbd32bdc5	-0.04363801
44	0x3ca069df	0.019581733
45	0xbdad8697	-0.084729366
46	0xbc36040c	-0.011109363
47	0xbe04eaef	-0.12980245
48	0x3caafab0	0.02087149
49	0xbcb4f009	-0.022087114
50	0x3d6a31c6	0.057176374
51	0xbd224165	-0.039613146
52	0x3d91f7bd	0.071273305
53	0x3dfe3896	0.12413137
54	0x3e0f5810	0.13998437
55	0xbe1af855	-0.15133794
56	0xbd6c8e26	-0.05775275
57	0x3dfeb08c	0.124360174
58	0x3cff7815	0.03118519
59	0x3d251a5d	0.040308345
60	0xbae8e0d6	-0.0017767202
61	0x3d1951b7	0.037431445
62	0xbd2052c8	-0.039141446
63	0xbe6ff72d	-0.23434134
64	0xbe102bba	-0.1407918
65	0x3c6a34cf	0.014294817
66	0xbdcf361f	-0.10117745
67	0xbdd7b8e7	-0.10533314
68	0xbcdeff80	-0.027221441
69	0x3d289a12	0.041162558
70	0xbd17e93f	-0.037087675
71	0x3d8fd9b9	0.07023949
72	0x3d1dd572	0.038533635
73	0x3c058f09	0.008151778
74	0x3d9c6277	0.07635968
75	0xbc306e50	-0.010768488
76	0xbcbcd4e2	-0.02305073
77	0x3e726a92	0.23673466
78	0x3d83dc04	0.06438449
79	0xbde51ba3	-0.11186912
80	0xbda6d65e	-0.08146356
81	0xbd898df8	-0.067165315
82	0x3d2824c1	0.041050676
83	0xbcdd6c53	-0.027029192
84	0xbdf511a9	-0.11966259
85	0x3dec92ae	0.115514144
86	0x3debd941	0.11516047
87	0x3ca04d44	0.019568093
88	0x3ddb63ea	0.107124165
89	0x3e3ab967	0.18234788
90	0xbc861f01	-0.016372206
91	0x3e062636	0.13100514
92	0x3e0c4d74	0.13701421
93	0xbe2db64a	-0.16964069
94	0xbdebedb7	-0.1151995
95	0xbdb3d583	-0.087809585
96	0xbd3ebb3a	-0.046565272
97	0x3d713a05	0.058893222
98	0xbd021153	-0.031754803
99	0x3d8434b8	0.06455368
100	0xbda8a880	-0.08235264
101	0x3da9ce6c	0.08291325
102	0xbd47c477	-0.048771348
103	0x3ca7f79e	0.020503815
104	0x3c7635a9	0.015027442
105	0x3cef781f	0.029232083
106	0xbd1929d0	-0.03739339
107	0x3deb3c27	0.114860825
108	0xbe17dfd2	-0.14831474
109	0x3d8062c4	0.06268838
110	0xbe2ae1db	-0.1668772
111	0x3e062f4f	0.13103984
112	0xbbc17850	-0.005904235
113	0xbdc3812b	-0.09546121
114	0x3c02ffc4	0.00799555
115	0x3cff3048	0.031150952
116	0x3d9031a7	0.070407204
117	0x3e35bcfb	0.17747872
118	0x3da699e6	0.081348225
119	0xbd279e40	-0.040922403
120	0x3e39c908	0.18143094
121	0xbda17274	-0.07883158
122	0xbb3be243	-0.0028668798
123	0x3df2293e	0.118242726
124	0xbd0f755d	-0.035024036
125	0xbdcb884d	-0.09938107
126	0x3d63fc50	0.055660546
127	0x3d230379	0.039798234
128	0xbd022923	-0.031777512
129	0xbcbe8318	-0.02325587
130	0xbea400b0	-0.32031775
131	0x3db9421b	0.09045812
132	0x3de0b039	0.10971112
133	0x3dd3f15f	0.10348772
134	0xbd2561f3	-0.040376615
135	0x3e2b5b90	0.16734147
136	0xbc49d762	-0.012319418
137	0x3cd0d633	0.025492763
138	0x3ddbbfcd	0.107299425
139	0x3dd8c642	0.1058469
140	0xbd493bec	-0.04912941
141	0x3cb5051c	0.022097163
142	0xbdc58e4e	-0.09646283
143	0xbe025be9	-0.12730373
144	0xbe052ce5	-0.13005407
145	0xbd436830	-0.047706783
146	0x3e2e236f	0.17005704
147	0xbd1408bb	-0.03614114
148	0x3dcd03bd	0.10010479
149	0x3e10ec84	0.14152724
150	0xbd8d5677	-0.069012575
151	0xbcdb1595	-0.02674369
152	0xbd6640d0	-0.056214154
153	0xbd08f536	-0.033436976
154	0x3c9ec88b	0.019382736
155	0x3ce584b6	0.028017383
156	0x3d545b00	0.051844597
157	0xbe10b3ae	-0.14131042
158	0xbd9ff263	-0.078099035
159	0xbe8ee02b	-0.27905402
160	0x3c5f610d	0.013633979
161	0x3d0b9e75	0.034086663
162	0xbe18b42a	-0.14912477
163	0xbd41b058	-0.047287315
164	0x3d330261	0.04370344
165	0xbe4d5e79	-0.2005557
166	0xbc369439	-0.0111437375
167	0xbcf88037	-0.030334575
168	0x3e1f5270	0.15558791
169	0xbc794cb7	-0.015216044
170	0x3e699605	0.22811134
171	0x3e1ec1bf	0.15503596
172	0xbe83b23e	-0.25721925
173	0x3dc969e9	0.09834654
174	0x3da8ecd3	0.08248296
175	0x3dddfd99	0.108393855
176	0xbd8fb289	-0.07016475
177	0xbe094334	-0.13404542
178	0xbd06487e	-0.032783978
179	0x3daa86c3	0.08326485
180	0x3c07c3db	0.008286442
181	0xbdec7c91	-0.11547197
182	0x3e0f06c8	0.1396743
183	0xbc9c016c	-0.019043647
184	0x3d5c6cb1	0.053814594
185	0x3c146585	0.009057407
186	0xbba39da5	-0.004993158
187	0x3dc30eea	0.09524329
188	0xbdc45817	-0.09587114
189	0xbd7ff447	-0.06248882
190	0x3e0755c4	0.1321631
191	0x3c8c46ad	0.017123545
192	0x3e0f50ce	0.13995668
193	0xbcf282dc	-0.029603414
194	0x3d99723b	0.07492491
195	0x3d2a003b	0.041504126
196	0x3d921547	0.071329646
197	0xbd0e8d08	-0.034802467
198	0xbdc37562	-0.09543873
199	0x3d934647	0.07191139
200	0xbe03f33a	-0.12885752
201	0xbd944451	-0.07239593
202	0x3dab6e1a	0.083706096
203	0xbcd37ace	-0.025815394
204	0xbd8f9382	-0.07010557
205	0xbd89139a	-0.06693192
206	0x3e2553f0	0.16145301
207	0xbca36d8c	-0.019949697
208	0x3d516e16	0.051130377
209	0xbdfd7abc	-0.12376925
210	0x3cf61e5a	0.03004377
211	0x3d391f48	0.045195848
212	0x3c004a83	0.007830265
213	0x3e09f2ef	0.13471578
214	0xbdda30dc	-0.106538504
215	0xbd42e605	-0.047582645
216	0x3d8785e2	0.06617333
217	0x3d44136e	0.047870092
218	0xbd56e673	-0.052465867
219	0xbde80b6c	-0.113303035
220	0x3dd4be39	0.103878446
221	0x3caeb718	0.02132754
222	0xbd929b81	-0.07158566
223	0xbd9135b5	-0.07090322
224	0xbdeeafaf	-0.11654603
225	0x3d840131	0.0644554
226	0x3c78cd7b	0.015185709
227	0xbd890601	-0.06690598
228	0xbdb3d758	-0.08781308
229	0xbc9c988b	-0.019115707
230	0x3e20c3a8	0.15699637
231	0xbc439549	-0.011937448
232	0x3d27e933	0.04099388
233	0xbd228bb9	-0.03968403
234	0xbd83a3c8	-0.06427723
235	0xb9115534	-0.00013860018
236	0x3df55349	0.11978776
237	0x3dfde36f	0.12396895
238	0xbcf0a933	-0.029377555
239	0x3d3deb17	0.046366777
240	0x3d72f4c9	0.059315477
241	0x3dfd7081	0.12374974
242	0x3d655eb0	0.055998504
243	0xbc19c59e	-0.0093854945
244	0xbd1643f8	-0.036685914
245	0xbd199b36	-0.037501536
246	0xbd9e7575	-0.07737247
247	0x3b2619d9	0.0025344996
248	0x3d82cc29	0.06386597
249	0xbdd0b89e	-0.10191463
250	0x3d18acd9	0.037274215
251	0xbd2426ef	-0.040076192
252	0xbda76bb2	-0.08174838
253	0x3d5ea2dc	0.054354534
254	0x3e229b4c	0.15879554
255	0x3cc11737	0.02357064

network_body._body_endoder.seq_layers.4.bias f4 [128]
0	0x3d26c5ea	0.04071609
1	0xbb95bf4e	-0.0045699244
2	0x3c8b85f0	0.01703164
3	0xbcfe0aac	-0.031010948
4	0x3cc74790	0.024326116
5	0xbb7bb384	-0.003840656
6	0xbc2b1f8c	-0.010444533
7	0xbd61d625	-0.055135865
8	0x3bdf0a7d	0.00680667
9	0x3d3be3af	0.045871433
10	0x3d4c3090	0.049851
11	0xbd232b11	-0.039835993
12	0x3c657cfd	0.01400685
13	0x3abf4c1a	0.0014594824
14	0xbb9c743d	-0.004774599
15	0x3d8a8afb	0.0676479
16	0xbd2e31fa	-0.04252813
17	0xbcf9f96f	-0.030514447
18	0x3d623e09	0.055234943
19	0xbca11584	-0.01966358
20	0x3cb2c249	0.021821158
21	0x3b4d3b94	0.003131603
22	0xbb92e439	-0.0044827727
23	0xbbb6252d	-0.005558631
24	0x3c4c96eb	0.0124871535
25	0xbbc965bc	-0.006146161
26	0x3c574f6b	0.013141493
27	0x3ce4f337	0.027948005
28	0xbd1fe1f2	-0.039033838
29	0xbce4441f	-0.027864514
30	0xbb1ae036	-0.0023632175
31	0xbd53718c	-0.05162196
32	0xbca19015	-0.019722024
33	0xbd451836	-0.048118792
34	0xbca4e9e8	-0.020131066
35	0xbcc6c6fc	-0.024264805
36	0x3d0adc83	0.033901703
37	0x3c8d16d1	0.017222794
38	0x3d851203	0.06497576
39	0x3c48679b	0.012231733
40	0xbc8388d8	-0.016056463
41	0xbd0c011b	-0.03418074
42	0x3ce56ec1	0.028006913
43	0x3c16391a	0.0091688875
44	0x3bc1ec1d	0.0059180395
45	0xbb675b45	-0.0035302204
46	0xbcb90131	-0.022583576
47	0xbc4453fd	-0.011982915
48	0xbd0339d4	-0.03203757
49	0x3d359f47	0.04434135
50	0xbce98047	-0.02850355
51	0x3d08c50d	0.033391047
52	0x3cf85547	0.0303141
53	0xbcf13ea3	-0.029448813
54	0x3c491a4f	0.012274339
55	0xbcfbc65a	-0.03073423
56	0x3d404e40	0.046949625
57	0xbcd8c3c6	-0.02646054
58	0x3c6a39a8	0.014295973
59	0x3cc452b5	0.023965219
60	0x3cfb3261	0.030663671
61	0x3dafe3eb	0.08588394
62	0x3d2fff0c	0.04296784
63	0xbcaf2046	-0.021377694
64	0xbc29a3a2	-0.0103539545
65	0x3cfaf1a2	0.030632798
66	0x3d18085e	0.037117355
67	0x3d202a58	0.039102882
68	0xbbe47eda	-0.0069731297
69	0x3c7115c4	0.014714662
70	0x3d70c480	0.058781147
71	0x3ccb691c	0.024830393
72	0xbb902105	-0.0043984675
73	0x3c72ebea	0.014826754
74	0xbc7e12a6	-0.015507376
75	0xbccb18bc	-0.024792068
76	0x3d609084	0.05482532
77	0xbcbc2fd9	-0.022972034
78	0xbbfa29ab	-0.0076343617
79	0xbd292baa	-0.041301407
80	0x3b18ecef	0.0023334583
81	0x3d5333b7	0.05156299
82	0x3c312204	0.010811333
83	0x3aa461d9	0.0012541368
84	0x3d3ee0eb	0.046601217
85	0x3d6cd0e6	0.05781641
86	0x3cf23741	0.029567363
87	0x3c2fd868	0.010732748
88	0xbd25b178	-0.04045245
89	0xbc9fb713	-0.019496476
90	0x3a19769d	0.00058541616
91	0x3aee1132	0.0018163084
92	0x3c01bdf5	0.007918824
93	0xbd222d4b	-0.039593976
94	0x3c65e4eb	0.014031629
95	0x3d2ee2c5	0.042696733
96	0xbb4f4093	-0.0031624183
97	0xbccb7f14	-0.024840869
98	0x3c5d11fa	0.0134930555
99	0x3c5f2115	0.013618727
100	0x3da656b2	0.081220046
101	0x3d6afeee	0.057372026
102	0xbcf1ff22	-0.029540602
103	0x3cbe0217	0.023194356
104	0x3d19fdbb	0.03759549
105	0x3cca7853	0.024715578
106	0xbb8f0d0e	-0.00436557
107	0x3ca8e7ad	0.020618284
108	0xbc091738	-0.008367352
109	0xbbe16511	-0.006878503
110	0x3d3929ea	0.045205988
111	0x3c4c81bb	0.012482102
112	0x3d1dc970	0.038522184
113	0xbbd112c6	-0.006380412
114	0x3d840ec5	0.064481296
115	0x3d216cee	0.039410524
116	0xbc204c93	-0.009783882
117	0xba549a4c	-0.000811015
118	0xbd447ca9	-0.047970448
119	0xbc34b791	-0.011030094
120	0x3ab80ee7	0.0014042527
121	0x3b5cfa5b	0.003371856
122	0xbc90ada7	-0.017660929
123	0xbd179b1f	-0.03701317
124	0xbbcf48ab	-0.0063258014
125	0x3bd4764a	0.0064838277
126	0x3d509d59	0.05093131
127	0xbcb16bd9	-0.021657871
