results/SeekerAgent/SeekerAgent/SeekerAgent-328079.onnx (onnx, 344226 bytes, 12 tensors)

101 f4 [1, 256, 128]
-0.21604088 0.014489119 0.18516149 -0.067515835 -0.17045452 -0.14490014 -0.20164314 0.07772718
-0.11311392 0.0134526985 -0.102700524 0.19760035 0.10603798 0.09521055 0.17376262 -0.03910264
0.12240133 0.11700314 -0.07494458 0.18400759 -0.010596889 -0.075976506 0.0005150778 0.07399522
-0.06747899 0.22975984 0.13324244 -0.1038864 -0.035041198 -0.03612165 0.03879989 -0.15540299
-0.103679806 0.040969707 0.14628167 0.21196863 0.011264025 0.16611536 -0.06914857 0.07963036
0.19572216 -0.028997103 -0.103696115 -0.03134252 -0.085540645 0.15210298 0.012577699 0.15563366
0.18013741 0.046484727 0.084149726 0.119177684 -0.08160668 0.06453769 -0.06733625 -0.1465594
-0.013831648 -0.07953597 0.17803691 0.037174772 0.011248716 0.10416503 -0.094282 0.07424792
-0.12168608 -0.06270439 -0.11930958 -0.019155212 0.108570874 -0.042246103 -0.14226843 -0.09170317
0.008537898 0.12275373 0.16639303 0.19659385 0.0059613767 -0.052548803 -0.13761918 0.16208582
-0.012269535 0.072945155 0.19569838 0.0006611049 -0.0045841527 0.051311046 -0.09967524 -0.0056581325
0.019103713 -0.048506763 -0.020970952 0.13079222 -0.034654625 0.13227789 -0.035093643 0.159549
-0.1025151 0.09126026 0.024636734 -0.1914554 0.06756479 -0.05117743 0.03437939 -0.004379081
-0.17534916 0.08585932 0.14758457 -0.07439541 0.19032381 -0.0934303 0.15988244 0.056830343
0.13576698 0.012119872 -0.0025659848 -0.19350441 -0.0809662 0.18385832 -0.012274978 -0.06945048
0.22680925 -0.10604401 -0.10805895 -0.1025553 0.08958475 0.06177546 -0.082217395 -0.03998371
-0.09196814 -0.07287007 -0.14046533 0.18982716 -0.049925264 0.10861198 -0.0637865 0.04165469
0.09613752 -0.054313682 0.020708976 -0.15666172 0.13383776 0.083111465 -0.120385826 0.17548609
-0.04357004 0.038472857 -0.13267718 -0.02656844 -0.11987809 -0.05505147 0.011715025 0.06913362
-0.16209987 -0.12500246 -0.0687295 -0.07787575 -1.9162428e-05 0.010580741 0.0053857635 0.017141785
0.048177447 0.13023162 0.14676379 0.009596407 -0.07601136 0.11708636 -0.045545276 -0.03457123
-0.018269103 0.11096195 -0.034258056 -0.095147416 -0.14113289 -0.0136507815 -0.14613289 0.16099961
-0.18935248 0.049614586 0.17844409 0.08127327 -0.018422097 0.019562777 -0.15270044 0.10038543
-0.108059235 -0.11770823 0.13935395 -0.053251974 0.116288036 0.015293405 -0.14895438 0.00045569518
-0.08110177 0.097926445 -0.09255847 -0.083997935 0.17766055 -0.043587327 -0.119717166 -0.10659539
0.07301506 0.080288924 0.13219696 0.09311792 0.09726442 0.027886802 -0.043874577 0.04019935
-0.14892931 0.05659533 -0.06353765 0.15256988 0.19126303 0.16005275 0.07551951 -0.054291416
0.09151505 0.09266921 -0.0025140184 -0.13120079 -0.004223662 0.0935234 -0.009696459 0.048235197
-0.109458566 0.14292063 0.121419854 0.08039867 -0.098368995 -0.04016184 -0.050516665 0.13653536
-0.156878 -0.019087391 -0.059211522 0.052621346 -0.075820744 0.028472837 0.1781609 0.012670816
0.12637839 -0.12676315 -0.16130473 0.13144892 -0.10311586 -0.16076675 0.02353471 0.14571698
0.14607386 0.18912494 -0.02125599 0.10135821 0.11183551 -0.0636414 0.10095801 0.13692531
00000000: d239 5dbe c563 6d3c f99a 3d3e be45 8abd
00000010: a18b 2ebe b460 14be 8a7b 4ebe 6e2f 9f3d
00000020: 45a8 e7bd b568 5c3c a754 d2bd bf57 4a3e
00000030: 712a d93d c0fd c23d d4ee 313e 172a 20bd
00000040: 8cad fa3d 589f ef3d 8b7c 99bd 7c6c 3c3e
00000050: 939e 2dbc 9299 9bbd 4906 073a ce8a 973d
00000060: 6d32 8abd 2a46 6b3e b570 083e 65c2 d4bd
00000070: 5c87 0fbd 4cf4 13bd a2ec 1e3d f621 1fbe
00000080: 1456 d4bd dacf 273d ddca 153e 4e0e 593e
00000090: bf8c 383c 251a 2a3e c49d 8dbd 3e15 a33d
000000a0: 646b 483e 558b edbc a15e d4bd 0461 00bd
000000b0: ef2f afbd e2c0 1b3e b112 4e3c 6e5e 1f3e
000000c0: f175 383e c566 3e3d b156 ac3d 6e13 f43d
000000d0: 6721 a7bd 562c 843d 96e7 89bd ab13 16be
000000e0: 239e 62bc c1e3 a2bd 4f4f 363e 9344 183d
000000f0: 894c 383c 7a54 d53d ec16 c1bd 4b0f 983d
00000100: 8d36 f9bd 296b 80bd 9558 f4bd 64eb 9cbc
00000110: 685a de3d 400a 2dbd d1ae 11be dfce bbbd
00000120: 8ae2 0b3c 4f66 fb3d ef62 2a3e e64f 493e
00000130: a757 c33b 6a3d 57bd 0bec 0cbe d3f9 253e
00000140: 2906 49bc 4564 953d 2865 483e 004e 2d3a
00000150: a936 96bb 882b 523d 8822 ccbd db67 b9bb
00000160: 647f 9c3c 07af 46bd 46cb abbc 65ee 053e
00000170: 02f2 0dbd db73 073e 5abe 0fbd d060 233e
00000180: 70f3 d1bd a9e6 ba3d fad2 c93c e20c 44be
00000190: 695f 8a3d 6d9f 51bd 67d1 0c3d 657e 8fbb
000001a0: bb8e 33be 03d7 af3d 6920 173e 9f5c 98bd
000001b0: 3fe4 423e 6358 bfbd 39b8 233e efc6 683d
000001c0: 8006 0b3e 6d92 463c 152a 28bb 0526 46be
000001d0: 9bd1 a5bd 5b45 3c3e fd1c 49bc 0e3c 8ebd
000001e0: af40 683e 9a2d d9bd 034e ddbd 8308 d2bd
000001f0: 3678 b73d 4408 7d3d 9861 a8bd f5c5 23bd
00000200: cb59 bcbd e73c 95bd 25d6 0fbe 0d62 423e
00000210: 6f7e 4cbd f56f de3d 7fa2 82bd 1c9e 2a3d
00000220: c0e3 c43d 0678 5ebd dfa5 a93c ee6b 20be
00000230: c40c 093e 5836 aa3d d88c f6bd a0b2 333e
00000240: 8076 32bd b795 1d3d 87dc 07be 0fa6 d9bc
00000250: a582 f5bd a67d 61bd 60f0 3f3c ed95 8d3d
00000260: 82fd 25be a500 00be 0dc2 8cbd 527d 9fbd
00000270: 00bf a0b7 d85a 2d3c 0f7b b03b ee6c 8c3c
00000280: b755 453d 705b 053e 3f49 163e 403a 1d3c
00000290: d8ab 9bbd f9ca ef3d af8d 3abd 909a 0dbd
000002a0: 16a9 95bc 0540 e33d 2d52 0cbd a6dc c2bd
000002b0: 2485 10be 87a7 5fbc dca3 15be 15dd 243e
000002c0: 9ee5 41be aa38 4b3d 0cba 363e 9a72 a63d
000002d0: f0e9 96bc 1e42 a03c 815d 1cbe e096 cd3d
000002e0: 294e ddbd 0311 f1bd cdb2 0e3e be1e 5abd
000002f0: 6c28 ee3d 3191 7a3c 7f87 18be 5fea ee39
00000300: af18 a6bd a98d c83d 4c8f bdbd 1c07 acbd
00000310: a6ec 353e a088 32bd 462e f5bd af4e dabd
00000320: eb88 953d 856e a43d a45e 073e 9cb4 be3d
00000330: 9132 c73d dd72 e43c d4b5 33bd 13a8 243d
00000340: ed80 18be 81d0 673d 0720 82bd 473b 1c3e
00000350: 75da 433e dee4 233e f9a9 9a3d ad60 5ebd
00000360: 3e6c bb3d 5bc9 bd3d 3bc2 24bb 8059 06be
00000370: a566 8abb 3289 bf3d e6dd 1ebc 4592 453d
00000380: d02b e0bd c959 123e f9aa f83d 0fa8 a43d
00000390: af75 c9bd be80 24bd 90ea 4ebd edcf 0b3e
000003a0: a0a4 20be 295d 9cbc c887 72bd 7b89 573d
000003b0: e847 9bbd de3f e93c d06f 363e 4199 4f3c
000003c0: 5669 013e 33ce 01be 112d 25be 8c9a 063e
000003d0: 682e d3bd 0aa0 24be ddcb c03c d536 153e
000003e0: 6394 153e f8a9 413e 0b21 aebc e594 cf3d
000003f0: 040a e53d 6c56 82bd 13c3 ce3d 2636 0c3e

102 f4 [1, 256, 64]
0.053156655 0.11203358 -0.19694272 -0.16760664 -0.030041695 -0.13873963 -0.09952501 0.102182254
0.24853718 -0.14723256 -0.10063726 -0.095308475 -0.20807125 0.08760604 0.21620236 0.009709344
0.19572955 0.066373326 0.16559261 -0.082507715 0.10538845 0.18221253 -0.14117989 -0.026464675
0.014780797 0.086699374 -0.135353 0.035037432 -0.16413936 -0.13372499 0.053111065 -0.15987678
-0.13117118 0.2072802 0.17229113 -0.0879133 0.09287617 -0.01338326 -0.21918795 -0.091008656
-0.17500372 0.1796348 -0.012788108 -0.19357577 -0.02036473 -0.09062443 -0.1024089 0.050067216
-0.15690167 -0.049063187 -0.15640129 0.15667869 0.14896211 -0.07166792 -0.16677593 -0.033891786
0.02172874 0.17577507 -0.0644393 -0.010918141 -0.046359405 -0.18682957 0.05700663 0.10153203
0.22540358 0.13718814 -0.18793498 -0.097344935 -0.13938367 -0.2792435 -0.021339456 0.100535475
-0.16561787 -0.047705427 -0.01742904 0.16865544 -0.10248599 -0.18940105 -0.031924356 -0.1453099
0.22182819 0.090822026 0.114443906 -0.14691931 -0.21338488 -0.2574747 -0.23011959 0.17091994
-0.15811998 -0.10401761 0.019496322 -0.027421609 0.04398841 0.12217389 0.025858829 0.22257806
-0.09515155 0.18210727 0.02556715 -0.13672788 -0.043495808 -0.16369608 -0.18882453 0.030323723
0.052384555 0.104366265 -0.12489688 -0.026426312 -0.100923136 0.023970252 -0.19794506 0.22537969
0.12975018 -0.13977428 -0.2377969 -0.19909102 0.19763435 0.090791985 0.15286735 -0.022516388
0.17187792 0.05891814 -0.074524164 0.1472912 0.22263455 0.032432247 0.113116324 0.05154985
0.14042841 0.011453236 -0.055695992 -0.28239655 -0.22711205 -0.18653558 0.13654105 0.18222281
0.08282348 0.0022824265 -0.23182264 -0.011666322 -0.13744658 0.10591642 -0.13659663 -0.0072926013
-0.052549582 0.08775745 -0.03920037 0.116203286 -0.18664116 0.03736699 -0.08886578 0.0637644
-0.1711406 -0.23790994 -0.0039820075 -0.11839435 -0.19852346 0.14327344 -0.01739141 -0.12143521
-0.2563378 0.2122161 0.0013523351 -0.054959524 -0.10717777 -8.192535e-05 -0.07309972 -0.12871082
-0.11683701 0.08646725 0.04988099 0.20296915 -0.23282248 -0.16285147 -0.044489436 -0.04540791
0.03582494 0.03345475 0.009426038 0.09402396 0.19342646 -0.1401108 -0.06134178 0.07597067
-0.08687901 -0.26080045 -0.22744599 -0.18719214 -0.04814241 0.07341802 0.11615815 -0.10864391
-0.08977906 -0.059037395 0.17492153 -0.19003887 -0.06555861 -0.09546866 -0.17156492 0.14836435
-0.116439275 -0.07097549 0.1137352 0.08386504 0.16852802 0.18482421 -0.11658526 0.020976322
-0.09181965 0.03179449 0.031007145 0.06528961 0.18192318 -0.10590674 -0.04946948 0.21565664
-0.11064568 0.054188356 -0.11187864 -0.023574883 -0.15513328 -0.12583643 -0.064398915 -0.012036212
0.0057226857 -0.2237255 0.17817558 -0.07925601 0.059735544 -0.017759817 -0.11043989 -0.18970245
-0.017797044 0.23119882 0.0013791366 0.1148598 -0.085775346 0.003706267 0.19892102 -0.03731865
-0.15173052 0.20748691 -0.10922014 -0.037310828 0.019484702 0.10672742 0.13838285 -0.1338598
0.09976704 0.22233875 -0.19152609 -0.18475485 -0.15629105 0.045156416 -0.08215691 -0.12181079
00000000: cbba 593d dd71 e53d 5aab 49be 13a1 2bbe
00000010: 001a f6bc c311 0ebe c5d3 cbbd ee44 d13d
00000020: 8880 7e3e 22c4 16be e81a cebd 1731 c3bd
00000030: a110 55be cc6a b33d 2764 5d3e f113 1f3c
00000040: 546d 483e bdee 873d 1c91 293e cef9 a8bd
00000050: e6d5 d73d ec95 3a3e 7691 10be 72cc d8bc
00000060: 282b 723c 718f b13d fa99 0abe 6983 0f3d
00000070: 2614 28be 34ef 08be fd8a 593d bdb6 23be
00000080: bd51 06be 4341 543e 166d 303e e30b b4bd
00000090: dd35 be3d 7645 5bbc ce72 60be bf62 babd
000000a0: 2d34 33be 2ff2 373e 3685 51bc ba38 46be
000000b0: efd3 a6bc 4d99 b9bd c2bb d1bd 4813 4d3d
000000c0: d5aa 20be 7bf6 48bd a927 20be 6170 203e
000000d0: 8689 183e a1c6 92bd 4fc7 2abe 1dd2 0abd
000000e0: 7800 b23c 61fe 333e c0f8 83bd 01e2 32bc
000000f0: 5ce3 3dbd 4050 3fbe c97f 693d 06f0 cf3d
00000100: 32d0 663e 0c7b 0c3e 0772 40be c85c c7bd
00000110: 98ba 0ebe 01f9 8ebe 15d0 aebc 8be5 cd3d
00000120: bb97 29be c466 43bd 59c7 8ebc 03b4 2c3e
00000130: 2de4 d1bd 59f2 41be 1dc3 02bd 1ecc 14be
00000140: ee26 633e e600 ba3d 9161 ea3d 0472 16be
00000150: 9181 5abe b9d3 83be 78a4 6bbe a305 2f3e
00000160: 34ea 21be 2f07 d5bd c0b6 9f3c 48a3 e0bc
00000170: 312d 343d 4e36 fa3d e5d5 d33c 81eb 633e
00000180: d1de c2bd 547a 3a3e 3372 d13c 6502 0cbe
00000190: a928 32bd f29f 27be 385b 41be 7569 f83c
000001a0: 3091 563d fbbd d53d efc9 ffbd fe7b d8bc
000001b0: cab0 cebd 435d c43c 1cb2 4abe efc9 663e
000001c0: 3bdd 043e fd20 0fbe 0881 73be 84de 4bbe
000001d0: a960 4a3e 26f1 b93d 4289 1c3e 4a74 b8bc
000001e0: c400 303e 2654 713d 20a0 98bd 81d3 163e
000001f0: 50fa 633e add7 043d 88a9 e73d ef25 533d
00000200: 77cc 0f3e 5ba6 3b3c 7b21 64bd 4896 90be
00000210: 1090 68be 2f03 3fbe 6bd1 0b3e 9e98 3a3e
00000220: 5b9f a93d c394 153b ea62 6dbe 1a24 3fbc
00000230: ccbe 0cbe b5ea d83d fddf 0bbe c6f6 eebb
00000240: 3b3e 57bd 2eba b33d 9190 20bd fdfb ed3d
00000250: dc1e 3fbe 210e 193d 43ff b5bd e996 823d
00000260: 7b3f 2fbe aa9e 73be 807b 82bb bd78 f2bd
00000270: bc49 4bbe 46b6 123e 6e78 8ebc 06b3 f8bd
00000280: b53e 83be 2d4f 593e d640 b13a 3d1d 61bd
00000290: 0580 dbbd 56cf abb8 4eb5 95bd c5cc 03be
000002a0: 3e48 efbd be15 b13d 0250 4c3d 25d7 4f3e
000002b0: 0469 6ebe 89c2 26be 8e3a 36bd a5fd 39bd
000002c0: 2cbd 123d d907 093d ab6f 1a3c a28f c03d
000002d0: 9611 463e 3579 0fbe 8541 7bbd 8396 9b3d
000002e0: 9fed b1bd a387 85be 9ae7 68be 4caf 3fbe
000002f0: fa30 45bd 305c 963d 53e4 ed3d b380 debd
00000300: 15de b7bd 32d1 71bd a11e 333e 8d99 42be
00000310: 9843 86bd 1385 c3bd b7ae 2fbe d3ec 173e
00000320: b777 eebd 995b 91bd 00ee e83d 6fc1 ab3d
00000330: 9c92 2c3e 8f42 3d3e 41c4 eebd 89d6 ab3c
00000340: f10b bcbd f03a 023d b202 fe3c 8fb6 853d
00000350: 124a 3a3e a2e5 d8bd 82a0 4abd 18d5 5c3e
00000360: 349a e2bd 9cf4 5d3d a120 e5bd 1d20 c1bc
00000370: 42db 1ebe 44db 00be 94e3 83bd 8833 45bc
00000380: 5e85 bb3b 4c18 65be a973 363e fa50 a2bd
00000390: 42ad 743d 097d 91bc 4f2e e2bd 5c41 42be
000003a0: 1bcb 91bc 62bf 6c3e 25c4 b43a 9d3b eb3d
000003b0: fcaa afbd d8e4 723b f4b1 4b3e 71db 18bd
000003c0: 3f5f 1bbe 7377 543e cfae dfbd 3dd3 18bd
000003d0: 629e 9f3c e893 da3d 3cb4 0d3e 8b12 09be
000003e0: a952 cc3d c5ac 633e 6a1f 44be 6030 3dbe
000003f0: c30a 20be eff5 383d e241 a8bd ef77 f9bd

103 f4 [1, 512]
0.044748172 0.022827394 -0.03603037 0.013128291 -0.009858184 0.016020233 0.024988279 0.065774225
0.059288565 0.081222735 -0.022204852 0.0417019 0.05532579 0.03954313 0.012858806 0.048998177
0.01728245 0.053891834 0.03184008 0.005212237 0.024916522 -0.047146652 0.062498305 0.048969973
0.035671063 -0.00085166196 0.012667091 0.017706634 -0.02360967 0.034292348 0.02740716 -0.009618343
-0.02827601 -0.01117883 0.051346153 0.012197884 0.0056676804 0.046242204 0.054011583 0.047597572
0.0263711 0.0048108613 0.01810019 0.0042996192 -0.004681639 -0.01073608 0.0056999656 -0.009150936
0.040446743 0.088031225 -0.01443739 0.09944473 0.03987841 0.024697334 0.032307893 0.006344889
0.033354804 0.025649842 0.0056716935 0.012722543 0.0040096906 0.002066191 0.0034790128 0.052737616
0.04710434 0.03406257 0.030815473 0.012444961 0.032118894 0.0185862 -0.002907968 0.03714506
0.009574542 0.062417183 -0.0013688484 0.07094367 0.00038180596 0.019679604 0.01549957 0.04582815
0.013526687 0.03424044 0.045270007 -0.032846138 0.02362726 0.021228602 0.08468425 0.019146385
0.022958914 0.0053164437 0.01790788 -0.005452052 -0.020960672 0.017022492 0.016005227 0.007762198
-0.004548083 0.020560222 0.04148849 0.022000093 0.002911866 0.068560734 -0.008485945 0.048159894
0.040352765 0.00391178 0.015310937 0.004729493 -0.017200228 -0.0015451425 0.026872147 -0.009893802
0.0162443 0.06290947 0.033047196 0.049224224 0.038912468 0.017825112 0.018318597 -0.03384263
0.032880925 -0.026854103 0.010891761 0.029659739 -0.009414238 0.028216247 0.0010405739 0.02057225
1.0471301 1.0075469 0.9716982 0.98569155 1.0389842 1.0171676 1.0271591 1.0068246
1.032848 1.0101593 0.9818728 1.0230322 0.99876535 0.97554535 1.0167247 1.0105255
1.0191704 1.0211926 0.9963767 1.0128739 1.0065107 1.0331134 1.0077682 0.99268657
1.0249707 1.0042069 1.0603542 1.0087811 1.023432 1.011777 0.9949919 0.9810611
1.0037831 0.97275364 0.9685627 1.0195193 1.0029535 1.0440307 0.9629435 1.0039697
1.0633825 0.9958604 1.0195202 0.97854465 0.9880326 0.99961936 0.97510445 1.0293835
1.0207124 0.99317235 0.9981461 0.98385984 1.0028713 1.0237899 0.9991377 0.9466201
1.0388631 1.0354601 1.0163159 1.0123 1.0093867 1.0500473 1.004192 0.9651698
0.015516641 0.00043225163 0.009858484 0.022964038 0.003491608 -0.015197757 0.03557863 0.010253894
0.02035211 0.028790437 0.01048112 -0.0116105415 -0.019560125 -0.008401476 -0.012783426 0.023926731
-0.0067255236 0.0031039007 -0.019983573 -0.0033889494 -0.0013439389 -0.026981503 0.019090239 -0.033719387
-0.0024522224 -0.009543498 -0.021950964 -0.005653819 0.008271429 0.007977015 -0.0022982988 0.0028874122
0.022939205 0.014940966 0.030528422 0.0040202052 -0.010369436 -0.008510371 0.0043253815 0.0031086975
-0.016722837 0.013482635 -0.010756731 -0.01828681 0.027428389 0.017787412 0.008584663 0.0069001247
-0.013521552 -0.013446712 -0.015314142 0.019666739 -0.0110047795 -0.009832422 0.013458306 0.01229247
0.02765456 0.015873741 7.456804e-05 0.00028706723 -0.004010122 0.01864927 -0.0035791947 0.011403055
00000000: dc49 373d 8400 bb3c 9594 13bd 0b18 573c
00000010: 3884 21bc dd3c 833c 38b4 cc3c a3b4 863d
00000020: 91d8 723d 1b58 a63d f3e6 b5bc 9dcf 2a3d
00000030: 4c9d 623d faf7 213d bead 523c 50b2 483d
00000040: ed93 8d3c afbd 5c3d be6a 023d 6acb aa3b
00000050: bc1d cc3c d91c 41bd 39fe 7f3d bd94 483d
00000060: d21b 123d 1142 5fba a189 4f3c 810d 913c
00000070: 1169 c1bc 2276 0c3d fb84 e03c 4196 1dbc
00000080: 17a3 e7bc 6927 37bc 5850 523d a2d9 473c
00000090: f3b7 b93b 7768 3d3d 403b 5d3d acf5 423d
000000a0: 3508 d83c 6ea4 9d3b da46 943c d2e3 8c3b
000000b0: 6f68 99bb 62e6 2fbc c7c6 ba3b cfed 15bc
000000c0: 7cab 253d b749 b43d cd8a 6cbc aea9 cb3d
000000d0: 8b57 233d 1052 ca3c 4855 043d c9e8 cf3b
000000e0: 0c9f 083d 9e1f d23c 9dd9 b93b 3772 503c
000000f0: b963 833b ef68 073b 2600 643b 6603 583d
00000100: 7bf0 403d 3285 0b3d bb70 fc3c f3e5 4b3c
00000110: 1a8f 033d 1642 983c 9b93 3ebb 6b25 183d
00000120: 8ade 1c3c 29a9 7f3d ee6a b3ba ea4a 913d
00000130: 212d c839 1f37 a13c e9f1 7d3c 4cb6 3b3d
00000140: 0a9f 5d3c b43f 0c3d 0b6d 393d ac89 06bd
00000150: f58d c13c 9be7 ad3c f06e ad3d e1d8 9c3c
00000160: 5514 bc3c 9035 ae3b 8cb3 923c 21a7 b2bb
00000170: b7b5 abbc c172 8b3c 651d 833c 095a fe3b
00000180: 1608 95bb e96d a83c d6ef 293d 8a39 b43c
00000190: 01d5 3e3b 9269 8c3d a208 0bbc 4f43 453d
000001a0: f148 253d 642e 803b b9da 7a3c ddf9 9a3b
000001b0: 7ee7 8cbc 6186 caba fa22 dc3c 9d19 22bc
000001c0: c412 853c aed6 803d 7f5c 073d 579f 493d
000001d0: ae62 1f3d f805 923c e210 963c 929e 0abd
000001e0: 26ae 063d 23fd dbbc 5b73 323c fbf8 f23c
000001f0: 2d3e 1abc c225 e73c de63 883a 2387 a83c
00000200: 5c08 863f 4cf7 803f 37c1 783f 4856 7c3f
00000210: 6ffd 843f 8c32 823f f379 833f a1df 803f
00000220: 5d34 843f e64c 813f 045c 7b3f b8f2 823f
00000230: 16af 7f3f 57bd 793f 0924 823f e658 813f
00000240: 2d74 823f 70b6 823f 8b12 7f3f daa5 813f
00000250: 58d5 803f 0f3d 843f 8cfe 803f b520 7e3f
00000260: 3d32 833f da89 803f b0b9 873f bd1f 813f
00000270: d2ff 823f e981 813f cab7 7e3f d226 7b3f
00000280: f77b 803f 6206 793f baf3 773f 9c7f 823f
00000290: c860 803f cca2 853f 7783 763f 1482 803f
000002a0: eb1c 883f b5f0 7e3f a37f 823f e781 7a3f
000002b0: b4ef 7c3f 0ee7 7f3f 72a0 793f d7c2 833f
000002c0: b4a6 823f 8b40 7e3f 8186 7f3f 3dde 7b3f
000002d0: 165e 803f 8c0b 833f 7dc7 7f3f b255 723f
000002e0: 77f9 843f f589 843f a416 823f 0c93 813f
000002f0: 9533 813f f367 863f 5d89 803f 5e15 773f
00000300: 8239 7e3c d59f e239 7b85 213c 141f bc3c
00000310: 76d3 643b 0300 79bc e6ba 113d f3ff 273c
00000320: 78b9 a63c ecd9 eb3c 01b9 2b3c 243a 3ebc
00000330: 8e3c a0bc 58a6 09bc 9371 51bc fe01 c43c
00000340: c861 dcbb d06a 4b3b 97b4 a3bc 2319 5ebb
00000350: 1b27 b0ba 5008 ddbc 2263 9c3c 571d 0abd
00000360: 77b5 20bb 555c 1cbc 82d2 b3bc ac43 b9bb
00000370: e384 073c 07b2 023c 0e9f 16bb bd3a 3d3b
00000380: 00eb bb3c f4ca 743c be16 fa3c edbb 833b
00000390: 91e4 29bc 156f 0bbc eebb 8d3b 4abb 4b3b
000003a0: 55fe 88bc 45e6 5c3c 003d 30bc 38ce 95bc
000003b0: 80b1 e03c e8b6 913c b0a6 0c3c 711a e23b
000003c0: 8089 5dbc 994f 5cbc 2be8 7abc 241c a13c
000003d0: 644d 34bc 2b18 21bc 3a80 5c3c 5b66 493c
000003e0: d18b e23c a609 823c 6961 9c38 8381 9639
000003f0: 5767 83bb 5bc6 983c ec90 6abb e1d3 3a3c

action_model._continuous_distribution.log_sigma f4 [1, 2]
-0.19017519 -0.033328835
00000000: 49bd 42be d183 08bd

action_model._continuous_distribution.mu.bias f4 [2]
-0.015638757 -0.015314095
00000000: da1c 80bc f8e7 7abc

action_model._continuous_distribution.mu.weight f4 [2, 64]
0.072941594 0.094323166 0.060972437 -0.10427453 -0.101348974 -0.06345347 0.076944605 0.07080958
-0.077683784 0.06123986 -0.1140795 -0.045948073 0.09809155 0.030455697 -0.08519363 0.09527484
0.057298888 -0.07117762 -0.12202369 0.0254062 0.064255506 -0.06975758 0.096241765 0.0022654163
-0.035738785 -0.046234153 0.012073815 -0.15110339 -0.030128337 0.05343607 -0.09811966 0.010806251
-0.08908172 0.010949799 0.11809281 0.12483625 -0.058714114 -0.059100635 0.0890134 -0.07188969
0.03554839 -0.12055327 -0.04320619 0.07618148 0.040859643 -0.031332534 -0.03041164 0.07064585
-0.017818734 -0.036762238 0.055124383 -0.05009709 -0.05720655 -0.025376758 0.025740864 -0.09369258
0.10747224 -0.13783394 -0.008146079 -0.013900508 -0.0053109117 0.08543265 -0.011578245 0.12951931
-0.061615784 -0.050641913 -0.060525514 0.07942918 0.06229366 -0.09615872 -0.02963903 -0.077804506
-0.031604394 -0.08183166 -0.025556108 0.08736364 0.01186675 0.11285485 -0.033914786 -0.06323857
-0.020386145 -0.087372206 0.013413507 -0.030379796 0.06465655 -0.09042994 -0.09674348 0.105837256
0.03049547 0.038465768 0.075189345 0.037862446 -0.029720398 -0.0684587 0.0041612657 -0.07404312
0.02034213 -0.100103155 0.08891421 0.014583227 0.005284953 0.12607299 -0.020189852 -0.09578178
0.096568905 -0.12309936 0.016455954 -0.0055746264 -0.05132526 0.05397317 -0.06825704 0.05440322
0.026786307 0.081388324 0.05227124 -0.10688929 0.073884666 0.06722971 -0.030537253 0.028335828
-0.03922274 0.0069323676 -0.037521724 0.00910031 0.050819382 0.015498287 -0.05282982 0.044370193
00000000: 6762 953d 812c c13d 3cbe 793d e38d d5bd
00000010: 0d90 cfbd e5f3 81bd 2295 9d3d 9d04 913d
00000020: ad18 9fbd a6d6 7a3d 83a2 e9bd 0c34 3cbd
00000030: 39e4 c83d 3a7e f93c ff79 aebd 751f c33d
00000040: 3db2 6a3d 92c5 91bd 8ee7 f9bd aa20 d03c
00000050: 6498 833d 10dd 8ebd 671a c53d 6177 143b
00000060: d562 12bd 0660 3dbd 40d1 453c d9ba 1abe
00000070: b4cf f6bc c8df 5a3d f6f2 c8bd b40c 313c
00000080: 7a70 b6bd c966 333c a5da f13d 26aa ff3d
00000090: 367e 70bd 8213 72bd a84c b63d e73a 93bd
000000a0: 309b 113d a2e4 f6bd f9f8 30bd 0905 9c3d
000000b0: 715c 273d 8b56 00bd d521 f9bc c5ae 903d
000000c0: 98f8 91bc 0094 16bd 1bca 613d 9b32 4dbd
000000d0: 6a51 6abd ebe2 cfbc 81de d23c e5e1 bfbd
000000e0: 681a dc3d 5724 0dbe 2277 05bc f5be 63bc
000000f0: 2807 aebb 50f7 ae3d aeb2 3dbc b6a0 043e
00000100: d560 7cbd e56d 4fbd 9ae9 77bd c4ab a23d
00000110: a327 7f3d ddee c4bd 8dcd f2bc f857 9fbd
00000120: 9c73 01bd 5b97 a7bd 0b5b d1bc b5eb b23d
00000130: c26c 423c 7220 e73d 3bea 0abd 3983 81bd
00000140: d800 a7bc 33f0 b2bd 53c4 5b3c 0ddf f8bc
00000150: a76a 843d 5533 b9bd 7221 c6bd 34c1 d83d
00000160: a3d1 f93c 488e 1d3d dffc 993d a715 1b3d
00000170: 3178 f3bc 1334 8cbd 3a5b 883b eba3 97bd
00000180: 8aa4 a63c e202 cdbd a718 b63d 7dee 6e3c
00000190: 662d ad3b 4719 013e 3065 a5bc 3d29 c4bd
000001a0: ebc5 c53d 841b fcbd a3ce 863c 5bab b6bb
000001b0: 703a 52bd f912 5d3d 59ca 8bbd e9d5 5e3d
000001c0: f56e db3c ecae a63d 5e1a 563d c6e8 dabd
000001d0: d850 973d bbaf 893d 4329 fabc 8a20 e83c
000001e0: 06a8 20bd ea28 e33b 61b0 19bd 7719 153c
000001f0: fc27 503d 87ec 7d3c 1564 58bd 85bd 353d

network_body._body_endoder.seq_layers.0.bias f4 [128]
0.018782372 -0.0126710655 0.006848843 0.03226021 -0.020330938 -0.0030757743 0.015941484 -0.023544589
0.0015814275 0.022431778 -0.010933954 -0.013145769 0.023930363 0.03460184 0.046440538 -0.012319056
0.07118918 0.036125734 -0.0121827265 -0.018542754 -0.033563208 0.013551133 0.016469762 -0.015698299
0.025836946 0.008001429 0.02257724 0.022070708 0.0072363913 0.020926176 -0.030743342 -0.047040515
-0.010561536 -0.0071614548 0.050084177 0.0072762547 0.027602226 0.044830147 0.003357801 0.061334338
-0.020176038 0.03846675 0.077932656 -0.02884691 0.044740893 0.0073877946 -0.006611668 0.010015911
0.023618821 0.0026275765 0.004618781 -0.00036828508 -0.0029268856 -0.015638642 -0.011040478 -0.008945351
0.014439565 0.0006518168 0.035100453 0.028753117 -0.006043236 0.051213406 -0.011521592 -0.005208204
-0.01903267 -0.010113197 0.0029358407 0.04453895 0.012241494 -0.016037228 0.02207714 -0.01868709
0.020284716 0.041578125 0.007811513 -0.041388687 -0.034829263 0.021587396 0.0030775815 -0.013655074
0.016346583 0.05474554 -0.018371383 0.046480536 0.066318125 -0.020900574 -0.032374013 0.06020228
0.017147895 0.05500101 0.029475078 0.016124576 -0.03546151 -0.016710754 0.015407949 -0.0051230774
-0.0034142642 0.0034370543 -0.030538635 3.170584e-05 0.024289269 -0.027260084 0.0080352565 -0.0050398745
0.013550946 0.044066254 -0.015574004 0.007255231 -0.011314547 0.07032404 0.057044826 0.0096538
-0.0049956357 0.037193816 0.03520791 0.01860448 0.016469365 0.06522352 -0.002119226 -0.004920995
-0.017013146 -0.033316255 -0.018251892 0.020091593 0.084738016 0.0028580811 0.0633896 0.055005305
00000000: 7ddd 993c 4d9a 4fbc 426c e03b 4823 043d
00000010: 118d a6bc ee92 49bb b797 823c 95e0 c0bc
00000020: e747 cf3a d9c2 b73c 5424 33bc 5a61 57bc
00000030: 9c09 c43c a9ba 0d3d 6f38 3e3d ded5 49bc
00000040: a2cb 913d 94f8 133d 0f9a 47bc f9e6 97bc
00000050: 9379 09bd 9205 5e3c 98eb 863c b899 80bc
00000060: 01a8 d33c 6d18 033c e7f3 b83c a1cd b43c
00000070: 401f ed3b 5f6d ab3c 76d9 fbbc 8ead 40bd
00000080: 4b0a 2dbc a3aa eabb 1125 4d3d a66d ee3b
00000090: 101e e23c d19f 373d 8d0e 5c3b b739 7b3d
000000a0: 3848 a5bc 508f 1d3d 289b 9f3d 5b50 ecbc
000000b0: 3a42 373d 5015 f23b b1a6 d8bb c719 243c
000000c0: 427c c13c 6b33 2c3b 2559 973b 6316 c1b9
000000d0: fed0 3fbb 9c1c 80bc 1fe3 34bc 858f 12bc
000000e0: ed93 6c3c afde 2a3a 7ec5 0f3d a88b eb3c
000000f0: 5606 c6bb 26c5 513d 0fc5 3cbc 95a9 aabb
00000100: 67ea 9bbc d3b1 25bc 3c67 403b 796e 363d
00000110: 8c90 483c 8160 83bc 1edb b43c ab15 99bc
00000120: 222c a63c d34d 2a3d b8f7 ff3b 2f87 29bd
00000130: 21a9 0ebd 0dd8 b03c 40b1 493b 88b9 5fbc
00000140: 45e9 853c dc3c 603d 957f 96bc 6062 3e3d
00000150: ccd1 873d ae37 abbc 9d9a 04bd aa96 763d
00000160: be79 8c3c bd48 613d b875 f13c b017 843c
00000170: 1740 11bd fee4 88bc 9f71 7c3c 7ddf a7bb
00000180: d9c1 5fbb 3440 613b 292c fabc e3fb 0438
00000190: 4afa c63c 8a50 dfbc 4fa6 033c 8825 a5bb
000001a0: c904 5e3c d17e 343d 1b2a 7fbc 4abd ed3b
000001b0: a660 39bc 0d06 903d d6a7 693d f92a 1e3c
000001c0: 6eb2 a3bb 8b58 183d 2b36 103d 6c68 983c
000001d0: c3ea 863c e993 853d b6e2 0abb 4c40 a1bb
000001e0: 275f 8bbc a076 08bd fe84 95bc 2097 a43c
000001f0: 208b ad3d a54e 3b3b 68d2 813d 3e4d 613d

network_body._body_endoder.seq_layers.0.weight f4 [128, 18]
0.23024626 0.039390594 -0.12475062 0.10443141 0.20708941 0.10893858 -0.090580426 -0.09545733
-0.13420607 -0.51162416 0.024557168 0.1563556 -0.19849071 0.17756623 -0.00041055662 -0.2720612
-0.11381211 -0.13221923 -0.6618837 -0.12846607 -0.23999828 0.5034168 -0.17447555 0.33084986
0.44801474 -0.3147873 -0.16716833 -0.013144405 0.062950216 0.05476163 0.09610391 -0.24334508
0.5427385 0.35489395 -0.47564328 -0.059761025 0.024621919 0.3887609 0.4167459 -0.47439912
-0.39183232 0.34627095 0.24178492 0.27336547 0.043649256 -0.5404803 0.40073693 0.0429621
0.2185795 0.32741055 0.13045855 0.3937244 -0.62881863 -0.31961548 0.06970232 0.10521745
-0.22765803 0.17012827 0.005501814 -0.2237193 -0.09094433 -0.5246151 -0.09337501 0.28907418
-0.070693195 -0.114066586 0.26885694 -0.020925684 0.0040800995 0.10053651 0.123215154 0.004644566
-0.0610704 0.06770087 -0.19654667 0.12430195 0.24000344 0.24710129 -0.17455049 0.37926492
0.4441786 0.012080261 0.29804033 0.043388292 0.005494098 0.00799914 0.23992777 0.0064967684
0.19107026 -0.4530446 -0.09513277 -0.11900247 -0.029848937 0.16263397 0.065256536 -0.3583859
-0.36566603 0.3332074 -0.14386044 0.06710705 -0.037045497 0.063166894 -0.4099077 -0.11653419
-0.10025927 0.14678314 -0.08886358 -0.15031587 -0.28029096 -0.050928477 -0.26406768 0.062646575
-0.08214589 -0.37640136 0.43463406 0.050542254 0.23412775 0.26831865 0.71776 -0.05989898
-0.13307573 0.16190954 0.053855762 -0.118460536 0.35291666 0.44486365 -0.590781 -0.10758448
-0.13939206 0.36746898 0.08143326 0.21016845 -0.08674193 0.22249167 0.0069798864 -0.23507205
-0.27304864 0.23625346 -0.08748008 0.10735429 0.2877422 0.4748728 -0.033379655 0.15958723
0.44317484 -0.3658532 0.25626427 0.4510821 0.34464464 -0.07396059 0.55178756 -0.20647818
0.15253413 -0.11427526 -0.30901384 0.23859411 0.3499202 -0.28444764 0.36397254 0.44161516
-0.03402121 -0.2695098 -0.004839011 0.07974585 -0.042162463 0.0102374405 -0.14237027 -0.2434628
-0.036549203 -0.10104106 0.041719664 -0.036787912 0.14319678 0.13370717 0.053168666 0.074892156
-0.0050737155 -0.3749525 0.25315675 0.4477021 -0.13202623 0.017692616 0.052790977 0.25717202
0.19610238 -0.042658728 -0.12795396 0.48468825 0.27616534 -0.012880541 0.2665751 0.23302114
-0.010725033 0.14922082 0.24493013 0.5645966 0.07816784 -0.24294753 0.16160423 -0.1682316
-0.058095787 0.045512836 0.28343785 -0.017530853 0.2034719 0.09810773 0.33875403 0.03917903
0.2480668 -0.22961852 0.29077414 -0.030092062 -0.047001876 0.32819578 -0.04067148 -0.17151444
-0.32778838 -0.05813137 0.0901325 0.03450049 0.22389849 -0.5234416 -0.11017984 -0.31229737
-0.016584372 0.08633179 0.34952655 -0.026212376 0.30795047 0.16201916 0.040543675 0.012913597
0.15962248 0.38780776 -0.03193243 0.03186154 -0.008542723 -0.39574346 0.35468385 0.105143435
0.15495008 -0.15533808 -0.11715161 -0.39810824 0.100913346 0.15532109 0.42840692 0.11654645
-0.37017858 -0.16955648 -0.044376124 -0.23939037 -0.1472544 0.10569845 -0.4211247 -0.17126113
00000000: adc5 6b3e 0858 213d 417d ffbd 23e0 d53d
00000010: 3f0f 543e 311b df3d 3b82 b9bd 227f c3bd
00000020: 516d 09be cdf9 02bf 1d2c c93c af1b 203e
00000030: 2641 4bbe ecd3 353e fa3f d7b9 9b4b 8bbe
00000040: 5316 e9bd 7a64 07be 3671 29bf 9c8c 03be
00000050: 1cc2 75be ecdf 003f b8a9 32be 2765 a93e
00000060: 3062 e53e cd2b a1be 2d2e 2bbe a15b 57bc
00000070: 0bec 803d bb4d 603d 20d2 c43d 742f 79be
00000080: e9f0 0a3f a9b4 b53e 8487 f3be fac7 74bd
00000090: e8b3 c93c ab0b c73e b85f d53e 71e4 f2be
000000a0: 3f9e c8be 6d4a b13e 7796 773e 8ff6 8b3e
000000b0: 90c9 323d eb5c 0abf 642d cd3e 07f9 2f3d
000000c0: 4ed3 5f3e 5ba2 a73e ed96 053e 3f96 c93e
000000d0: 42fa 20bf a4a4 a3be 17c0 8e3d 3f7c d73d
000000e0: 301f 69be 1b36 2e3e 9048 b43b ac16 65be
000000f0: 0541 babd 2d4d 06bf 663b bfbd 8801 943e
00000100: 98c7 90bd be9b e9bd 9ea7 893e 576c abbc
00000110: 5bb2 853b 16e6 cd3d 3a58 fc3d 7231 983b
00000120: f524 7abd c1a6 8a3d 8843 49be 0592 fe3d
00000130: 76c3 753e 1f08 7d3e 5dbd 32be 032f c23e
00000140: 616b e33e 49ec 453c be98 983e ecb7 313d
00000150: d607 b43b d30e 033c a0af 753e d8e2 d43b
00000160: eca7 433e 76f5 e7be f8d4 c2bd 91b7 f3bd
00000170: c285 f4bc 8589 263e 38a5 853d 5b7e b7be
00000180: 9438 bbbe 299a aa3e 2750 13be 6c6f 893d
00000190: 05bd 17bd a55d 813d 6cdf d1be 7aa9 eebd
000001a0: bb54 cdbd 524e 163e 1cfe b5bd 67ec 19be
000001b0: 4c82 8fbe 619a 50bd e133 87be d94c 803d
000001c0: 1b3c a8bd aeb7 c0be 5b88 de3e 6505 4f3d
000001d0: 2fbf 6f3e 1061 893e 1fbf 373f a258 75bd
000001e0: 0145 08be 9dcb 253e dc97 5c3d 709b f2bd
000001f0: 7eb1 b43e 2bc5 e33e 6c3d 17bf 4055 dcbd
00000200: cbbc 0ebe e524 bc3e 7bc6 a63d 6636 573e
00000210: c1a5 b1bd dbd4 633e 88b7 e43b bab6 70be
00000220: 08cd 8bbe 6dec 713e c228 b3bd 91dc db3d
00000230: f252 933e 8722 f33e 1bb9 08bd d66a 233e
00000240: d0e7 e23e 1c51 bbbe 1235 833e 3cf4 e63e
00000250: 4375 b03e a678 97bd f341 0d3f 046f 53be
00000260: e831 1c3e 2609 eabd 1037 9ebe 0452 743e
00000270: be28 b33e 1fa3 91be 9c5a ba3e 621b e23e
00000280: d359 0bbd 30fd 89be 9190 9ebb cb51 a33d
00000290: 8cb2 2cbd f0ba 273c 83c9 11be 504e 79be
000002a0: 9eb4 15bd 9eee cebd 3de2 2a3d ecae 16bd
000002b0: 2da2 123e 88ea 083e 63c7 593d 0f61 993d
000002c0: 6941 a6bb c6f9 bfbe c39d 813e 3639 e53e
000002d0: e231 07be 1bf0 903c 5a3b 583d 0dac 833e
000002e0: 10cf 483e ebba 2ebd 5d06 03be 0f29 f83e
000002f0: 8b65 8d3e e808 53bc 887c 883e 189d 6e3e
00000300: 0cb8 2fbc 58cd 183e f7ce 7a3e 6789 103f
00000310: 7616 a03d 3dc7 78be 947b 253e e844 2cbe
00000320: d9f5 6dbd ab6b 3a3d c41e 913e dd9c 8fbc
00000330: f05a 503e b5ec c83d 2b71 ad3e 317a 203d
00000340: 3905 7e3e 1e21 6bbe 59e0 943e a183 f6bc
00000350: 0a85 40bd 4709 a83e 2397 26bd 7ba1 2fbe
00000360: e1d3 a7be 291b 6ebd 6397 b83d 6350 0d3d
00000370: a545 653e 4500 06bf f8a5 e1bd 71e5 9fbe
00000380: f3db 87bc b9ce b03d 25f5 b23e 56bb d6bc
00000390: afab 9d3e 5ae8 253e 2011 263d 8d93 533c
000003a0: 1374 233e bd8e c63e 94cb 02bd 3f81 023d
000003b0: c7f6 0bbc e39e cabe 1f99 b53e 7155 d73d
000003c0: 3cab 1e3e f210 1fbe 2fed efbd d8d4 cbbe
000003d0: a8ab ce3d 7e0c 1f3e 2758 db3e e8af ee3d
000003e0: 0c88 bdbe 37a0 2dbe bdc3 35bd c022 75be
000003f0: dcc9 16be 6e78 d83d a89d d7be 145f 2fbe

network_body._body_endoder.seq_layers.2.bias f4 [128]
0.034561787 -0.0066046845 0.031461578 -0.019055609 -0.040338993 -0.0049471217 -0.01431253 0.007172304
0.020483492 0.009818184 0.039917503 0.049416468 -0.007201138 -0.020495495 0.00014261462 0.015563476
-0.0018462886 -0.022039168 0.013347631 0.02912304 0.005309696 0.023349743 0.03278254 0.020455934
0.012304042 -0.010105327 0.03556582 0.031146983 -0.014991488 0.028891256 0.0229996 -0.019637575
0.042603098 0.019015497 0.0070568523 0.010188343 -0.015112517 0.025144948 -0.0042740633 0.02672985
0.024058105 0.013634205 -0.014453702 0.015082511 -0.013220988 -2.6591904e-05 -0.0053338776 0.011711585
0.021394162 0.020199021 0.013751263 0.017175205 -0.019794777 -0.015294496 0.003878262 0.0026194246
-0.010589608 -0.0365334 0.0057572536 0.016362397 0.056152638 -0.01918896 0.041129787 0.018867997
0.001280287 -0.016512906 0.021084325 0.0034730325 0.0076478887 -0.03573151 -0.0050660013 0.015839811
0.012883711 -0.004713846 -0.01435974 0.017984232 -0.003572323 0.03603391 0.043425113 0.0029033176
-0.029920481 0.026394805 -0.015597761 0.014645991 0.007693537 0.030023713 -0.016157107 0.0225793
-0.006569836 -0.023100333 -0.021500284 -0.01891778 0.02395764 -0.0078726085 -0.0031228997 -0.002778654
-0.016147114 0.02360833 -0.016793508 0.015054212 0.006172967 -0.0032972656 -0.010163572 0.00085824373
0.005885235 -0.0054640863 -0.013020419 0.035799876 0.028592646 -0.002723199 0.00031025606 -0.024437562
0.0039807693 0.003751946 -0.0038897516 -0.0062096077 -0.014909931 0.0077601974 -0.008848713 0.0032845607
0.002192836 0.00028459748 0.029067352 0.00422353 0.002878317 -0.021514595 0.00089450437 -0.019836135
00000000: a990 0d3d 1c6c d8bb dbdd 003d 821a 9cbc
00000010: 803a 25bd 771b a2bb 1a7f 6abc a605 eb3b
00000020: ffcc a73c 73dc 203c 8980 233d ec68 4a3d
00000030: 86f7 ebbb 2be6 a7bc d28a 1539 f3fd 7e3c
00000040: 2aff f1ba 7c8b b4bc 06b0 5a3c 7193 ee3c
00000050: f5fc ad3b f647 bf3c fc46 063d 3493 a73c
00000060: e496 493c d090 25bc 77ad 113d f527 ff3c
00000070: dc9e 75bc 5bad ec3c a869 bc3c fbde a0bc
00000080: 9680 2e3d 63c6 9b3c 2b3d e73b 02ed 263c
00000090: 7e9a 77bc c7fc cd3c 710d 8cbb 8ff8 da3c
000000a0: 8115 c53c 0062 5f3c 38cf 6cbc a31c 773c
000000b0: d89c 58bc ae11 dfb7 cfc7 aebb f3e1 3f3c
000000c0: cf42 af3c 6b78 a53c fa4c 613c 04b3 8c3c
000000d0: a828 a2bc c495 7abc 702a 7e3b a7aa 2b3b
000000e0: 0980 2dbc 0ca4 15bd 58a7 bc3b 6f0a 863c
000000f0: 4f00 663d 2a32 9dbc b577 283d 0f91 9a3c
00000100: 4ecf a73a 1346 87bc 09b9 ac3c d19b 633b
00000110: 249b fa3b 345b 12bd b300 a6bb 7ec2 813c
00000120: 3316 533c 9b76 9abb 1d45 6bbc ab53 933c
00000130: a21d 6abb 4b98 133d 88de 313d 9645 3e3b
00000140: cc1b f5bc eb39 d83c c08d 7fbc bdf5 6f3c
00000150: 111a fc3b 4af4 f53c e95b 84bc 39f8 b83c
00000160: c747 d7bb e93c bdbc 5d21 b0bc 76f9 9abc
00000170: d042 c43c 1dfc 00bc 90a9 4cbb 141a 36bb
00000180: f446 84bc 4266 c13c 8a92 89bc f1a5 763c
00000190: 9a46 ca3b f016 58bb 1c85 26bc c3fb 603a
000001a0: eed8 c03b 140c b3bb 9853 55bc e4a2 123d
000001b0: 203b ea3c b377 32bb dda9 a239 4831 c8bc
000001c0: 1d71 823b 35e3 753b 34eb 7ebb f779 cbbb
000001d0: c948 74bc 4149 fe3b 31fa 10bc c941 573b
000001e0: afb5 0f3b 0736 9539 a81e ee3c 8a65 8a3b
000001f0: 25a2 3c3b 603f b0bc 2c7d 6a3a 647f a2bc

network_body._body_endoder.seq_layers.2.weight f4 [128, 128]
0.042687137 -0.024720777 -0.062936105 0.08694747 -0.12663569 0.03443742 0.0142380465 0.07404446
-0.051128834 0.12165335 0.08328699 -0.252998 0.13572793 0.03527286 0.093747 0.014505108
0.034682397 0.102612115 -0.02285668 0.022054108 0.08925146 -0.051481806 0.08394171 -0.08455582
0.14000942 -0.06922351 -0.12846923 0.06082756 -0.27340454 0.160477 -0.016741455 -0.030617785
0.09931979 0.22076952 -0.08049226 -0.008036917 0.021470683 0.15837185 -0.015371921 0.022972995
0.0976312 0.026952896 0.07033393 0.03923516 0.024895495 -0.009078941 -0.034824833 0.10395651
-0.06638653 0.06447125 -0.15024084 -0.081593655 0.12005933 -0.12576014 -0.13738845 0.070247255
-0.14452748 -0.03748485 0.0007588066 0.18354538 -0.02466415 0.047118694 -0.112363435 -0.018716384
-0.04693067 -0.15360788 0.0065631266 0.19419436 -0.25659505 0.07719815 -0.08767005 0.1498541
-0.004573121 0.17048968 0.077961296 0.10091871 0.0002793499 0.097577184 -0.05538894 -0.011660658
-0.026186628 0.13369188 -0.013093792 0.15993902 0.15559976 -0.07080666 -0.07430732 -0.05425785
0.039047096 0.13181332 -0.14297861 -0.02680665 0.045559883 0.027061243 -0.117007755 -0.027328989
-0.09771726 0.08089507 0.02478225 -0.074823275 0.08333708 -0.086162254 -0.07802558 0.13486494
-0.07719044 -0.03782012 -0.06069185 -0.034146063 -0.017300038 0.1047474 0.008068518 0.08618636
0.13318695 0.026841976 0.21005385 -0.1353344 -0.093838 0.009206236 0.0018356283 -0.0012571164
0.0034360331 -0.0008524747 -0.050028455 0.06763291 -0.022565288 0.07559393 0.085514955 -0.07089652
0.044400312 0.120322056 0.080516405 0.034884833 -0.16287625 0.07451325 -0.060615998 -0.022957828
0.1158016 0.08561524 0.13762754 -0.014132511 0.02845719 -0.08600014 -0.073304474 0.14158794
-0.080287516 0.055754606 0.056771386 0.006533386 -0.013716574 0.11774395 -0.1363093 0.017200887
0.038878098 0.17754202 -0.05787122 -0.12525693 0.10417999 0.031089962 0.17004363 0.021274162
-0.23214795 -0.061555542 -0.10216257 0.036796954 -0.05865855 -0.030034704 0.12538974 -0.11324613
0.06354481 -0.04306256 -0.050097793 0.13820787 -0.15794568 0.0079296315 -0.008859195 -0.027041797
0.005649849 -0.018650515 -0.0028649515 0.0927389 0.13016276 0.053519137 0.05119668 -0.013530515
-0.11078336 -0.036699325 -0.07113296 -0.05934979 0.03574121 0.011301699 0.05328265 0.034512084
0.15870523 0.13811186 0.14502087 -0.15552178 -0.13913812 -0.03661371 -0.028240278 0.08883968
-0.124531455 0.095773034 -0.047877476 -0.0039566555 0.035907358 -0.005836952 0.01572149 0.14657715
0.08590672 -0.019827107 0.03646157 -0.08021971 -0.099189274 0.044002876 -0.04950033 -0.08621898
0.0738515 -0.06531489 -0.0794727 -0.070277184 -0.13791215 -0.023690842 0.0076196436 0.026814112
0.07900472 0.12194763 0.047968533 0.06638879 -0.14297819 0.021907559 -0.10375684 0.1023314
0.042377446 -0.071868226 0.052652057 -0.07345273 0.021134583 0.040870048 -0.0008720057 -0.076004736
-0.07771151 -0.11298312 -0.13956608 -0.006093671 -0.0763454 -0.012190928 0.09630458 0.06265327
0.08154669 -0.030607224 -0.14311996 0.06693849 0.1250767 0.0011470545 -0.009933353 0.109135926
00000000: b5d8 2e3d 3a83 cabc a5e4 80bd 8411 b23d
00000010: c9ac 01be 410e 0d3d b246 693c 9fa4 973d
00000020: 786c 51bd 6425 f93d 5f92 aa3d f488 81be
00000030: 43fc 0a3e 467a 103d 6dfe bf3d d5a6 6d3c
00000040: 210f 0e3d 4d26 d23d ef3d bbbc d1aa b43c
00000050: 78c9 b63d 96de 52bd a2e9 ab3d 9a2b adbd
00000060: a15e 0f3e 0ec5 8dbd 708d 03be 5226 793d
00000070: aefb 8bbe 1554 243e 6025 89bc 26d2 fabc
00000080: 2d68 cb3d 6811 623e 20d9 a4bd 46ad 03bc
00000090: 49e3 af3c 3b2c 223e 82da 7bbc dd31 bc3c
000000a0: def2 c73d 52cc dc3c 3c0b 903d 0cb5 203d
000000b0: a3f1 cb3c d7bf 14bc 7ca4 0ebd 27e7 d43d
000000c0: a9f5 87bd 8109 843d bcd8 19be 931a a7bd
000000d0: aae1 f53d 44c7 00be 8faf 0cbe cbdd 8f3d
000000e0: 03ff 13be b789 19bd a6ea 463a 52f3 3b3e
000000f0: 790c cabc 88ff 403d cd1e e6bd 1a53 99bc
00000100: 603a 40bd 624b 1dbe 7f0f d73b e3da 463e
00000110: 6d60 83be 101a 9e3d 5b8c b3bd 5a73 193e
00000120: 1fda 95bb d994 2e3e 2caa 9f3d 78ae ce3d
00000130: b575 9239 8cd6 c73d 83df 62bd 580c 3fbc
00000140: 5785 d6bc 86e6 083e 5887 56bc 0ec7 233e
00000150: 8b55 1f3e 1503 91bd 702e 98bd 7b3d 5ebd
00000160: d9ef 1f3d 12fa 063e fc68 12be 9f99 dbbc
00000170: 009d 3a3d 8aaf dd3c c3a1 efbd 0be1 dfbc
00000180: fd1f c8bd 51ac a53d 2504 cb3c f23c 99bd
00000190: a2ac aa3d d675 b0bd e0cb 9fbd 091a 0a3e
000001a0: 0516 9ebd 45e9 1abd 0498 78bd bedc 0bbd
000001b0: cfb8 8dbc ce85 d63d d131 043c 7982 b03d
000001c0: 2962 083e b4e3 db3c 5b18 573e 1a95 0abe
000001d0: 232e c0bd c1d5 163c 7799 f03a d4c5 a4ba
000001e0: 122f 613b 9c78 5fba a3ea 4cbd 2083 8a3d
000001f0: d7da b8bc fed0 9a3d 7722 af3d 3232 91bd
00000200: 1add 353d 696b f63d c9e5 a43d 66e3 0e3d
00000210: 08c9 26be 679a 983d 7b48 78bd 0e12 bcbc
00000220: 6429 ed3d 0b57 af3d 3cee 0c3e 0c8c 67bc
00000230: 0e1f e93c d720 b0bd a820 96bd 6efc 103e
00000240: c86d a4bd f15e 643d 1d89 683d 0416 d63b
00000250: 7bbb 60bc bd23 f13d aa94 0bbe e0e8 8c3c
00000260: a43e 1f3d 93cd 353e 5f0a 6dbd 5a43 00be
00000270: 525c d53d 60b0 fe3c eb1f 2e3e 2747 ae3c
00000280: 31b8 6dbe aa21 7cbd 9c3a d1bd 67b8 163d
00000290: f343 70bd 570b f6bc 2b66 003e 96ed e7bd
000002a0: c823 823d 5e62 30bd 5833 4dbd 5d86 0d3e
000002b0: 83bc 21be 49eb 013c 2826 11bc c286 ddbc
000002c0: 5e22 b93b f7c8 98bc e9c1 3bbb e4ed bd3d
000002d0: 6349 053e e236 5b3d 9cb3 513d 18af 5dbc
000002e0: 63e2 e2bd 0852 16bd 28ae 91bd c418 73bd
000002f0: 6065 123d c32a 393c e83e 5a3d 8b5c 0d3d
00000300: a083 223e 326d 0d3e 5a80 143e 1a41 1fbe
00000310: 397a 0ebe 42f8 15bd 2858 e7bc 94f1 b53d
00000320: 590a ffbd a724 c43d 2c1b 44bd d5a6 81bb
00000330: 9813 133d e743 bfbb 5bca 803c 5218 163e
00000340: ddef af3d 756c a2bc ba58 153d 3b4a a4bd
00000350: bf23 cbbd 5c3c 343d dcc0 4abd 9493 b0bd
00000360: 753f 973d d0c3 85bd 95c2 a2bd 7ced 8fbd
00000370: d838 0dbe 4c13 c2bc 34ae f93b 45a9 db3c
00000380: 3acd a13d aebf f93d a77a 443d d9f6 873d
00000390: e068 12be 7b77 b33c 777e d4bd 2093 d13d
000003a0: f993 2d3d a62f 93bd afa9 573d 636e 96bd
000003b0: 6f22 ad3c 5a67 273d 5097 64ba 5fa8 9bbd
000003c0: 3627 9fbd b263 e7bd 69ea 0ebe 6bad c7bb
000003d0: fa5a 9cbd 75bc 47bc 563b c53d 5c50 803d
000003e0: f301 a73d 00bc fabc 0a8e 12be 0c17 893d
000003f0: 1b14 003e c358 963a 81bf 22bc a882 df3d

network_body._body_endoder.seq_layers.4.bias f4 [128]
0.004239714 -0.024785174 0.0063311155 -0.012435983 0.014166937 0.032168962 0.0048596975 0.024628693
0.017747218 -0.013607088 -0.0113185225 0.017476471 0.02073661 -0.0006530304 -0.013283416 0.006465833
-0.0005259373 0.0015099148 0.0002573633 0.008814942 0.018919002 0.016137837 0.011784293 0.007995165
0.031972546 0.011954235 -0.024773078 0.025239808 0.01785336 0.031007418 -0.0018362642 -0.0023358178
-0.0051525934 -0.009808131 0.012974552 -0.01114414 -0.0137282675 0.010526548 0.028113266 -0.0048083174
-0.014940105 -0.020526595 0.018380594 -0.014891286 -0.01264422 0.009493155 -0.006448244 -0.0164635
0.012962717 0.031144638 0.020143235 0.016819077 0.01782761 -0.007204938 -0.0007691903 0.03517981
0.02878667 -0.0008794437 -0.002514435 0.011777127 0.016132161 -0.01104425 0.014991446 -0.0074395156
0.03420617 0.004539129 -0.025101194 0.029017117 -0.009227817 0.028124958 0.019769933 0.008477457
0.007041565 0.011460855 0.0015128277 0.02516188 0.003831259 -0.0032751914 0.0117072435 0.006386574
-0.017729325 -0.046778757 -0.00024633293 0.008319205 -0.0027707736 -0.0013576493 0.0027036953 0.007745034
-0.0010744056 0.03300988 0.021678755 0.018043935 -0.027292406 0.010036219 -0.0041044485 0.05050937
0.00020382275 -0.0049360357 0.0143640665 0.0056575644 0.008640642 0.0024884795 -0.011930409 -0.002863772
0.022277653 0.0017083167 0.0050415383 0.003329892 0.0019035841 -0.015854392 -0.008418265 -0.009485789
-0.019649643 0.033586774 0.01214488 0.024491258 -0.0050498648 0.0070722876 0.0010171187 -0.02857721
-0.017636491 0.01217208 -0.016424695 0.048389483 -0.005825991 0.0070343427 0.022139058 -0.0067982418
00000000: 4ced 8a3b 470a cbbc 3f75 cf3b 4bc0 4bbc
00000010: 711c 683c 9ac3 033d 193e 9f3b 1dc2 c93c
00000020: 9d62 913c 43f0 5ebc 5371 39bc d12a 8f3c
00000030: d3df a93c 2130 2bba afa2 59bc 57df d33b
00000040: 0edf 09ba 55e8 c53a b8ee 8639 8c6c 103c
00000050: 06fc 9a3c 7f33 843c e812 413c 27fe 023c
00000060: a5f5 023d b2db 433c e9f0 cabc b7c3 ce3c
00000070: 3641 923c 4503 fe3c cdae f0ba 8514 19bb
00000080: 16d7 a8bb 48b2 20bc 3793 543c e995 36bc
00000090: 87ec 60bc 8b77 2c3c cb4d e63c 178f 9dbb
000000a0: 58c7 74bc 6427 a8bc e692 963c 95fa 73bc
000000b0: b429 4fbc 2e89 1b3c cb4b d3bb 76de 86bc
000000c0: 9361 543c 0a23 ff3c 6d03 a53c 29c8 893c
000000d0: 350b 923c 6717 ecbb 7da3 49ba b418 103d
000000e0: 06d2 eb3c 788a 66ba 38c9 24bb daf4 403c
000000f0: 9827 843c f1f2 34bc af9e 753c 2ec7 f3bb
00000100: c51b 0c3d f9bc 943b 05a1 cdbc 4eb5 ed3c
00000110: 4530 17bc 5066 e63c 8ef4 a13c 08e5 0a3c
00000120: eebc e63b 4fc6 3b3c 134a c63a 4920 ce3c
00000130: dc15 7b3b 98a4 56bb bdcf 3f3c 7746 d13b
00000140: 173d 91bc 159b 3fbd 3f26 81b9 464d 083c
00000150: de95 35bb 27f3 b1ba 7b30 313b 0eca fd3b
00000160: 12d3 8cba 5e35 073d a597 b13c e0d0 933c
00000170: 5394 dfbc f46e 243c 9c7e 86bb eae2 4e3d
00000180: 41b9 5539 78be a1bb 4357 6b3c 1763 b93b
00000190: 7b91 0d3c c215 233b c377 43bc 1fae 3bbb
000001a0: a07f b63c 99e9 df3a 7d33 a53b 513a 5a3b
000001b0: af81 f93a 12e1 81bc c3ec 09bc 486a 1bbc
000001c0: 4af8 a0bc 4992 093d 52fb 463c e4a1 c83c
000001d0: 5679 a5bb a6be e73b d750 853a c11a eabc
000001e0: 677a 90bc 676d 473c 158d 86bc 0d34 463d
000001f0: f4e7 bebb 5880 e63b f85c b53c c9c3 debb
