results/SeekerAgent/SeekerAgent/SeekerAgent-28826.pt (torch, 876479 bytes, 48 tensors)

network_body._body_endoder.seq_layers.0.weight f4 [128, 18]
0	0x3da3e4c7	0.0800262
1	0xbe353ef3	-0.17699794
2	0xbda97914	-0.08275047
3	0xbdd953bc	-0.10611674
4	0xbc0acca3	-0.008471641
5	0xbdc29316	-0.09500711
6	0xbebb1ad6	-0.36543912
7	0xbe2e1dec	-0.17003602
8	0x3dbd33a0	0.09238362
9	0xbdc0d369	-0.09415323
10	0xbead3ed6	-0.33837003
11	0x3e9ee889	0.31036785
12	0xbdbdfcdd	-0.092767455
13	0xbdc2a2f8	-0.0950374
14	0x3dea9a61	0.11455227
15	0xbe9f47f6	-0.3110959
16	0xbe3b3b6c	-0.18284386
17	0x3e6fb147	0.2340747
18	0x3e24bbb4	0.16087228
19	0xbda99385	-0.0828009
20	0xbdd2d1a9	-0.10293896
21	0x3cc58125	0.024109432
22	0xbe387c50	-0.18016171
23	0x3ebf04b3	0.37308273
24	0xbe1a3e03	-0.15062718
25	0xbe07962e	-0.13240883
26	0x3eac8f7f	0.3370323
27	0xbe01897c	-0.12650102
28	0xbe05f2d2	-0.1308091
29	0x3eb4f970	0.35346556
30	0x3e0c2b67	0.13688432
31	0x3e3e3af3	0.18577175
32	0xbe0e5283	-0.13898663
33	0x3d0e0114	0.034668997
34	0x3cb6f993	0.022335803
35	0xbe71413f	-0.23560046
36	0x3d30844d	0.04309492
37	0xbcce6087	-0.025192512
38	0xbe9d2340	-0.30690956
39	0x3e650d96	0.22368464
40	0x3e1fc423	0.15602164
41	0xbd83e9ce	-0.06441079
42	0x3dbb6d12	0.09151663
43	0x3da1205a	0.07867499
44	0xbea74103	-0.32666788
45	0x3da0c4cd	0.07850037
46	0xbe16a350	-0.14710736
47	0xbe0294bd	-0.12752052
48	0xbed585f4	-0.4170376
49	0x3d7e9cbf	0.062161203
50	0x3e458cb8	0.19291961
51	0xbe14fdb0	-0.14549899
52	0xbd108143	-0.035279524
53	0x3e52ffef	0.20605443
54	0xbf014c9c	-0.5050752
55	0xbe9d763e	-0.30754274
56	0x3d9b0611	0.075695165
57	0xbeeeb963	-0.46625814
58	0xbe8104f7	-0.251991
59	0x3e0d7f73	0.1381815
60	0xbe12d9e9	-0.14340939
61	0x3e385058	0.17999399
62	0x3ec5d0d5	0.3863589
63	0x3db94649	0.09046609
64	0xbefcb3f9	-0.49356058
65	0x3df4f146	0.11960082
66	0xbdba07cd	-0.09083519
67	0x3d7e193c	0.062035784
68	0xbe8f743b	-0.28018364
69	0x3e5636e9	0.20919384
70	0x3e572ad0	0.21012425
71	0xbea0e715	-0.31426302
72	0x3ec2dfc1	0.38061336
73	0x3ea0f355	0.31435648
74	0xbe3a279f	-0.18179177
75	0xbd603290	-0.05473572
76	0x3e4d9057	0.20074593
77	0x3be0ab72	0.0068563754
78	0x3b9981ba	0.004684654
79	0x3e27e570	0.16396117
80	0xbd856f4b	-0.06515368
81	0x3ebe5694	0.3717543
82	0xbd4a519e	-0.049394242
83	0x3e8acb80	0.27108383
84	0x3eda9928	0.42694974
85	0xbe463c39	-0.1935891
86	0x3e123689	0.14278616
87	0xbe5f9334	-0.21833497
88	0x3f0187d6	0.50597894
89	0x3e9ea481	0.30984882
90	0x3c8791cf	0.01654902
91	0xbf04a35f	-0.51811785
92	0xbeafaca1	-0.34311393
93	0x3e045b41	0.12925436
94	0xbd7f7fde	-0.062377803
95	0x3b52c823	0.0032162748
96	0xbdeb1bb2	-0.11479892
97	0x3d828ace	0.06374131
98	0x3d2f634b	0.042819303
99	0x3eb15f36	0.34642953
100	0xbd1e2e05	-0.038618106
101	0xbe9463fc	-0.28982532
102	0x3dd016b8	0.10160583
103	0xbecbc6b4	-0.39800036
104	0xbea66676	-0.32500046
105	0x3e109079	0.14117612
106	0xbcc9eed4	-0.024650015
107	0xbefbde07	-0.4919283
108	0x3eb2c8be	0.3491878
109	0x3dd69023	0.10476711
110	0x3dba86b5	0.091077246
111	0xbe911fc0	-0.28344536
112	0x3eda5de6	0.42649764
113	0xbcf3df64	-0.029769607
114	0xbb3f5692	-0.0029195887
115	0xbe51babf	-0.20481394
116	0x3e8be11a	0.27320176
117	0x3f0fc1ef	0.56155294
118	0xbdd85b38	-0.105642736
119	0xbebaa733	-0.36455688
120	0x3e04c67f	0.12966345
121	0x3f0a3f1c	0.5400255
122	0xbd913122	-0.070894495
123	0x3f2e5eca	0.68113387
124	0x3dd1a140	0.10235834
125	0xbee92b11	-0.4554067
126	0xbe3364c5	-0.1751891
127	0x3d5dd06a	0.054153837
128	0xbe534d3b	-0.2063493
129	0xbd8ceacc	-0.068807214
130	0xbd401afd	-0.046900738
131	0xbd059001	-0.032608036
132	0x3e37abb7	0.17936598
133	0xbd3347c3	-0.04376961
134	0xbe8e2e15	-0.27769533
135	0xbe0db0d2	-0.13836983
136	0x3e940c46	0.28915614
137	0x3ebd822d	0.3701338
138	0x3e69804b	0.22802846
139	0xbda10926	-0.07863073
140	0xbce5c366	-0.028047275
141	0x3e71f470	0.23628402
142	0xbe9dc579	-0.30814722
143	0x3ed38670	0.41313505
144	0xbdb86e73	-0.090054415
145	0x3eb9530d	0.36196175
146	0xbedca6c9	-0.43095997
147	0xbebfa671	-0.37431672
148	0xbe06715d	-0.13129182
149	0x3d737f7e	0.059447758
150	0x3de45155	0.11148325
151	0x3dd5b326	0.104345605
152	0x3e2686ca	0.16262355
153	0x3d81c3e2	0.0633619
154	0x3e566a43	0.20938973
155	0xbe7302f2	-0.23731592
156	0xbdfd35cc	-0.123637766
157	0xbd00463d	-0.031316984
158	0x3ec5ceb4	0.38634264
159	0x3e4ef31e	0.2020993
160	0xbecf8483	-0.40530786
161	0x3e257ccb	0.16160886
162	0x3e8237dd	0.25433245
163	0xbe0b07b9	-0.13577165
164	0xbe6b96ee	-0.23006794
165	0xbe05dd5c	-0.13072723
166	0xbeac9b65	-0.33712307
167	0x3ec8cf8c	0.39220846
168	0xbcf24197	-0.029572291
169	0x3caf1f00	0.021377087
170	0x3e667aa5	0.22507723
171	0xbcbcf342	-0.023065213
172	0xbe46b586	-0.19405183
173	0xbe02e48a	-0.12782493
174	0x3e04cf40	0.12969685
175	0xbd1d6b15	-0.0384322
176	0xbe60305d	-0.21893449
177	0xbe1303a7	-0.14356862
178	0xbb127c93	-0.0022352084
179	0xbd381880	-0.04494524
180	0x3cdbc6bf	0.026828168
181	0x3da5906c	0.08084187
182	0xbe2568c9	-0.16153254
183	0x3e05be23	0.13060813
184	0x3e095de8	0.13414729
185	0xbd11c55c	-0.035588607
186	0x3df7e946	0.1210504
187	0x3e872a8f	0.26399657
188	0x3eb80854	0.35943854
189	0x3daa8358	0.08325833
190	0xbd982705	-0.074293174
191	0xbebf3677	-0.3734624
192	0xbe755b79	-0.23960675
193	0x3e28e3c3	0.16493134
194	0xbe27ba2a	-0.1637961
195	0xbe8cffe5	-0.27538982
196	0x3f10a42e	0.5650052
197	0xbe43437b	-0.1906871
198	0xbe61a50b	-0.22035615
199	0x3e166ebe	0.14690682
200	0x3db15f31	0.086607344
201	0x3e9b10d9	0.3028629
202	0x3e05839c	0.13038486
203	0xbf1c08a9	-0.60950714
204	0xbe00cd28	-0.12578261
205	0xbdb14437	-0.08655589
206	0xbd9cefb8	-0.0766291
207	0x3ebc3352	0.36757904
208	0xbef18036	-0.4716813
209	0x3d9beeb6	0.0761389
210	0xbe91f756	-0.28509015
211	0x3e605492	0.21907261
212	0xbe10a13b	-0.14124005
213	0xbd8a3852	-0.067490235
214	0xbe868c1d	-0.26278773
215	0x3de75a2b	0.11296495
216	0x3ed999c5	0.4250013
217	0x3cf71c4b	0.030164858
218	0x3ed2f4be	0.41202348
219	0xbe6780f5	-0.22607787
220	0x3c3d3591	0.011548416
221	0x3e4a99a5	0.19785173
222	0x3e6dc6d4	0.23220378
223	0xbef83c87	-0.4848368
224	0x3ec01db9	0.37522677
225	0xbdaf4e9a	-0.08559914
226	0x3e987c22	0.29782206
227	0xbe99721b	-0.29969868
228	0xbe298ed8	-0.16558397
229	0x3f2c0835	0.6720002
230	0x3cb68249	0.022278922
231	0x3db425ba	0.08796258
232	0x3c345037	0.011005453
233	0xbec45ba5	-0.3835117
234	0x3e45909c	0.19293445
235	0xbeab8b75	-0.33504835
236	0x3e505bdf	0.20347546
237	0x3ece6195	0.40308824
238	0xbe4fe773	-0.20303135
239	0x3e9127a4	0.28350556
240	0xbd9f2838	-0.07771343
241	0xbe99d31c	-0.30043876
242	0xbe62542a	-0.22102419
243	0x3c37e555	0.011224111
244	0xbe3d61ad	-0.18494292
245	0xbe575e23	-0.21032004
246	0xbe75f4b4	-0.24019128
247	0xbdb033c9	-0.08603627
248	0xbe2a1f1f	-0.16613434
249	0xbd969ac1	-0.07353736
250	0x3e6a9439	0.22908105
251	0xbd7c07c6	-0.06153085
252	0xbe003fd2	-0.12524346
253	0x3e53045c	0.20607132
254	0x3ec01a6b	0.37520155
255	0x3e7cb524	0.24678475

network_body._body_endoder.seq_layers.0.bias f4 [128]
0	0xbc332743	-0.010934654
1	0x3b5bf176	0.003356067
2	0x3be09dce	0.0068547493
3	0xbc69133c	-0.014225777
4	0xbb4e45a5	-0.0031474617
5	0xbc258324	-0.010102067
6	0x3be704b1	0.00705012
7	0x3c8378b2	0.016048763
8	0x3c8dc5be	0.017306205
9	0xbc4f646f	-0.012658223
10	0xbbfdd630	-0.0077464804
11	0x3c09d34e	0.008412195
12	0x3b509fbf	0.0031833497
13	0xbc425012	-0.011859911
14	0x3b412d47	0.002947645
15	0xbaf46f1a	-0.0018648834
16	0xbc1da91e	-0.00962284
17	0x3c1116b7	0.008855513
18	0xbccdff5f	-0.025146184
19	0xbc1b2dfe	-0.009471415
20	0xbc7150bb	-0.01472872
21	0xbba437ff	-0.005011558
22	0x3bd1bd52	0.0064007426
23	0x3b7a8f71	0.003823247
24	0x3b9aac5a	0.004720253
25	0xbc0bbf51	-0.0085295
26	0xbbfa89f7	-0.007645841
27	0xbc3c0c1d	-0.011477497
28	0x3c4e9061	0.012607665
29	0x3a5cb347	0.00084190484
30	0xbbf281c7	-0.0074007246
31	0x3c31aed8	0.010844909
32	0x3c771bad	0.015082282
33	0x3c57407f	0.013137936
34	0xbb866c08	-0.004102234
35	0x3b8ced19	0.004300725
36	0x3c048e7b	0.008090611
37	0xbc1ddaa4	-0.0096346475
38	0x3c87fb8b	0.016599437
39	0x3c170439	0.009217315
40	0x3c64f089	0.013973364
41	0xbc85d5de	-0.016337331
42	0xbb708d82	-0.003670544
43	0xbc495973	-0.012289393
44	0xbaf72c03	-0.0018857721
45	0x3c10d478	0.008839719
46	0xbc4638e8	-0.012098528
47	0xbb833707	-0.0040043625
48	0xbc673a63	-0.014113042
49	0x3c220ce2	0.009890767
50	0xbace4357	-0.0015736622
51	0xbb258804	-0.0025258074
52	0x3be28ac5	0.0069135153
53	0x3b1a4e6c	0.0023545278
54	0x3be84d17	0.007089268
55	0xbbce4097	-0.006294321
56	0x3b80aac3	0.0039266064
57	0x3c967845	0.018367896
58	0xbbf7e745	-0.0075654113
59	0x3c05d2c3	0.008167925
60	0xbc0ca8fe	-0.008585213
61	0xbbdad8ff	-0.0066787
62	0x3b496b52	0.0030734134
63	0xbc9aacd0	-0.018881232
64	0xbb1c93ad	-0.0023891733
65	0x3aaae2b8	0.0013037538
66	0x3b96e4ac	0.0046048965
67	0xbc0e1ce1	-0.008673877
68	0x3b7e6048	0.0038814712
69	0xbc1dce8c	-0.009631764
70	0xbc3ffaf5	-0.011717548
71	0x3bd6b6bc	0.0065525454
72	0xbbc3dbd0	-0.0059771314
73	0xbadfe070	-0.0017080437
74	0x3bfa3e6c	0.007636836
75	0x3c2b9283	0.010471943
76	0xbc46138e	-0.012089623
77	0xbc8d5f11	-0.017257245
78	0x3c66c067	0.014083958
79	0xbc603f50	-0.01368697
80	0x3cb3650c	0.021898769
81	0xbb3978c0	-0.0028300732
82	0x3c1e40b0	0.009658977
83	0xbbb3d6bb	-0.0054882444
84	0xb96aff50	-0.0002241109
85	0xbc618d2b	-0.013766567
86	0x3c1b2b5b	0.009470786
87	0xbc4ab9c1	-0.012373389
88	0x3c53673a	0.012903029
89	0xbcc2c7b0	-0.023776859
90	0xbc2b2f02	-0.010448219
91	0x3c20aede	0.009807317
92	0x3c6034c8	0.013684459
93	0x3c7b4bac	0.015337866
94	0xb9e949e4	-0.00044496276
95	0x3c13f84b	0.009031366
96	0x3c723a5b	0.014784421
97	0xbc279309	-0.010227927
98	0xbc56174e	-0.01306708
99	0xbc95bb44	-0.018277772
100	0x3c8b61b3	0.01701436
101	0xbc4ce3a4	-0.012505446
102	0x3c160297	0.009155891
103	0x3ba99b22	0.005175964
104	0xbbf9c4c5	-0.0076223337
105	0xbbdec2b0	-0.006798111
106	0xbc511598	-0.012761496
107	0xbc0a3433	-0.008435297
108	0xbc5b14d5	-0.013371666
109	0x3c549004	0.012973789
110	0x3b886747	0.0041627022
111	0xbb40b014	-0.0029401826
112	0x3bafb363	0.0053619607
113	0x3c068044	0.008209292
114	0xbbc2ac3b	-0.0059409416
115	0xbbdeb8aa	-0.006796916
116	0xbc0365ee	-0.008019907
117	0xbc65bedf	-0.014022558
118	0x3c05108f	0.008121624
119	0x3bd441a7	0.006477553
120	0x39314d15	0.0001690875
121	0x3c8a7095	0.016899386
122	0x3c77e923	0.015131268
123	0xbb235f27	-0.0024928541
124	0x3b031528	0.0020001624
125	0x3c5b2e07	0.013377673
126	0x3c63f2a8	0.013912834
127	0xbb6f6fca	-0.0036535137

network_body._body_endoder.seq_layers.2.weight f4 [128, 128]
0	0xbafd51ca	-0.0019326743
1	0xbd44a8af	-0.04801243
2	0xbb680989	-0.0035406074
3	0xbe07e246	-0.1326991
4	0xbccacdca	-0.024756331
5	0xbe25cb5c	-0.16190857
6	0xbddc80dc	-0.107667655
7	0x3b1c6d33	0.0023868799
8	0x3d9857f5	0.074386515
9	0x3d1da70c	0.038489386
10	0x3df0bc66	0.11754684
11	0x3e4b24be	0.19838235
12	0x3d09635b	0.03354202
13	0x3cf97cdb	0.030455044
14	0xbd909e1a	-0.070614055
15	0xbdcb96ce	-0.09940873
16	0xbd7d5c85	-0.06185581
17	0xbd3143d5	-0.04327758
18	0xbba720dd	-0.005100353
19	0x3e25a8e4	0.16177708
20	0x3c8023f5	0.015642146
21	0x3b7b2201	0.0038319828
22	0xbb2cb852	-0.002635498
23	0x3deb29c9	0.11482579
24	0xbcb24007	-0.021759046
25	0x3d46bd07	0.048520114
26	0xbc267c39	-0.010161453
27	0xbd393d5f	-0.045224544
28	0xbdaa200a	-0.08306892
29	0x3d26f5b5	0.04076167
30	0x3c98e85d	0.018665487
31	0x3c641113	0.013920086
32	0x3d85c934	0.06532517
33	0x3b08e3b9	0.0020887686
34	0xbd2f260d	-0.042760897
35	0x3ca52282	0.020158056
36	0xbe186721	-0.1488309
37	0x3d4c88ba	0.04993508
38	0x39ffc6d6	0.00048785534
39	0x3e6bf75d	0.2304358
40	0x3c61ce10	0.013782039
41	0x3d92955f	0.071573965
42	0x3c9c37b3	0.019069528
43	0x3c094385	0.008377914
44	0xbe1206e0	-0.14260435
45	0x3dfc8ab4	0.12331143
46	0x3d81127b	0.06302353
47	0xbde5431d	-0.111944415
48	0xbd60be25	-0.054868836
49	0x3d8ead47	0.06966644
50	0x3da73a04	0.081653625
51	0x3dbda452	0.09259857
52	0xbd1beaeb	-0.038065832
53	0x3d8267a2	0.06367423
54	0x3d4e4132	0.050355144
55	0x3d420640	0.04736924
56	0xbc408a39	-0.011751705
57	0x3e0b9037	0.13629232
58	0xbd9e74c8	-0.07737118
59	0x3e1deddd	0.15422769
60	0x3e23cec7	0.15996848
61	0xbe01bcb8	-0.12669647
62	0x3e544eb1	0.20733143
63	0xbda0595e	-0.078295454
64	0x3d6b230d	0.057406474
65	0x3d8a0a66	0.067402646
66	0xbe51f52f	-0.20503686
67	0xbccd4fa1	-0.025062384
68	0x3e23ca2d	0.15995093
69	0xbc7b0146	-0.015320128
70	0x3c5e518a	0.013569245
71	0xbe08f3b2	-0.13374212
72	0xbccf9080	-0.025337458
73	0xbdcdb2d1	-0.10043872
74	0xbdeac0be	-0.11462544
75	0xbd0675ad	-0.032827068
76	0x3db9882a	0.09059174
77	0xbd3f8267	-0.04675522
78	0xbde8191d	-0.11332915
79	0xbe23c431	-0.1599281
80	0xbd2aa3d4	-0.041660145
81	0x3a55b716	0.0008152587
82	0x3cb36bf4	0.021902062
83	0x3b93b332	0.0045074457
84	0x3e47cf46	0.19512662
85	0xbdb675df	-0.08909201
86	0xbe1a71d3	-0.15082483
87	0xbd5e87dc	-0.054328784
88	0xbbc6f73d	-0.0060719536
89	0xbe166929	-0.14688553
90	0xbd742200	-0.059602737
91	0x3dc0e355	0.0941836
92	0x3d449279	0.04799125
93	0x3b2e94d2	0.0026638997
94	0xbd901ac8	-0.07036358
95	0xbdb51b91	-0.088431485
96	0xbe604a8a	-0.21903434
97	0xbe0697ca	-0.1314384
98	0x3e39b615	0.18135865
99	0x3e2d3240	0.169137
100	0x3d87b609	0.06626517
101	0xbd883954	-0.066515595
102	0xbddbb552	-0.107279435
103	0xbd9d42c9	-0.07678754
104	0xbe28a098	-0.16467512
105	0x3e0cf2d0	0.137645
106	0xbe70cd12	-0.23515728
107	0x3cd62fcc	0.026145838
108	0xbdc8833d	-0.09790657
109	0xbd350c83	-0.044201385
110	0x3d2727c0	0.040809393
111	0x3ce5b20a	0.028038997
112	0x3a0b334d	0.00053100736
113	0xbdb85dc4	-0.090022594
114	0x3cb62057	0.022232218
115	0xbdbca2cd	-0.09210739
116	0x3d883b20	0.06651902
117	0xbd8ce046	-0.06878714
118	0x3d89a4ee	0.06720911
119	0x3e15ca81	0.1462803
120	0x3bb399c8	0.0054809786
121	0xbd479f51	-0.04873592
122	0x3bf8b806	0.0075902967
123	0xbd083eff	-0.033263203
124	0x3dd2466a	0.10267337
125	0xbddb1d5b	-0.106989585
126	0xba38065c	-0.00070199906
127	0xbd974365	-0.07385901
128	0xbbaf9a09	-0.0053589386
129	0x3df0ca16	0.11757295
130	0xbd51a075	-0.051178414
131	0xbac92fad	-0.0015349291
132	0x3e1469e8	0.14493525
133	0x3e089ed1	0.13341834
134	0xbb89b793	-0.004202792
135	0xbd4275ba	-0.047475554
136	0x38dcbb04	0.00010525252
137	0x3c1657c2	0.0091761965
138	0x3e0e0660	0.1386962
139	0xbd922243	-0.07135441
140	0xbd0367d1	-0.03208143
141	0xbe386523	-0.1800733
142	0xbdc0fcb1	-0.09423197
143	0xbd2b6a22	-0.041849263
144	0x3dce3a7c	0.10069749
145	0x3d294c1c	0.04133235
146	0x3d0a994d	0.033837605
147	0x3a9d6442	0.0012008029
148	0x3e535127	0.20636426
149	0xbe041304	-0.12897879
150	0xbd1d9153	-0.03846867
151	0x3b730787	0.0037083344
152	0xbdca3843	-0.09874012
153	0x3d37f614	0.044912413
154	0xbe516005	-0.20446785
155	0x3c6e772a	0.014554778
156	0x3d1741c4	0.036927953
157	0x3e214b9a	0.15751496
158	0xbc7b6cf5	-0.015345802
159	0x3d403fd3	0.046935868
160	0x3d248790	0.040168345
161	0xbd52b3a4	-0.05144085
162	0xbd5f2cde	-0.054486148
163	0x3d8a4036	0.067505285
164	0xbd0ed4dd	-0.03487097
165	0x3d84a51c	0.064768046
166	0x3e062aea	0.13102308
167	0xbc3efc64	-0.011656854
168	0xbc1f375d	-0.0097177895
169	0x3d9f6b49	0.07784135
170	0x3da2ab7f	0.079428665
171	0xbd73ad8a	-0.05949167
172	0x3e3948eb	0.18094222
173	0xba187c1e	-0.0005816835
174	0x3e085e50	0.13317227
175	0x3be2bc37	0.0069194096
176	0x3d9631bf	0.07333707
177	0x3d9667a0	0.07343984
178	0xbce50f3f	-0.027961371
179	0xbcd5df47	-0.026107443
180	0x3ca46d9c	0.020071797
181	0xbe07ec5f	-0.13273762
182	0xbda699b5	-0.08134786
183	0xbda3a255	-0.07989947
184	0xbd13d4d6	-0.036091648
185	0xbb60c038	-0.0034294259
186	0xbdcb1007	-0.09915166
187	0x3e1afc02	0.15135196
188	0x3d80ed9d	0.06295321
189	0x3dac0d9e	0.08401035
190	0x3da56083	0.08075049
191	0xbd501849	-0.05080441
192	0x3c4fdd6a	0.012687067
193	0xbd99faf3	-0.07518568
194	0x3d642eaf	0.055708583
195	0xbd03a553	-0.032140087
196	0x3e0c063a	0.1367425
197	0xbca9e16e	-0.020737376
198	0xbc90a65e	-0.017657455
199	0xbd6acfa6	-0.057326935
200	0x3d13bf94	0.036071375
201	0xbe6d3c59	-0.23167552
202	0xbdbcbd84	-0.09215835
203	0xbdbb398e	-0.09141837
204	0x3bce1541	0.0062891548
205	0x3ce4a49b	0.027910521
206	0x3d18debe	0.0373218
207	0x3e9851e8	0.2974999
208	0x3daea42d	0.08527408
209	0x3d22294b	0.03959016
210	0x3dca8920	0.09889436
211	0x3c9b750c	0.01897671
212	0x3d356ca7	0.044293072
213	0xbd0a5bea	-0.033779062
214	0xbd58e632	-0.052953906
215	0x3e0ac723	0.13552527
216	0x3e2c2d84	0.16814238
217	0x3dbb6ea6	0.09151964
218	0x3cad2757	0.021136923
219	0x3b97819c	0.004623605
220	0xbd9dcfb0	-0.07705629
221	0xbe23e90e	-0.16006872
222	0xbca3c1f6	-0.019989949
223	0x3e345f12	0.17614391
224	0xbe2c0ade	-0.1680102
225	0x3dabf0d3	0.08395543
226	0x3d480383	0.048831474
227	0x3daeace3	0.08529069
228	0x3cafd51c	0.021463923
229	0xbde4d707	-0.11173826
230	0x3e0dfbae	0.1386554
231	0xbe0d5eb0	-0.13805652
232	0x3d9d1b2d	0.07671199
233	0xbcba878b	-0.02276971
234	0x3e1f7452	0.15571716
235	0x3dbbbb63	0.091666006
236	0xbd8b44d0	-0.06800234
237	0x3cb2845a	0.021791626
238	0xbe054722	-0.13015416
239	0x3db78955	0.08961741
240	0x3d1b4aad	0.037913013
241	0x3dcc6bbf	0.099814884
242	0xbbf1c5fe	-0.007378339
243	0x3d18a94d	0.037270833
244	0x3d97e955	0.074175514
245	0x3e9762c1	0.2956753
246	0xbba34048	-0.004982028
247	0xbd93bcaf	-0.07213723
248	0xbd92c554	-0.071665436
249	0x3d3a3065	0.04545631
250	0xbdc9ac26	-0.09847288
251	0xbe17341a	-0.14765969
252	0xbc919451	-0.017770918
253	0x3df3c88d	0.119034864
254	0xbd83d5e9	-0.064372845
255	0x3dc594c7	0.09647518

network_body._body_endoder.seq_layers.2.bias f4 [128]
0	0x3c8b278c	0.01698663
1	0xbc7c9f3d	-0.015418825
2	0x3bda547f	0.0066629048
3	0xbac6024c	-0.0015106886
4	0x3c6851a0	0.014179617
5	0xbc33cc14	-0.010973949
6	0xbc55248a	-0.0130092
7	0xbc6663e9	-0.014061906
8	0xbc88efc1	-0.016715886
9	0xb9dad346	-0.0004173761
10	0xbc6b9aa6	-0.014380133
11	0x3c7f4765	0.015580987
12	0xbc807d3f	-0.015684722
13	0x3c7cd9ed	0.015432817
14	0x3c0a4c8a	0.0084411
15	0xbc5cf0dc	-0.01348516
16	0xbc0a39d2	-0.008436637
17	0xbad5be89	-0.0016307394
18	0x3c65990f	0.014013543
19	0xbba16fdf	-0.004926666
20	0x3c64aa13	0.0139565645
21	0xbc4b928f	-0.012425079
22	0xbbb4a8ac	-0.0055132713
23	0xbc0f8af1	-0.008761154
24	0xbc4eed51	-0.012629823
25	0x3b629b39	0.0034577383
26	0xbc43b88c	-0.011945855
27	0xbb442281	-0.0029927792
28	0x3c417c07	0.011809356
29	0xba6c3174	-0.00090100546
30	0x3c3a606c	0.011375528
31	0xbbd54a83	-0.0065091266
32	0xbc32be63	-0.01090965
33	0x3bf3456b	0.0074240468
34	0xbbb4e948	-0.0055209734
35	0x3bbc6896	0.0057497723
36	0x3c0f7423	0.0087557165
37	0xbc54eaaf	-0.012995406
38	0xbb885474	-0.004160458
39	0x3a256151	0.0006308752
40	0xb8143ae0	-3.534078e-05
41	0xbb80f209	-0.003935103
42	0x3c73cb17	0.014879963
43	0xbad4b199	-0.0016227245
44	0x3c3822e6	0.011238789
45	0xbc821c5d	-0.015882665
46	0xbc169468	-0.009190656
47	0x3c923594	0.017847814
48	0x3c89a52a	0.01680239
49	0xbb2c65ca	-0.0026305788
50	0xbc3f6340	-0.011681378
51	0xbc4d8baa	-0.012545506
52	0xbc87e05a	-0.016586471
53	0x3be9fc6b	0.0071406863
54	0xbbab0a74	-0.005219752
55	0xbc508d77	-0.01272904
56	0xbc70c5a6	-0.014695561
57	0xbc4c9d93	-0.0124887405
58	0xbbb80fd8	-0.005617123
59	0xbc6301c3	-0.0138554005
60	0xbaac9afc	-0.0013168748
61	0xbc307613	-0.010770339
62	0x3bd854f7	0.0066019255
63	0xbc68b094	-0.014202256
64	0x3ca72893	0.02040509
65	0xbad469e3	-0.0016205873
66	0x3c827179	0.015923249
67	0xbc121285	-0.008915548
68	0x3bffbab3	0.0078042387
69	0xbc6e48ba	-0.014543707
70	0x3b91d957	0.0044509578
71	0x3bac97ea	0.005267133
72	0xbc56f279	-0.013119333
73	0x3bd0464e	0.006356037
74	0xbc0cbda9	-0.00859014
75	0x3bed4f02	0.0072420845
76	0x3b8f5530	0.004374169
77	0xbaf0e37b	-0.0018378341
78	0xbac3868c	-0.0014917417
79	0xbc450e97	-0.012027404
80	0xbbe6d5fc	-0.007044552
81	0x3b5fce11	0.0034149925
82	0x3c0cd27f	0.008595108
83	0x3c857d0c	0.016294979
84	0x3c77b9b0	0.015119955
85	0x3c28a71e	0.01029375
86	0x3be0d1f1	0.0068609645
87	0x3c239ed0	0.009986594
88	0x3c83438f	0.016023425
89	0x3c20dad7	0.0098178005
90	0x3c7cbbcc	0.015425634
91	0xbc299005	-0.010349278
92	0x3a10c1d7	0.00055220485
93	0x3c8c2867	0.01710911
94	0xbbc78dc2	-0.006089897
95	0x3c66ee1a	0.014094854
96	0x3c525d36	0.012839606
97	0xbc719f56	-0.014747461
98	0x3c37593b	0.011190708
99	0xbc623444	-0.013806406
100	0x3c462298	0.012093209
101	0x3c6fb451	0.014630393
102	0x3c46fb27	0.01214484
103	0xbc750be9	-0.014956453
104	0xbc5f1810	-0.013616577
105	0xbc4fe3bb	-0.0126885725
106	0x3c5781ac	0.013153475
107	0x3c38949c	0.0112659
108	0x3bd08384	0.006363334
109	0xbbeb350e	-0.0071779555
110	0x3c90501c	0.017616324
111	0xbc46f331	-0.012142942
112	0xb9181e63	-0.0001450717
113	0xbc441ba1	-0.011969478
114	0xbc212cfa	-0.009837383
115	0xbbb6e84d	-0.0055818916
116	0xbc8be0ec	-0.017075025
117	0xbc43ce17	-0.011950991
118	0x3c3e7565	0.011624669
119	0xbc7bf44e	-0.015378071
120	0xbc6f9fc5	-0.014625494
121	0xbb554292	-0.00325409
122	0xbbccf1fe	-0.0062544337
123	0xbbe0cfeb	-0.0068607233
124	0xb7854158	-1.5885264e-05
125	0x3c1e17de	0.009649245
126	0x3a3cd84e	0.0007203863
127	0x3c39e78f	0.011346712

network_body._body_endoder.seq_layers.4.weight f4 [128, 128]
0	0xbdb5b383	-0.0887213
1	0x3cd35b34	0.025800325
2	0xbd3709cf	-0.04468709
3	0x3c9cf0a0	0.019157708
4	0x3dd3a763	0.10334661
5	0x3db1675f	0.086622946
6	0x3e3fdef1	0.18737389
7	0xbdc31f3b	-0.09527441
8	0xba8a9045	-0.001057156
9	0x3dc899ce	0.09794961
10	0xbd99debb	-0.075131856
11	0xbcf224eb	-0.02955862
12	0xbc8a1ec7	-0.016860379
13	0x3cad83c7	0.021181
14	0x3e0902d7	0.1337999
15	0x3d417d7f	0.047238823
16	0x3c9f4e73	0.019446587
17	0xbd6c4d40	-0.05769086
18	0xbcbdcef2	-0.023169968
19	0xbdabd3ad	-0.08389983
20	0x3e34ef02	0.17669299
21	0x3db89b41	0.09013987
22	0x3d5dbbf5	0.054134328
23	0xbc46a713	-0.012124795
24	0xbdc55d2d	-0.096369125
25	0xbcc0ed58	-0.023550674
26	0x3d0b27f5	0.033973653
27	0x3dc2924f	0.095005624
28	0x3e26d583	0.16292386
29	0x3d23637f	0.03988981
30	0x3d298abc	0.041392073
31	0x3d97dec9	0.0741554
32	0xbe1c01b1	-0.1523502
33	0xbc5680a4	-0.013092194
34	0x3b343248	0.002749579
35	0x3c9ba58a	0.018999834
36	0x3e001e09	0.12511458
37	0x3d0c571a	0.034262754
38	0xbdefb153	-0.11703744
39	0x3dd2b80f	0.10289013
40	0x3e05bbd7	0.13059936
41	0xbdca665c	-0.09882805
42	0x3c63d4f8	0.013905756
43	0xbdd38ab0	-0.10329187
44	0x3deaa3ed	0.114570476
45	0xbe603ca1	-0.21898128
46	0xbdba7260	-0.091038465
47	0x3d1e8fc5	0.038711328
48	0xbd8dc3c3	-0.06922104
49	0xbdb6cf8b	-0.089263044
50	0x3e324128	0.17407668
51	0xbc9ab71d	-0.018886143
52	0x3e009e0a	0.12560287
53	0xbdede463	-0.11615827
54	0x3da22373	0.07916918
55	0xbdc0727b	-0.093968354
56	0xbdf33897	-0.11876028
57	0xbd36750b	-0.044545215
58	0xbe144b17	-0.1448177
59	0xbd1c9d6f	-0.038236078
60	0xbd0b180e	-0.033958487
61	0x3de422d5	0.11139456
62	0xbc7c5ba6	-0.01540271
63	0xbcb026dd	-0.021502906
64	0x3cf01cfc	0.029310696
65	0xbd53ee70	-0.051741064
66	0xbd94734a	-0.07248552
67	0x3d30664d	0.04306631
68	0x3d9f545d	0.07779763
69	0xbc93fef0	-0.0180659
70	0x3e39c61f	0.18141983
71	0x3d9025e0	0.07038474
72	0xbc5ba55d	-0.013406125
73	0x3d17bbe0	0.037044406
74	0x3cee1f69	0.029067712
75	0x3d48aa71	0.04899067
76	0xbe1504f3	-0.14552669
77	0xbe1c23be	-0.1524801
78	0x3d7e3054	0.062057808
79	0x3d182000	0.037139893
80	0xbdf59761	-0.11991764
81	0xbe0e26b7	-0.13881956
82	0xbdcf035b	-0.10108062
83	0x3d202c97	0.039105024
84	0x3d9a9929	0.07548744
85	0x3dc7e76f	0.09760939
86	0x3e0816ca	0.13289943
87	0x3d3c981d	0.046043504
88	0xbd15ab02	-0.03654004
89	0x3e2e3b84	0.17014891
90	0xbc058e17	-0.008151553
91	0xbdb80a97	-0.08986395
92	0xb8ccec65	-9.77151e-05
93	0xbd189d47	-0.037259366
94	0xbda2a207	-0.079410605
95	0xbe3c0c6d	-0.18364115
96	0x3caeee65	0.02135391
97	0x3c39e687	0.011346466
98	0xbd673f92	-0.05645711
99	0xbd75a5cf	-0.05997258
100	0xbd8daf8e	-0.0691825
101	0xbda6994d	-0.081347086
102	0x3d2bd6da	0.041952945
103	0xbd11a05a	-0.035553314
104	0x3e18bbe5	0.14915426
105	0xbcafd6b3	-0.021464681
106	0x3d6921eb	0.056917112
107	0x3dd78fa5	0.10525445
108	0x3dddb42f	0.10825383
109	0xbdbbc468	-0.09168321
110	0x3e1f4f18	0.15557516
111	0x3e077d56	0.13231406
112	0xbe000b02	-0.12504199
113	0xbdf981d7	-0.12182968
114	0xbdab39f1	-0.08360661
115	0xbd4adae8	-0.04952517
116	0x3c57b7ae	0.013166351
117	0x3e4934e9	0.1964909
118	0x3da92c3a	0.08260389
119	0xbca7f603	-0.02050305
120	0xbe2871bd	-0.16449638
121	0x3c27adb4	0.010234285
122	0x3d5a6ba9	0.05332533
123	0xbe126f2c	-0.14300221
124	0x3dcb51c1	0.09927703
125	0x3ce038a1	0.027370753
126	0x3e0eac72	0.1393297
127	0xbd8861d5	-0.06659285
128	0xbd484c63	-0.048900973
129	0xbd3fee34	-0.046858028
130	0xbdef193a	-0.116747335
131	0xbdfa829f	-0.12231945
132	0xbc08461e	-0.0083174985
133	0xbdbf80a8	-0.09350711
134	0xbcf1c54a	-0.02951302
135	0xbd2fe330	-0.042941272
136	0xbd407458	-0.046985954
137	0x3de4c781	0.11170865
138	0x3d0e3055	0.03471406
139	0x3aac45dc	0.0013143378
140	0x3bbeeb5f	0.0058263983
141	0xbd84a4ca	-0.064767435
142	0x3d7a4a9f	0.06110632
143	0xbdf826cb	-0.12116774
144	0xbd94fd2e	-0.07274853
145	0x3d23c649	0.03998402
146	0x3d04aaac	0.032389328
147	0xbb75ead3	-0.0037524
148	0x3d37497b	0.04474781
149	0xbd5da19b	-0.054109197
150	0x3d30ec66	0.043194197
151	0x3ddc6d60	0.10763049
152	0xbe0ec820	-0.13943529
153	0xbe36638a	-0.17811409
154	0xbe1e6f03	-0.15472035
155	0xbd7f9612	-0.062398978
156	0x3e21361b	0.15743296
157	0xbd704e8e	-0.058668666
158	0x3d24134c	0.040057465
159	0xbd2b6b4b	-0.04185037
160	0xbdfc7556	-0.123270676
161	0xbd412a27	-0.04715934
162	0xbd0182e7	-0.03161898
163	0xbd37b2e2	-0.04484833
164	0x3b37f94a	0.0028072172
165	0xbd8340c9	-0.06408841
166	0xbd376a5b	-0.044779163
167	0x3dce0435	0.10059396
168	0xbd7c22a9	-0.061556492
169	0xbd5e70f0	-0.054306924
170	0xbd605c38	-0.054775447
171	0x3c36f542	0.011166872
172	0xbc137de9	-0.009002187
173	0xbd4229f2	-0.047403283
174	0xbdd58ada	-0.104268745
175	0xbd30b6b0	-0.043142974
176	0x3d60c7d5	0.054878075
177	0x3c62cac7	0.013842291
178	0xbb87b4b8	-0.0041414164
179	0x3d2d47f7	0.04230496
180	0xbe2b7d68	-0.16747057
181	0xbd10fc95	-0.03539713
182	0x3d827d58	0.06371564
183	0xbd7ee91a	-0.06223402
184	0x3e3f80fd	0.18701549
185	0x3db3dc75	0.08782283
186	0xbdc36039	-0.095398374
187	0xbd66988c	-0.056297824
188	0xbd3f557d	-0.046712387
189	0x3d5e3a2a	0.05425469
190	0xbe2d06f4	-0.16897184
191	0xbcbfc0d5	-0.02340738
192	0x3e062ae6	0.13102302
193	0x3da01601	0.07816697
194	0xbdcc3c0b	-0.0997239
195	0x3e16c023	0.14721732
196	0x3de0a3b2	0.109687224
197	0xbb053d9c	-0.0020330912
198	0x3d690c10	0.05689627
199	0xbd92bc01	-0.07164765
200	0xbe344d49	-0.17607607
201	0x3d0acbb3	0.03388567
202	0x3d193332	0.03740234
203	0x3d40d960	0.047082305
204	0xbd39d418	-0.045368284
205	0xbd948231	-0.072513945
206	0xbd93c279	-0.07214827
207	0xbd0f2ff7	-0.034957852
208	0x3d96e3d3	0.07367673
209	0xbcd95784	-0.026530989
210	0x3dab21cc	0.083560556
211	0xbe12a590	-0.1432097
212	0xbdcc99f8	-0.09990305
213	0x3c86695f	0.016407667
214	0xbd30676a	-0.043067373
215	0x3ddf05a0	0.10889745
216	0xbd3ab1f6	-0.045579873
217	0xbb41c8dc	-0.0029569184
218	0x3d64fca4	0.055905
219	0xbc4b87b2	-0.012422489
220	0xbd474cdc	-0.048657283
221	0xbd929ed5	-0.07159201
222	0xbe0f1d61	-0.13976051
223	0x3dcf11f2	0.10110845
224	0x3cb31c4b	0.021864077
225	0xbe49fe33	-0.19725876
226	0xbd9ee30a	-0.07758148
227	0xbd749466	-0.059711836
228	0x3ce43880	0.027858973
229	0x3e125120	0.14288759
230	0x3d58970e	0.052878432
231	0xbca7e559	-0.020495104
232	0xbbdd3eb6	-0.0067518605
233	0x3e0fdc90	0.14048982
234	0x3d02eed4	0.031966045
235	0x3e002c8d	0.12516995
236	0xbb389d86	-0.0028170063
237	0xbd53682a	-0.05161301
238	0x3de9a60d	0.11408625
239	0x3cf2d95f	0.029644666
240	0xbd965ba7	-0.073417
241	0xbd25383b	-0.04033683
242	0xbd399439	-0.04530737
243	0x3cf5b728	0.029994562
244	0x3d0e392c	0.034722492
245	0xbd972eb6	-0.07381956
246	0xbd21696e	-0.039407186
247	0xbc5caab0	-0.013468429
248	0x3c86d7cb	0.01646032
249	0x3daf2ffe	0.08554076
250	0xbbd38d5f	-0.0064560617
251	0xbd8a47c1	-0.06751967
252	0xbdeea133	-0.1165184
253	0x3d3fc492	0.046818323
254	0x3d84ca03	0.06483843
255	0xbd43e4fa	-0.04782579

network_body._body_endoder.seq_layers.4.bias f4 [128]
0	0x3c29a29b	0.01035371
1	0x3c54f277	0.012997261
2	0xba602876	-0.0008550951
3	0x3a5e5242	0.00084808853
4	0xbc1ab1b1	-0.009441779
5	0xba2af22b	-0.0006521071
6	0xbbd766bb	-0.0065735257
7	0x39f725dc	0.0004713972
8	0x3c6c08a7	0.01440636
9	0xbc432ac1	-0.011912049
10	0x3c547031	0.012966202
11	0x3b80c779	0.003930029
12	0xbc728079	-0.014801138
13	0x3ad9aa3e	0.0016606522
14	0xbaf859cb	-0.0018947659
15	0xbc2f8946	-0.010713881
16	0x3c88894a	0.016667027
17	0x3c5c93ff	0.013463019
18	0x3c8a13bc	0.016855113
19	0xbc7fbcfb	-0.015609021
20	0xbc4dd654	-0.012563307
21	0x3c17d0dc	0.009266105
22	0x3c2e2d2e	0.010630889
23	0x3c91a467	0.017778588
24	0x3bbcc3db	0.0057606525
25	0x3c5d2f03	0.013499978
26	0x3c86edeb	0.01647087
27	0x3bf63786	0.007513943
28	0xbc88bec8	-0.016692534
29	0xbb9b568b	-0.0047405413
30	0xb7ac3b69	-2.0531663e-05
31	0xb8911df3	-6.919717e-05
32	0xbc849719	-0.01618533
33	0x3c90979e	0.017650422
34	0x3c893124	0.016747065
35	0x3c043f98	0.008071803
36	0xbc2d9b0c	-0.010596048
37	0xbc8cb927	-0.017178131
38	0xbc58890a	-0.013216266
39	0x3c7f5a94	0.01558556
40	0xbc44d7dc	-0.0120143555
41	0x3bc75391	0.00608296
42	0x3b8c9fba	0.004291502
43	0xbba20173	-0.0049440204
44	0xbc2a4c71	-0.010394202
45	0xbb5d05f2	-0.0033725468
46	0xbc634a80	-0.013872743
47	0x3c6e93e5	0.014561628
48	0xbc7c455b	-0.015397395
49	0xbb55b46d	-0.0032608763
50	0x3c91a34f	0.017778067
51	0x3c4a66b4	0.012353588
52	0x3c07bf21	0.008285315
53	0x3c4fbbf5	0.01267909
54	0xbc769e11	-0.015052334
55	0x3c00f771	0.007871495
56	0xbab29ccd	-0.0013627053
57	0xbc4a8f57	-0.012363276
58	0x3c1cfe9b	0.009582187
59	0xbc838c46	-0.016058099
60	0x3c8b8f62	0.017036144
61	0xbc49a9c7	-0.0123085445
62	0xbb7bea88	-0.0038439352
63	0x3bc6c747	0.006066236
64	0xbc414566	-0.011796331
65	0x3c9150d9	0.017738746
66	0x3b962c9d	0.004582955
67	0xbbc22815	-0.0059251883
68	0x3c85dbc1	0.016340138
69	0xbc85f339	-0.01635133
70	0x3c82b23c	0.01595413
71	0xbb3561f0	-0.0027676784
72	0xbc492023	-0.012275728
73	0xba80ad6e	-0.0009817311
74	0xbc5dc8da	-0.013536656
75	0xbb488f61	-0.0030603039
76	0x3b836fe3	0.0040111407
77	0xbb02b703	-0.001994551
78	0xbc6a5a00	-0.014303684
79	0xbab812bc	-0.0014043669
80	0xbc16ffca	-0.009216258
81	0x3c4d6be3	0.012537929
82	0xbbd95d3e	-0.00663343
83	0x3c5e97db	0.01358601
84	0xbc292557	-0.010323844
85	0x3c79f977	0.015257231
86	0x3c72d8c3	0.014822188
87	0x3b20af4d	0.002451855
88	0x3c730b61	0.014834256
89	0xba19cb4f	-0.0005866782
90	0xbc6caf53	-0.014446097
91	0x3c092cf0	0.00837253
92	0x3c82b316	0.015954535
93	0x3bc92d56	0.0061394377
94	0x3c3ac7a0	0.011400133
95	0xbbe656c2	-0.0070293853
96	0xbc4d7623	-0.012540373
97	0xbc817173	-0.015801167
98	0x3bea0196	0.0071413023
99	0xbc465238	-0.012104563
100	0xbc8c5719	-0.017131375
101	0xbc3d3da6	-0.011550343
102	0x3c4a7593	0.012357133
103	0x3c40c388	0.011765368
104	0xbc7461d4	-0.014915902
105	0x3c2a12ba	0.010380441
106	0x3b857120	0.0040723234
107	0x3c5c8d41	0.013461412
108	0xbc26a08b	-0.010170112
109	0x3c83c10b	0.016083261
110	0x3b95fb92	0.0045771087
111	0x3c744456	0.014908871
112	0x3ae94cc0	0.0017799363
113	0xbc0b79cc	-0.008512925
114	0xbc86ac8e	-0.016439702
115	0x3c8034bb	0.015650144
116	0xbc842d4c	-0.01613488
117	0x3c855e07	0.016280187
118	0xbc462285	-0.012093191
119	0x3c65cd1d	0.014025954
120	0x3c14f0ec	0.009090643
121	0xbbda2898	-0.006657671
122	0xbbafa6b7	-0.00536045
123	0x3c833e65	0.016020963
124	0xbbfd516c	-0.0077306535
125	0x3c80ff44	0.01574672
126	0xbb4fc557	-0.0031703317
127	0x3c5a5572	0.013326036

action_model._continuous_distribution.log_sigma f4 [1, 2]
0	0x3bc12306	0.0058940677
1	0xbd11160f	-0.035421427

action_model._continuous_distribution.mu.weight f4 [2, 128]
0	0x3c8c144f	0.017099528
1	0x3cb26eaa	0.021781284
2	0xbb55cc31	-0.0032622928
3	0xbc82e44f	-0.015978007
4	0xbbeddbc9	-0.0072588664
5	0x3cf83ba5	0.030301878
6	0xbc93c13b	-0.018036475
7	0xbcd50209	-0.026001947
8	0x3d246856	0.040138565
9	0xbc1d5f93	-0.009605306
10	0x3ce0ab49	0.027425425
11	0xbc5033a5	-0.0127076255
12	0xbd6248fa	-0.055245377
13	0xbc6e35a9	-0.014539161
14	0x3c944e53	0.018103754
15	0xbc0a26a4	-0.008432064
16	0x3d28da66	0.041223906
17	0x3c4f65c2	0.012658538
18	0xbc0ec66a	-0.008714298
19	0xbc770e27	-0.015079058
20	0xbc95291d	-0.01820808
21	0xbb0bbf8a	-0.0021323883
22	0xbb62c673	-0.0034603148
23	0x3cb16c9d	0.021658236
24	0x3cfaa94b	0.030598303
25	0x3d448768	0.047980696
26	0x3cb976ba	0.022639621
27	0x3d3acd06	0.04560568
28	0xbd13d307	-0.036089923
29	0xbcf73104	-0.03017474
30	0x3c664d5e	0.014056532
31	0xbbfa9358	-0.0076469593
32	0xbd2d8367	-0.042361643
33	0x3d00c440	0.03143716
34	0x3d18c72e	0.037299328
35	0x3ccf37a1	0.02529508
36	0xbc54064b	-0.0129409535
37	0xbd538cb5	-0.05164786
38	0xbc43b088	-0.011943944
39	0x3d08aed1	0.033369843
40	0xbcda8628	-0.026675299
41	0x3cfe5c60	0.031049907
42	0x3cd7977d	0.026317352
43	0xbd40b11d	-0.04704391
44	0xbc4355fe	-0.011922358
45	0xbc2bef93	-0.010494131
46	0xbcd40411	-0.025880845
47	0x3d004120	0.031312108
48	0xbd4e59f9	-0.050378773
49	0x3c844aa0	0.016148865
50	0x3d077562	0.03307093
51	0xbbaae13a	-0.0052148374
52	0xbcc77fd4	-0.024352945
53	0x3c40ad86	0.011760121
54	0xbc93c8d1	-0.018040093
55	0x3bdbaaf2	0.006703728
56	0x3caeb75f	0.021327673
57	0xbd525b20	-0.051356435
58	0x3ce05236	0.027382951
59	0xbd16e1c6	-0.036836408
60	0x3d33d6fa	0.04390619
61	0xbd4b132e	-0.049578838
62	0xbb08ca85	-0.0020872664
63	0xbd09925c	-0.033586845
64	0xbd13b31f	-0.036059495
65	0x3c4e67af	0.012597962
66	0xbbdb93f6	-0.006700988
67	0xbc0798c9	-0.008276173
68	0x3cc2ab3e	0.023763295
69	0xbcee7fbb	-0.029113641
70	0x3cfb60df	0.03068584
71	0xbd0bf9bb	-0.03417371
72	0xbc39b87f	-0.011335491
73	0xbd01177e	-0.031516545
74	0xbc4642fd	-0.012100932
75	0x3b20e0d6	0.0024548075
76	0x3d1ece62	0.03877104
77	0x3bdc4dcf	0.0067231427
78	0xbd8a0f5e	-0.06741212
79	0x3caa19a4	0.02076418
80	0x3ada527c	0.0016656662
81	0x3c6cdb91	0.014456646
82	0xbaec577c	-0.0018031443
83	0x3c0ecbf8	0.008715622
84	0xbc705808	-0.014669426
85	0x3caf5aec	0.02140566
86	0x3d17b741	0.03704
87	0x3b906d1c	0.004407538
88	0x3d04284a	0.032264985
89	0x3ce71018	0.028205916
90	0xbd32a245	-0.043611784
91	0x3d02623e	0.031831972
92	0x3d1a97a4	0.037742272
93	0x3d0726a1	0.032995824
94	0x3cc90b2e	0.024541464
95	0x3ac6385d	0.0015122999
96	0xbca586ad	-0.02020582
97	0xbd483b27	-0.048884537
98	0xbc97fff2	-0.018554661
99	0xbd25fc8c	-0.04052405
100	0xbd4f24f3	-0.050572347
101	0xbc09a2ab	-0.0084005995
102	0x3d3eed68	0.046613127
103	0x3c0a4b1c	0.008440759
104	0xbc688cbf	-0.014193713
105	0x3d252a47	0.040323522
106	0xba0c1017	-0.0005342974
107	0x3c9d7072	0.019218657
108	0xbc4c4e2e	-0.012469811
109	0x3d4054db	0.046955924
110	0xbc288df6	-0.010287752
111	0x3cf0812d	0.02935847
112	0xbd04d14d	-0.032426167
113	0xbc0833b0	-0.0083131045
114	0xbd35af2c	-0.04435651
115	0x3d162b60	0.03666246
116	0xbd44147b	-0.047871094
117	0x3cc8faab	0.02453359
118	0xbc9bcec4	-0.019019492
119	0xbbdcd085	-0.0067387247
120	0x3cebbf90	0.028777868
121	0xbd0e4499	-0.03473339
122	0xbc31e6b1	-0.010858224
123	0x3d1cd8ab	0.03829257
124	0x3c3938ce	0.011305047
125	0x3cba9bdb	0.022779396
126	0x3bde0a28	0.006776113
127	0x3d4731f1	0.048631612
128	0x3c8ba86a	0.01704808
129	0x3d1e32aa	0.038622536
130	0x3cac6e1d	0.0210486
131	0x3d2b8154	0.041871384
132	0xbd855c5c	-0.06511757
133	0xbcf65e40	-0.030074239
134	0x3c8604b4	0.016359664
135	0x3d14d6ac	0.03633754
136	0x3c92181f	0.017833767
137	0xbcd5e697	-0.02611093
138	0xbbdad636	-0.006678368
139	0x3d0b0f07	0.033949878
140	0xbbef4f14	-0.007303128
141	0x3cd35abb	0.0258001
142	0xbcb2cf0b	-0.021827241
143	0xbcf22bea	-0.029561955
144	0x3d320e2e	0.043470554
145	0x3d3c355d	0.04594933
146	0x3ce6b73e	0.028163549
147	0xbc60b35d	-0.013714639
148	0xbb4d7b3c	-0.003135397
149	0x3cfac36b	0.03061076
150	0x3d6e6404	0.05820085
151	0x3ca1e8c6	0.019764315
152	0xbc8747b2	-0.01651368
153	0x3a56e537	0.0008197608
154	0x3cba027e	0.022706266
155	0xbcb55780	-0.02213645
156	0xbd1dc4a0	-0.038517594
157	0x3c194bd0	0.009356454
158	0xbcc8fdbf	-0.024535058
159	0xbb4d8a2d	-0.0031362877
160	0xbca1dcfd	-0.019758696
161	0x3ca682fb	0.020326128
162	0x3c9e4986	0.019322168
163	0xbd24f7ba	-0.040275313
164	0xbd8eb202	-0.06967546
165	0xbcea2cae	-0.028585758
166	0xbc510bee	-0.012759192
167	0x3c84eb5f	0.016225515
168	0xbc1bfb05	-0.009520297
169	0xbc211508	-0.009831674
170	0xbcae89d3	-0.021305954
171	0x3c7e179c	0.015508559
172	0xbcd4f5db	-0.02599614
173	0x3cb9012f	0.022583572
174	0xbd181878	-0.03713271
175	0x3bc3c2fb	0.005974171
176	0xbc5f1ea5	-0.013618146
177	0xbd1e3913	-0.03862865
178	0x3cc57317	0.02410273
179	0x3cceeea7	0.025260283
180	0x3c57dc9c	0.013175156
181	0x3c6b8644	0.014375273
182	0xbc4bf1be	-0.012447773
183	0x3bee9344	0.007280739
184	0xbd0af939	-0.033929083
185	0x3b42402b	0.0029640298
186	0xbc211ad4	-0.0098330565
187	0xbcd64bb4	-0.026159145
188	0x3c882925	0.016621182
189	0x3adfb7bc	0.0017068307
190	0xbb18ca2d	-0.0023313866
191	0x3d200653	0.03906853
192	0xbacbbc12	-0.001554372
193	0x3d48f6a9	0.04906336
194	0x3c8a91d6	0.016915243
195	0xbc34376c	-0.010999542
196	0x3c53d54f	0.012929275
197	0xbca69822	-0.020336214
198	0x3cbde4bc	0.023180358
199	0x3cdd0c25	0.02698333
200	0xbc8c6a26	-0.01714046
201	0x3c0403a2	0.008057507
202	0xbc7f5117	-0.015583298
203	0xbd41567b	-0.047201615
204	0xbd1ec404	-0.038761154
205	0xbd0c9ca0	-0.034329057
206	0xbc6d9d50	-0.014502838
207	0xbbfe259c	-0.007755948
208	0xbd8d00c4	-0.06884912
209	0x3d82124c	0.06351146
210	0xbcfff582	-0.031244997
211	0x3ca45b20	0.020062983
212	0xbd1415a0	-0.036153436
213	0x3c8b9614	0.017039336
214	0x3ba1a7bf	0.004933327
215	0x3c11c2c7	0.008896536
216	0x3c5a7493	0.0133334575
217	0xbd8062c0	-0.06268835
218	0xbc2c258a	-0.010506997
219	0xbcd16d9d	-0.025564963
220	0x3d35e4b7	0.044407573
221	0xbc065608	-0.008199222
222	0xbc5aaeee	-0.013347371
223	0xbd29f4bc	-0.041493163
224	0xbcea3afe	-0.028592583
225	0xbc117cdb	-0.0088798655
226	0x3cd6913f	0.026192306
227	0x3b7e43c9	0.0038797727
228	0xbc97c942	-0.018528584
229	0xbc5fab5d	-0.013651696
230	0xbc7c2f93	-0.015392202
231	0x3ce78b9c	0.028264813
232	0xbcce130a	-0.025155563
233	0xbb719273	-0.0036860972
234	0x3d0cb1ec	0.034349367
235	0x3cc6eebf	0.024283765
236	0xbc4de76f	-0.012567385
237	0x3bad81db	0.005295021
238	0x3d047c47	0.032345083
239	0x3ca61163	0.020271963
240	0x3d208115	0.039185602
241	0xbd676013	-0.056488108
242	0xbc56cc78	-0.013110273
243	0x3cab6c7a	0.02092575
244	0xbc8fae93	-0.017539298
245	0x3cdf2745	0.027240405
246	0xbbdcdfa0	-0.0067405254
247	0x3d83bd17	0.064325504
248	0xbc43644b	-0.011925767
249	0x3c43c761	0.011949391
250	0x3b468eda	0.0030297549
251	0x3c897752	0.01678053
252	0xbd904c37	-0.07045787
253	0x3c75b115	0.014995833
254	0xbd11c37b	-0.035586815
255	0x3aca8074	0.0015449659

action_model._continuous_distribution.mu.bias f4 [2]
0	0x3c7d6b57	0.015467486
1	0x3c077867	0.008268452

exp_avg f4 [128, 18]
0	0x350d5c96	5.2661323e-07
1	0x37bd2577	2.2548002e-05
2	0x355abe84	8.1488565e-07
3	0x38009c0a	3.06629e-05
4	0x351fa449	5.947118e-07
5	0x37c17786	2.306305e-05
6	0x355bde4c	8.190734e-07
7	0x37cfd5e6	2.4775927e-05
8	0x351fa449	5.947118e-07
9	0x37b2ba5f	2.130604e-05
10	0x356e210a	8.870999e-07
11	0x37b92e13	2.2075174e-05
12	0x35327a47	6.6488104e-07
13	0x385f3174	5.32134e-05
14	0xb4109d27	-1.3468217e-07
15	0x378ef613	1.7042306e-05
16	0xb43abbf5	-1.7390978e-07
17	0x3811a3b3	3.472315e-05
18	0x378e0a36	1.6932474e-05
19	0x37e04487	2.6734791e-05
20	0x37987512	1.8174327e-05
21	0x37f6de64	2.9429044e-05
22	0x379468f2	1.7691844e-05
23	0x38021c5e	3.1020834e-05
24	0x3798e715	1.8227418e-05
25	0x37eede11	2.8475219e-05
26	0x379468f2	1.7691844e-05
27	0x37be0da3	2.2656115e-05
28	0x372bfa31	1.02506465e-05
29	0x37b5d1af	2.1674523e-05
30	0x3797d391	1.8099121e-05
31	0x38191966	3.6501697e-05
32	0xb67aa95c	-3.7351483e-06
33	0x3694444f	4.418696e-06
34	0x37839fd5	1.5690845e-05
35	0x38312548	4.223481e-05
36	0x36967d23	4.484916e-06
37	0xb80e8391	-3.397797e-05
38	0x36a77126	4.99016e-06
39	0xb8451da9	-4.6996083e-05
40	0x36a87895	5.0208278e-06
41	0xb7fbbd2a	-3.0009618e-05
42	0x368b03d2	4.1429676e-06
43	0xb8154980	-3.559282e-05
44	0x36a87895	5.0208278e-06
45	0xb822a11f	-3.8773866e-05
46	0xb6bceccf	-5.6304048e-06
47	0xb81d6ca8	-3.753291e-05
48	0x36959203	4.457544e-06
49	0xb8b5b643	-8.6647015e-05
50	0x36144eda	2.2099616e-06
51	0xb7e4ef35	-2.7291107e-05
52	0x368e62e8	4.243444e-06
53	0xb81e1cc3	-3.7696922e-05
54	0xb64ebe73	-3.0807248e-06
55	0x37cbbb39	2.4286668e-05
56	0xb67d1ca7	-3.7716616e-06
57	0x37e08f89	2.676972e-05
58	0xb69fd1ac	-4.7629783e-06
59	0x3766374b	1.3721942e-05
60	0xb66c7bd3	-3.5238816e-06
61	0x3788d483	1.6311422e-05
62	0xb69fd1ac	-4.7629783e-06
63	0x382693fe	3.9715313e-05
64	0xb4571660	-2.0031575e-07
65	0x3717758d	9.027671e-06
66	0xb6a16828	-4.8102993e-06
67	0x3822ee58	3.8845785e-05
68	0xb4b908ed	-3.446543e-07
69	0x375c20d1	1.31206625e-05
70	0xb698fb6c	-4.5592224e-06
71	0xb77df3fd	-1.5136783e-05
72	0x383d5322	4.5138535e-05
73	0x383b5438	4.466271e-05
74	0x38491d36	4.794934e-05
75	0x384ece39	4.9306287e-05
76	0x3844dd89	4.6936362e-05
77	0x3862e93e	5.4099823e-05
78	0x38471596	4.74654e-05
79	0x3859dcd0	5.194248e-05
80	0x3844dd89	4.6936362e-05
81	0x380f24ba	3.412806e-05
82	0x37d40810	2.5276124e-05
83	0x38197c42	3.6593767e-05
84	0x38502092	4.9621398e-05
85	0x385d5346	5.276806e-05
86	0xb7912a63	-1.7305085e-05
87	0xb7151138	-8.885101e-06
88	0x384420f0	4.6760717e-05
89	0x38b195e7	8.467939e-05
90	0xb5ce0e2f	-1.5352324e-06
91	0x385204a7	5.0072234e-05
92	0xb5e68f31	-1.717801e-06
93	0x386d48ac	5.6572884e-05
94	0xb6160326	-2.2353574e-06
95	0x38378f91	4.3764307e-05
96	0xb5e21067	-1.6843086e-06
97	0x382d114e	4.126253e-05
98	0xb6160326	-2.2353574e-06
99	0x38845665	6.310343e-05
100	0xb5d08fdf	-1.553908e-06
101	0x37f228b2	2.8867598e-05
102	0xb6227b2c	-2.4211577e-06
103	0x38b64efd	8.693149e-05
104	0x34b973eb	3.4543277e-07
105	0x37ef9794	2.8561604e-05
106	0xb619d2be	-2.2921445e-06
107	0x37de3ca8	2.6492708e-05
108	0x37ebd63b	2.8113942e-05
109	0x37c7f260	2.3835513e-05
110	0x37fd6d6b	3.0210902e-05
111	0x37f054a9	2.8649652e-05
112	0x37f5fe73	2.9324763e-05
113	0x38029764	3.113541e-05
114	0x37f83af0	2.9591349e-05
115	0x3803fa17	3.1465748e-05
116	0x37f5fe73	2.9324763e-05
117	0x375645b0	1.2771619e-05
118	0x371a3a3a	9.192672e-06
119	0x379c74f7	1.8651115e-05
120	0x38044a84	3.154065e-05
121	0x381d2787	3.746853e-05
122	0xb761b21a	-1.3452513e-05
123	0xb706f056	-8.04298e-06
124	0x37fba67a	2.9999053e-05
125	0x3877f008	5.9112936e-05
126	0xb806d2c5	-3.2144384e-05
127	0xb9108a5e	-0.00013784456
128	0xb802de93	-3.1201704e-05
129	0xb934d5be	-0.00017245763
130	0xb800149e	-3.053678e-05
131	0xb90286ed	-0.0001244803
132	0xb80c67f5	-3.347542e-05
133	0xb9144a1b	-0.00014141986
134	0xb800149e	-3.053678e-05
135	0xb91ed90c	-0.0001514891
136	0xb860070c	-5.3412325e-05
137	0xb911b99d	-0.00013897424
138	0xb807886c	-3.231356e-05
139	0xb9909235	-0.00027574753
140	0x373b5b3f	1.11673135e-05
141	0xb8978a2b	-7.225977e-05
142	0xb7ecc438	-2.8224764e-05
143	0xb90d4e77	-0.00013476038
144	0x36474d0d	2.969816e-06
145	0xb84269ab	-4.6351615e-05
146	0x36954915	4.449054e-06
147	0xb86aeae6	-5.6008714e-05
148	0x3688e935	4.0802647e-06
149	0xb7ef295c	-2.851028e-05
150	0x367024eb	3.5784276e-06
151	0xb81e06d9	-3.7676513e-05
152	0x3688e935	4.0802647e-06
153	0xb8985454	-7.263632e-05
154	0xb6fc0319	-7.510546e-06
155	0xb80340dc	-3.129324e-05
156	0x36a27d3a	4.8425545e-06
157	0xb8c6eda3	-9.485639e-05
158	0xb643f42b	-2.9199389e-06
159	0xb80bb532	-3.3308934e-05
160	0x36b50c04	5.395619e-06
161	0x378284f6	1.5559122e-05
162	0x36d71d4b	6.4109095e-06
163	0x389cf55c	7.4843614e-05
164	0x36d2742f	6.2720133e-06
165	0x38c37445	9.3199815e-05
166	0x36b70138	5.453967e-06
167	0x389f0b7b	7.583849e-05
168	0x371983ca	9.150195e-06
169	0x38a50b2b	7.869893e-05
170	0x36b70138	5.453967e-06
171	0x3894b8af	7.09159e-05
172	0x37bf2831	2.278769e-05
173	0x38adaa16	8.280964e-05
174	0x36c5f928	5.900063e-06
175	0x3925e175	0.00015819616
176	0xb6791dc4	-3.7121217e-06
177	0x383fd864	4.5739478e-05
178	0x3618dd4e	2.2778581e-06
179	0x38cead48	9.8551216e-05
180	0x37b2733a	2.127291e-05
181	0x389fe03b	7.623477e-05
182	0x37b0ee7e	2.1091892e-05
183	0x38b8b58e	8.807621e-05
184	0x37a7ed18	2.0018357e-05
185	0x3899cc6e	7.3336865e-05
186	0x37e10664	2.6825066e-05
187	0x38a3ffb0	7.820071e-05
188	0x37a7ed18	2.0018357e-05
189	0x38a71824	7.967677e-05
190	0x38549af8	5.0689065e-05
191	0x38bef5c0	9.1056805e-05
192	0x37ae0cf1	2.0748443e-05
193	0x390ca968	0.00013414549
194	0xb6d413aa	-6.3203815e-06
195	0x38095d0b	3.275e-05
196	0x378c42ea	1.672046e-05
197	0x38a4262f	7.827242e-05
198	0x36ff8a37	7.6156825e-06
199	0xb7c04dbb	-2.292438e-05
200	0x3709b57b	8.208091e-06
201	0xb7fb3a65	-2.9948724e-05
202	0x370c45b5	8.36088e-06
203	0xb78429f0	-1.5755155e-05
204	0x36d3e0e1	6.3144694e-06
205	0xb7ae6b1c	-2.0792293e-05
206	0x370c45b5	8.36088e-06
207	0xb80a34a0	-3.2950775e-05
208	0xb693a626	-4.4002836e-06
209	0xb7bc7b2e	-2.2468706e-05
210	0x370de2d7	8.45707e-06
211	0xb86a7d7a	-5.5906807e-05
212	0xb490d0c5	-2.697399e-07
213	0xb7a3f5c1	-1.9545552e-05
214	0x370f6628	8.547249e-06
215	0xb690e093	-4.3176783e-06
216	0x387ef674	6.0787846e-05
217	0x3919bf46	0.00014662472
218	0x38820b4a	6.200986e-05
219	0x39342637	0.00017180374
220	0x387bcfd0	6.0036604e-05
221	0x391f8608	0.00015213352
222	0x38932d5e	7.0179565e-05
223	0x39255277	0.00015766347
224	0x387bcfd0	6.0036604e-05
225	0x390cc125	0.00013423392
226	0x38c370f5	9.3193645e-05
227	0x39341205	0.0001717285
228	0x388980c5	6.556654e-05
229	0x39889c03	0.0002605618
230	0xb813d19f	-3.5242756e-05
231	0x381488bc	3.5413294e-05
232	0x386ac761	5.5975634e-05
233	0x395550b5	0.00020343329
234	0x348537a7	2.4813673e-07
235	0x389f06f0	7.583003e-05
236	0x3478024f	2.309764e-07
237	0x38c89616	9.564699e-05
238	0xb4b6e8cc	-3.4069524e-07
239	0x389bdcca	7.432101e-05
240	0x36b50656	5.394958e-06
241	0x38a8a4da	8.04157e-05
242	0xb4b6e8cc	-3.4069524e-07
243	0x38a2600a	7.7426506e-05
244	0x379728c9	1.8019595e-05
245	0x38a9428f	8.0709455e-05
246	0x340631b5	1.2497806e-07
247	0x392dec69	0.00016586635
248	0xb603c713	-1.9636398e-06
249	0x3856b417	5.1189298e-05
250	0xb64992fe	-3.0036895e-06
251	0x38c189a8	9.2285976e-05
252	0xb817a87c	-3.615812e-05
253	0xb8c54642	-9.4067786e-05
254	0xb81c229c	-3.722553e-05
255	0xb8f27f8c	-0.00011563217
