results/SeekerAgent/SeekerAgent/SeekerAgent-161070.onnx (onnx, 344226 bytes, 12 tensors)

101 f4 [1, 256, 128]
0	0xbe534645	-0.20632274
1	0xbd3c01f3	-0.045900296
2	0x3e0c2444	0.13685709
3	0xbd8a7598	-0.067607105
4	0xbe1c0201	-0.1523514
5	0xbe10b300	-0.14130783
6	0xbe29ad27	-0.16569959
7	0x3db1a258	0.08673543
8	0xbe03a87c	-0.1285724
9	0xbd53d9af	-0.05172127
10	0xbdad997b	-0.0847654
11	0x3e36a65b	0.17836897
12	0x3df61d44	0.12017301
13	0x3d609ea3	0.054838788
14	0x3df40127	0.11914282
15	0xbd0b9be7	-0.034084227
16	0x3de02d3c	0.10946128
17	0x3da451a9	0.08023388
18	0xbd9dfee4	-0.07714632
19	0x3e10516f	0.14093564
20	0xbc07cd8c	-0.008288752
21	0xbdf669f7	-0.1203193
22	0xbcf42c49	-0.029806273
23	0x3dd2d1cb	0.10293921
24	0xbd87d106	-0.06631665
25	0x3e50420b	0.20337693
26	0x3e07c7aa	0.1325976
27	0xbddb8355	-0.10718409
28	0xbd7e4756	-0.06207975
29	0xbd021133	-0.031754684
30	0x3d09fe23	0.03368963
31	0xbe0b5f5e	-0.13610598
32	0xbe01942b	-0.12654178
33	0x3d44e2c4	0.048067823
34	0x3de4c307	0.11170011
35	0x3e127cf7	0.14305483
36	0x3d213913	0.03936107
37	0x3e29ed5e	0.16594455
38	0xbd894427	-0.06702452
39	0x3d4fac8e	0.05070167
40	0x3e23d799	0.16000213
41	0xbc53f228	-0.0129361525
42	0xbde34579	-0.11097235
43	0xbdb069bc	-0.08613917
44	0xbe141151	-0.1445973
45	0x3ddb529a	0.107091144
46	0x3b17df89	0.0023174009
47	0x3e175145	0.14777096
48	0x3e2463af	0.16053651
49	0x3c9d2871	0.019184323
50	0x3d2276da	0.039664127
51	0x3dbee846	0.093216464
52	0xbdbe65ab	-0.092967354
53	0x3d3c8842	0.046028383
54	0xbd95c853	-0.073135994
55	0xbe17034d	-0.14747353
56	0xbd04edfe	-0.03245353
57	0xbe184bff	-0.1487274
58	0x3df29489	0.11844737
59	0x3d5100d5	0.051026184
60	0xbd073545	-0.033009786
61	0x3df9aa54	0.12190691
62	0xbdaea544	-0.08527616
63	0x3dda8783	0.10670378
64	0xbdc13502	-0.094339386
65	0xbda7f215	-0.0820047
66	0xbde7273a	-0.11286779
67	0x39f840c4	0.000473505
68	0x3dc33740	0.095320225
69	0xbd09f905	-0.03368475
70	0xbe05f1eb	-0.13080566
71	0xbdc1843c	-0.0944905
72	0x3c966116	0.018356841
73	0x3dabb4d6	0.08384101
74	0x3e22858e	0.1587126
75	0x3e1d5e46	0.15367994
76	0x3be0f51a	0.006865156
77	0xbd0276af	-0.031851467
78	0xbe36c497	-0.1784843
79	0x3e205b7b	0.15659897
80	0xbd7d809c	-0.06189023
81	0x3d427d21	0.047482613
82	0x3e1d78cc	0.15378112
83	0xbd530f4e	-0.051528268
84	0xbd0e5c7c	-0.03475617
85	0x3d576163	0.05258311
86	0xbe1a7843	-0.15084939
87	0xbd6ca7d8	-0.057777256
88	0x3c616e81	0.013759256
89	0xbd03e70c	-0.032202765
90	0xbbd556ec	-0.006510606
91	0x3dbcc50b	0.092172705
92	0xbd89b115	-0.06723229
93	0x3d987354	0.07443872
94	0xbd0db936	-0.03460046
95	0x3e2cbb08	0.16868222
96	0xbe16bab2	-0.14719656
97	0x3d6f35c9	0.058400903
98	0x3d0116bd	0.031515826
99	0xbe423e8a	-0.1896917
100	0x3d14861b	0.036260705
101	0xbdcb32e1	-0.09921814
102	0xbbe1dfd1	-0.006893136
103	0xbc331740	-0.010930836
104	0xbe575441	-0.21028234
105	0x3da635ae	0.08115707
106	0x3de0c1ea	0.10974486
107	0xbe03eeb5	-0.12884028
108	0x3e12f845	0.1435252
109	0xbda699bf	-0.081347935
110	0x3dc8757c	0.09788033
111	0x3d8c1559	0.06840009
112	0x3e19c6a6	0.15017185
113	0x3ca8f56b	0.020624837
114	0x3c0aa37e	0.008461831
115	0xbe31110d	-0.1729166
116	0xbdf9bbe3	-0.1219404
117	0x3e274f98	0.16338956
118	0xbd41256e	-0.047154836
119	0xbdcec357	-0.10095852
120	0x3e3e2a35	0.18570788
121	0xbdec48fa	-0.11537357
122	0xbda87d69	-0.08227045
123	0xbdd9074b	-0.10597094
124	0x3dd63c67	0.104607396
125	0x3cc285e1	0.023745479
126	0xbd6c0010	-0.057617247
127	0xbd0fd5d0	-0.035116017
128	0xbd9f5a13	-0.07780852
129	0xbdc4b8a9	-0.09605534
130	0xbe2514b6	-0.16121182
131	0x3e53a02f	0.20666574
132	0xbd23bdc0	-0.03997588
133	0x3df9590a	0.12175186
134	0xbd2bd5ff	-0.04195213
135	0x3d607017	0.054794397
136	0x3dd3671c	0.10322401
137	0xbd9f8dff	-0.077907555
138	0x3d27961e	0.040914647
139	0xbe2f19ea	-0.17099729
140	0x3e1e1b4f	0.15440105
141	0x3d6d1a5e	0.057886474
142	0xbe12470a	-0.14284912
143	0x3e2d1717	0.1690334
144	0xbd52046a	-0.05127374
145	0x3cb57777	0.022151692
146	0xbe116cce	-0.14201662
147	0xbd517328	-0.051135212
148	0xbdd6714b	-0.10470828
149	0xbd9e8251	-0.077397
150	0xbc4bff09	-0.012450942
151	0x3daad9e7	0.08342343
152	0xbe181d16	-0.14854845
153	0xbe12ba1d	-0.14328809
154	0xbd8bc4fc	-0.06824681
155	0xbd9ea7c3	-0.07746842
156	0xbb3a604b	-0.0028438743
157	0x3cd100b0	0.025513023
158	0xba22cee5	-0.0006210639
159	0x3d13a184	0.036042705
160	0x3ccfee80	0.02538228
161	0x3e13419b	0.14380495
162	0x3df797bd	0.12089489
163	0xbc90a105	-0.017654905
164	0xbd6cd621	-0.057821397
165	0x3e078744	0.13235193
166	0xbcd59391	-0.026071342
167	0xbcc35c85	-0.023847828
168	0xbcaa08f0	-0.020756215
169	0x3e0c03b5	0.13673289
170	0xbcc3d9ff	-0.02390766
171	0xbdf00f6e	-0.11721693
172	0xbe27b353	-0.16377
173	0xbd1631b7	-0.036668506
174	0xbe266a9c	-0.16251606
175	0x3e1f3176	0.15546212
176	0xbe4b35ac	-0.19844693
177	0x3cc398d2	0.023876581
178	0x3e1cf2d6	0.1532701
179	0x3d7db90f	0.061944064
180	0x3b0d1792	0.0021528942
181	0x3b8db9db	0.004325134
182	0xbe03d9a7	-0.12875997
183	0x3deb9fda	0.11505099
184	0xbdf2cf82	-0.11855985
185	0xbe14fd6a	-0.14549795
186	0x3de6948d	0.112588026
187	0xbd293331	-0.041308586
188	0x3db48c62	0.088158384
189	0x3d079238	0.03309843
190	0xbe0a359f	-0.13497017
191	0x3c52b92b	0.01286153
192	0xbd819448	-0.063271105
193	0x3dd270dc	0.102754325
194	0xbd9d84b5	-0.076913275
195	0xbd9c719c	-0.07638857
196	0x3e22a92e	0.1588485
197	0xbd1ce322	-0.03830255
198	0xbdd3613a	-0.10321279
199	0xbdb85567	-0.09000664
200	0x3db16697	0.086621456
201	0x3d7a081f	0.0610429
202	0x3e04e722	0.12978795
203	0x3d7e5116	0.06208905
204	0x3dca4d34	0.098780066
205	0x3d50fb3b	0.051020842
206	0xbd8ccf9c	-0.06875536
207	0x3d32a1b6	0.04361125
208	0xbe3011ad	-0.17194243
209	0x3d25fcd4	0.04052432
210	0xbdc26d96	-0.09493558
211	0x3e060fd6	0.13091978
212	0x3e29fb11	0.1659968
213	0x3e355be6	0.17710838
214	0x3d550db0	0.052015007
215	0xbd9c6337	-0.07636111
216	0x3d621bb3	0.055202197
217	0x3de186b7	0.11012023
218	0x3c69e41c	0.014275577
219	0xbe1f0a7e	-0.15531346
220	0xbc45524f	-0.01204355
221	0x3d7db005	0.061935443
222	0xbc97a16f	-0.018509595
223	0x3d7a50c0	0.061112165
224	0xbe0e5936	-0.13901219
225	0x3df764ce	0.12079774
226	0x3e0a6a17	0.13517033
227	0x3da61912	0.081102505
228	0xbdecc63f	-0.1156125
229	0xbd86714f	-0.06564581
230	0xbd97b1c9	-0.07406957
231	0x3e0c855c	0.13722748
232	0xbe2ea322	-0.17054418
233	0xbd05af69	-0.032637987
234	0xbd8db66e	-0.06919561
235	0x3cf76a46	0.030202042
236	0xbddfc440	-0.109261036
237	0x3d4a9541	0.049458746
238	0x3e1e91b6	0.15485272
239	0x3cde730b	0.027154466
240	0x3e16ffbd	0.14745994
241	0xbde46e91	-0.11153901
242	0xbe162811	-0.14663722
243	0x3e13ef15	0.14446671
244	0xbdfe1f55	-0.1240832
245	0xbdff6392	-0.124701634
246	0x3b122292	0.0022298438
247	0x3df876c9	0.121320315
248	0x3df64ac0	0.12025976
249	0x3e275636	0.1634148
250	0xbc8228bf	-0.01588857
251	0x3de9bc51	0.11412872
252	0x3e082a68	0.13297427
253	0xbd8e875b	-0.06959411
254	0x3de6aca8	0.112634
255	0x3e18ce1c	0.14922374

102 f4 [1, 256, 64]
0	0x3d20e66b	0.039282244
1	0x3df6deab	0.12054189
2	0xbe493d01	-0.19652177
3	0xbe3231ce	-0.17401811
4	0xbcc75efd	-0.024337286
5	0xbe041dcc	-0.12901992
6	0xbddaaa56	-0.1067702
7	0x3dda192d	0.10649333
8	0x3e61aed7	0.22039352
9	0xbe1a408e	-0.15063688
10	0xbdd9602e	-0.10614048
11	0xbdb3753d	-0.08762596
12	0xbe494abf	-0.1965742
13	0x3dca30fe	0.09872626
14	0x3e621be4	0.22080952
15	0x3c74de37	0.014945558
16	0x3e40ff22	0.18847325
17	0x3d71c38b	0.059024375
18	0x3e35e3bf	0.1776266
19	0xbda4b53a	-0.08042379
20	0x3de47173	0.11154451
21	0x3e64256b	0.22279899
22	0xbe14fb15	-0.14548905
23	0xbcb08fe4	-0.021552987
24	0x3c8ed71f	0.017436562
25	0x3dd97d65	0.1061962
26	0xbe2bb418	-0.16767919
27	0x3d12f653	0.035879444
28	0xbe3849fe	-0.17996976
29	0xbe08d524	-0.13362557
30	0x3d50a88b	0.050941985
31	0xbe3145f1	-0.17311837
32	0xbe0b2675	-0.13588889
33	0x3e42a831	0.19009472
34	0x3e363f2f	0.1779754
35	0xbde70806	-0.11280827
36	0x3dcd2376	0.10016529
37	0xbc5d0557	-0.013490043
38	0xbe5258e2	-0.20541719
39	0xbdaa3afe	-0.08312033
40	0xbe348894	-0.17630225
41	0x3e2856ed	0.1643941
42	0xb952cc2f	-0.00020103225
43	0xbe3a3f7d	-0.18188281
44	0xbcdb69a4	-0.026783772
45	0xbd970b5d	-0.07375214
46	0xbde72f40	-0.11288309
47	0x3cf0f177	0.029412014
48	0xbe0bf01d	-0.13665815
49	0xbd453674	-0.048147634
50	0xbe09aa49	-0.13443865
51	0x3e15eea6	0.14641818
52	0x3e10d059	0.14141978
53	0xbd8a4c9a	-0.06752892
54	0xbe2a25fa	-0.1661605
55	0xbd0b1780	-0.03395796
56	0x3cc4f575	0.024042824
57	0x3e2dbd0d	0.16966648
58	0xbd94d7ae	-0.072677
59	0xbcabe984	-0.020985372
60	0xbd75b6fd	-0.059988964
61	0xbe50bb34	-0.20383912
62	0x3d79fe1d	0.061033357
63	0x3dcd6d36	0.10030596
64	0x3e433aec	0.19065446
65	0x3e0c8ea9	0.13726296
66	0xbe5cf64f	-0.21578334
67	0xbde3cf37	-0.111235075
68	0xbe035af6	-0.12827668
69	0xbe7522e8	-0.23939097
70	0xbd884445	-0.066536464
71	0x3d9d087e	0.076676354
72	0xbe3f486e	-0.18679973
73	0xbd58d61f	-0.052938577
74	0xbcd920ca	-0.026504893
75	0x3e3a9486	0.1822072
76	0xbdbf6ca2	-0.09346892
77	0xbe36f56b	-0.17867057
78	0x3ac342ad	0.001489719
79	0xbe05a0ec	-0.13049668
80	0x3e483da3	0.19554763
81	0x3da560af	0.080750816
82	0x3e144166	0.14478073
83	0xbe11af5a	-0.14227048
84	0xbe409bb1	-0.18809392
85	0xbe5b1031	-0.21392895
86	0xbe813032	-0.25232083
87	0x3e3999bd	0.18125053
88	0xbe06a4c7	-0.13148795
89	0xbd9c8ddb	-0.07644244
90	0xbcb9ca07	-0.022679342
91	0xbce38772	-0.027774546
92	0x3c9171d5	0.017754475
93	0x3e021bee	0.12705967
94	0x3cc04e43	0.023474818
95	0x3e62f2b8	0.22162902
96	0xbdb9a1f7	-0.090640955
97	0x3e2acfc5	0.1668082
98	0x3d08c6e2	0.033392794
99	0xbe1b6b0f	-0.15177558
100	0xbd3def8d	-0.04637103
101	0xbe1a8db9	-0.15093125
102	0xbe37fbeb	-0.17967193
103	0x3d7e01c6	0.06201341
104	0x3d773193	0.060350012
105	0x3dc14a20	0.09437966
106	0xbdae9901	-0.08525277
107	0xbc894394	-0.016755857
108	0xbdf4d2b0	-0.11954248
109	0x3c86cd16	0.016455214
110	0xbe46ba53	-0.19407015
111	0x3e452237	0.19251333
112	0x3e087c15	0.13328584
113	0xbe092345	-0.1339236
114	0xbe6c6439	-0.23085107
115	0xbe4a74ef	-0.19771169
116	0x3e2e7d37	0.17039953
117	0x3de0b5e3	0.10972192
118	0x3e1b4a7a	0.1516513
119	0xbd2a1c72	-0.041531034
120	0x3e19410e	0.14966223
121	0x3d5064bc	0.050877318
122	0xbd800593	-0.06251063
123	0x3e1dea01	0.15421297
124	0x3e6fcd77	0.23418222
125	0xbc10dddd	-0.008841959
126	0x3e02ed19	0.12785758
127	0x3d48a41a	0.048984624
128	0x3e3c9aba	0.18418398
129	0xbd0fcbae	-0.035106353
130	0xbd771d99	-0.06033096
131	0xbe6dff80	-0.23241997
132	0xbe44f3cc	-0.19233626
133	0xbe5d5638	-0.21614921
134	0x3e2497bb	0.16073506
135	0x3e47d06d	0.19513102
136	0x3e054902	0.13016132
137	0x3cabd71b	0.020976594
138	0xbe51be1e	-0.2048268
139	0x3be17756	0.006880681
140	0xbe3f163c	-0.18660825
141	0x3db4d461	0.088295706
142	0xbe34cf39	-0.17657174
143	0xbd6303bc	-0.055423483
144	0xbda6cedf	-0.08144926
145	0x3d27cb6e	0.04096549
146	0xbd6f7c7c	-0.058468327
147	0x3dae109a	0.0849926
148	0xbe45b82a	-0.19308534
149	0x3aeeaeac	0.0018210015
150	0xbddb9e7f	-0.1072359
151	0x3d446284	0.047945514
152	0xbe4c2219	-0.19934882
153	0xbe6032fa	-0.21894446
154	0x3d08cd19	0.03339872
155	0xbdc4dacf	-0.09612047
156	0xbe41b7ef	-0.18917821
157	0x3e0223a2	0.12708905
158	0xbc3931d5	-0.011303385
159	0xbe1bcada	-0.152141
160	0xbe5cf6b2	-0.21578482
161	0x3e54fa14	0.20798522
162	0xbd32c454	-0.043644264
163	0xbd634322	-0.055483945
164	0xbddc57b0	-0.107589126
165	0x3c0f104f	0.008731916
166	0xbddaaaf7	-0.1067714
167	0xbe24fe33	-0.16112594
168	0xbde8749c	-0.113503665
169	0x3dab1865	0.08354262
170	0x3c93de76	0.018050414
171	0x3e4100ed	0.1884801
172	0xbe479098	-0.19488752
173	0xbe3fd5a3	-0.1873384
174	0xbd7fe1d0	-0.06247121
175	0xbc19dffc	-0.009391781
176	0x3c33a908	0.010965593
177	0x3d357964	0.04430522
178	0xbc59fb24	-0.0133045055
179	0x3dd0c794	0.101943165
180	0x3e242934	0.16031343
181	0xbe1e6c9e	-0.15471122
182	0xbd96e3d7	-0.07367676
183	0x3de21aef	0.110402934
184	0xbd746294	-0.059664324
185	0xbe5c1012	-0.21490505
186	0xbe48bfe7	-0.19604455
187	0xbe170fcb	-0.14752118
188	0xbd33b031	-0.0438692
189	0x3ddd9965	0.10820273
190	0x3da36444	0.079781085
191	0xbe216ab7	-0.15763365
192	0xbdc49b70	-0.0959996
193	0xbd4b293f	-0.049599882
194	0x3e2e0351	0.16993453
195	0xbe4910fa	-0.19635382
196	0xbd80acf6	-0.0628299
197	0xbdace96d	-0.0844296
198	0xbe310b45	-0.17289455
199	0x3e1639fd	0.14670558
200	0xbdf3f3cd	-0.11911736
201	0xbd8aded5	-0.06780783
202	0x3e046ec2	0.12932876
203	0x3da6b425	0.081398286
204	0x3e2500d5	0.16113599
205	0x3e3be9c8	0.18350899
206	0xbde2f152	-0.110811844
207	0x3cebc307	0.02877952
208	0xbdc1dd21	-0.09466005
209	0x3d2485aa	0.040166534
210	0x3cdf23ee	0.027238812
211	0x3d6c230b	0.057650607
212	0x3e346ff5	0.17620833
213	0xbdcdb33e	-0.10043953
214	0xbd34eb09	-0.04416946
215	0x3e59d30a	0.21271911
216	0xbde4a49b	-0.111642085
217	0x3dbfbeb1	0.093625434
218	0xbe16d03b	-0.14727871
219	0xbc690149	-0.014221498
220	0xbe1a176f	-0.15048002
221	0xbdfa6ac5	-0.12227396
222	0xbd927d6a	-0.07152827
223	0xbc24a89d	-0.010049966
224	0x3c927485	0.017877826
225	0xbe5f5718	-0.21810567
226	0x3e2ee32b	0.17078845
227	0xbdc4ff77	-0.096190386
228	0x3d6c1fea	0.057647623
229	0xbc9832f1	-0.018578978
230	0xbddec2a8	-0.108769715
231	0xbe3bd038	-0.18341148
232	0xbd02623d	-0.03183197
233	0x3e6d2f53	0.23162584
234	0x3cbfada3	0.023398226
235	0x3dde6487	0.10859018
236	0xbda03449	-0.078224726
237	0x39b7d678	0.00035064272
238	0x3e511aa1	0.20420314
239	0xbd093e22	-0.03350652
240	0xbe17be74	-0.14818746
241	0x3e535c53	0.20640688
242	0xbdf1f29a	-0.11813851
243	0xbcde0513	-0.027102029
244	0x3c6538f3	0.0139906285
245	0x3dd741d4	0.105106026
246	0x3e1336c7	0.14376365
247	0xbe020e0e	-0.12700674
248	0x3dc0b1ce	0.094089136
249	0x3e6ab8f1	0.22922112
250	0xbe4963cf	-0.1966698
251	0xbe40db17	-0.18833576
252	0xbe18576e	-0.14877102
253	0x3ca4ebcc	0.020131968
254	0xbd8bccc6	-0.06826167
255	0xbe014b80	-0.12626457

103 f4 [1, 512]
0	0x3d236cc0	0.039898634
1	0xbb1ae038	-0.002363218
2	0x3b2d9988	0.0026489217
3	0x3c3da06d	0.011573893
4	0x3c193cf8	0.009352915
5	0x3c7cb10f	0.015423073
6	0x3c1675d4	0.009183366
7	0x3d3f6102	0.046723373
8	0x3d2a93e1	0.041644935
9	0x3d3122fb	0.04324625
10	0xbc8a598f	-0.016888408
11	0x3d4cf88a	0.050041713
12	0x3d1d88e1	0.038460616
13	0xbb94757a	-0.004530606
14	0x3c5b92fb	0.013401742
15	0x3cfd9b3f	0.030957816
16	0x3c30d159	0.0107921
17	0x3d2d1ee2	0.04226578
18	0x3bd73c22	0.0065684477
19	0xbb2fde59	-0.002683541
20	0x3bbfa67a	0.005848703
21	0xbc8a291d	-0.016865307
22	0x3cd1e9a4	0.025624104
23	0x3cb8ecfd	0.022573942
24	0x3d1102f2	0.0354032
25	0xbb00c557	-0.0019648874
26	0x3ccd2bfc	0.025045387
27	0x3d21e602	0.039525993
28	0xbb657df2	-0.0035017696
29	0x3c9e0576	0.019289713
30	0x38c37f48	9.3220326e-05
31	0x3b81da1c	0.0039627682
32	0xbc97a6f2	-0.018512223
33	0xbc9a12b3	-0.018807745
34	0x3cd0eb64	0.025502868
35	0x3c782a45	0.015146797
36	0x3b6039f4	0.003421423
37	0x3cd8e512	0.026476417
38	0x3c0706ec	0.008241396
39	0x3ce00dd6	0.027350347
40	0x3d2c319b	0.042039495
41	0x3b122a70	0.0022303127
42	0x3c04fc37	0.008116773
43	0xbc9407dc	-0.018070154
44	0xbc36ab07	-0.0111491745
45	0xbb74de62	-0.0037363996
46	0x3af38fb3	0.0018582254
47	0x3b9a9f9f	0.0047187353
48	0x3d33afe9	0.043868933
49	0x3d9c9bfd	0.0764694
50	0xbc43f66b	-0.011960606
51	0x3d898432	0.067146674
52	0x3d19e7e9	0.037574682
53	0x3cc95575	0.024576882
54	0x3c6a47e9	0.014299371
55	0x3adbf3f0	0.0016781073
56	0x3c92c0a1	0.017914118
57	0x3b87e005	0.0041465783
58	0xbbca1527	-0.0061670723
59	0x3c28d48a	0.0103045795
60	0x3c9db025	0.019249031
61	0x3caf9dc6	0.021437537
62	0x3cc1d0be	0.023659106
63	0x3c8dc741	0.017306926
64	0x3cd1a5f5	0.02559183
65	0x3c9116cc	0.017711066
66	0x3c6932e8	0.014233328
67	0x3d05954d	0.032613087
68	0x3cc15791	0.023601325
69	0x3bf7781b	0.0075521595
70	0xbc071ab5	-0.008246114
71	0x3cebda5b	0.028790643
72	0x3ca4ba35	0.020108322
73	0x3d2ae57d	0.041722763
74	0x3a477b73	0.0007609643
75	0x3d77cf51	0.060500447
76	0x3ca5f37f	0.02025771
77	0xbc08fddb	-0.008361305
78	0x3b96a4f4	0.0045973007
79	0x3cd775f3	0.02630136
80	0x3c0aead5	0.00847884
81	0x3c83c7bb	0.01608645
82	0xbacc8691	-0.0015604069
83	0xbccebdaf	-0.025236933
84	0x3c40a015	0.0117569165
85	0x3cc36dc5	0.023856053
86	0x3d64f275	0.055895288
87	0x3b788b41	0.0037924799
88	0x3c54c997	0.012987516
89	0x3c34afc5	0.011028235
90	0x3cd8a33c	0.026445024
91	0x3ce20a32	0.027592752
92	0x3c4b897f	0.012422918
93	0x3c5f6564	0.013635013
94	0xbc1c4fd4	-0.009540517
95	0x3ada3dc9	0.0016650493
96	0x3c753d83	0.014968279
97	0x3c5987f8	0.013277046
98	0x3ce72cb7	0.028219564
99	0x3c085891	0.008321897
100	0x39d8fc20	0.00041386578
101	0x3d289b73	0.041163873
102	0x3c1fc500	0.009751558
103	0x3c9100ca	0.017700572
104	0x3cf0c0f2	0.029388878
105	0x3ccc6a10	0.024952918
106	0xbb0e7323	-0.0021736107
107	0xbc17dc4a	-0.00926883
108	0xbce16cd2	-0.02751771
109	0xbbad5557	-0.0052897143
110	0x3ced4728	0.028964594
111	0x3b82c68e	0.0039909547
112	0x3c858534	0.016298868
113	0x3d8edb23	0.06975391
114	0x3cd6346f	0.02614805
115	0x3d699113	0.05702312
116	0x3d0e01f6	0.03466984
117	0x3c905e19	0.017622994
118	0x3c0158fe	0.007894753
119	0xbbbc9bde	-0.0057558855
120	0x3c80a6f4	0.01570461
121	0xbc23cf2a	-0.009998122
122	0x3b4b3a70	0.0031010173
123	0x3cba6375	0.022752503
124	0xb980b1a7	-0.00024546424
125	0x3c292426	0.01032356
126	0x3aa2eaeb	0.001242963
127	0x3cad8e6c	0.021186076
128	0x3f829fc3	1.0205005
129	0x3f807a2d	1.0037285
130	0x3f7c1c69	0.9848085
131	0x3f801f6e	1.0009592
132	0x3f846845	1.034432
133	0x3f807bd3	1.0037788
134	0x3f808050	1.0039158
135	0x3f8120df	1.0088156
136	0x3f836cb5	1.026755
137	0x3f806da7	1.0033463
138	0x3f7ce76a	0.9879061
139	0x3f829b82	1.0203707
140	0x3f7f166d	0.99643594
141	0x3f795ff6	0.9741205
142	0x3f81e219	1.0147125
143	0x3f8192f8	1.0122976
144	0x3f81cdd5	1.014094
145	0x3f8305cf	1.0236148
146	0x3f823e56	1.0175273
147	0x3f8209aa	1.0159199
148	0x3f805a57	1.002757
149	0x3f81ec50	1.0150242
150	0x3f7f64a6	0.9976295
151	0x3f7d2596	0.98885477
152	0x3f83c2ec	1.029386
153	0x3f7cfb14	0.98820615
154	0x3f8597fa	1.0437005
155	0x3f8179b4	1.0115266
156	0x3f81d0a8	1.0141802
157	0x3f801f96	1.0009639
158	0x3f7d57d2	0.9896213
159	0x3f805bb1	1.0027982
160	0x3f80e879	1.0070945
161	0x3f7b272a	0.98106635
162	0x3f7929fa	0.97329676
163	0x3f828017	1.019534
164	0x3f81b062	1.0131953
165	0x3f831fc9	1.0244075
166	0x3f80a258	1.0049543
167	0x3f7e8d1b	0.9943406
168	0x3f88113a	1.0630257
169	0x3f801042	1.0004961
170	0x3f831250	1.0239964
171	0x3f780ded	0.9689625
172	0x3f7c86a2	0.98642933
173	0x3f7d82d8	0.99027777
174	0x3f7df4d1	0.99201685
175	0x3f82ceef	1.0219401
176	0x3f814c2e	1.0101373
177	0x3f7e72cc	0.99393916
178	0x3f7d27ad	0.98888665
179	0x3f7f09e1	0.9962445
180	0x3f817631	1.0114194
181	0x3f8207eb	1.0158666
182	0x3f80537e	1.002548
183	0x3f7585c4	0.95907235
184	0x3f841346	1.0318382
185	0x3f828fc1	1.020012
186	0x3f7f8596	0.9981321
187	0x3f80c1eb	1.0059179
188	0x3f82594f	1.0183505
189	0x3f82c7cc	1.0217223
190	0x3f808622	1.0040934
191	0x3f7b5702	0.9817964
192	0xb771e6e7	-1.44184805e-05
193	0xbc499c24	-0.012305293
194	0x3b8acb2c	0.0042356458
195	0x3c9860f0	0.01860091
196	0x3af17ceb	0.0018424069
197	0xbba0d26f	-0.004907898
198	0x3cb2add7	0.021811409
199	0x3c31ce8d	0.010852468
200	0x3c1a7a63	0.009428593
201	0x3c0e2fd8	0.008678399
202	0x3c548b4d	0.012972665
203	0xbb54ae56	-0.0032452545
204	0xbcc5c3a6	-0.024141144
205	0x3c45bc96	0.012068888
206	0xbc69b803	-0.014265063
207	0x3bfee50a	0.0077787684
208	0xbba44ed6	-0.005014281
209	0x3c054bc9	0.008135744
210	0xbbcc4163	-0.0062333806
211	0x3b1e7ad2	0.0024182093
212	0xbc788ad1	-0.015169815
213	0xbafa1dae	-0.0019082332
214	0x3bca27d6	0.0061692996
215	0xbc9e7279	-0.019341694
216	0xbbda66a0	-0.006665066
217	0x3bcf44b5	0.006325329
218	0xbb490a10	-0.0030676164
219	0xbb591f6e	-0.0033130306
220	0x3c8f9025	0.017524788
221	0x3c312156	0.010811171
222	0x3b596050	0.003316898
223	0xbb20772a	-0.002448509
224	0x3c74c85c	0.0149403475
225	0x3bf4034c	0.007446682
226	0x3c3aafb2	0.011394428
227	0x3b9775be	0.0046221903
228	0x3c1c83cc	0.009552907
229	0xbb12e395	-0.0022413481
230	0xbc8b37e1	-0.016994419
231	0x3b677644	0.0035318295
232	0xbc19de38	-0.00939136
233	0x3bd89f2a	0.0066107707
234	0xbb952b16	-0.0045522554
235	0xbc3031b2	-0.010754036
236	0x3cbafb7b	0.022824993
237	0x3c2ba3cf	0.010476067
238	0x3bbee2aa	0.0058253603
239	0x3c4f0143	0.012634578
240	0xbbc7d3fd	-0.006098269
241	0xbc030abb	-0.007998164
242	0xbbc9e343	-0.006161125
243	0x3c05fec5	0.008178418
244	0xba7d24f0	-0.0009656688
245	0x3b0f5e12	0.0021876139
246	0xbc05b653	-0.008161145
247	0xba23aca1	-0.000624368
248	0x3ca5510e	0.020180251
249	0x3c059bcc	0.008154821
250	0xbae1ec50	-0.0017236564
251	0x3acdc627	0.0015699313
252	0x3ace124b	0.0015722004
253	0x3c778157	0.015106521
254	0xbb46e3d5	-0.00303482
255	0xbbffc827	-0.0078058424

action_model._continuous_distribution.log_sigma f4 [1, 2]
0	0xbdb2cdfc	-0.08730695
1	0x3c189684	0.0093132295

action_model._continuous_distribution.mu.bias f4 [2]
0	0xbc4656e0	-0.012105674
1	0xbb946efc	-0.004529832

action_model._continuous_distribution.mu.weight f4 [2, 64]
0	0x3d1b1516	0.037861906
1	0x3da10844	0.07862905
2	0x3cf7e918	0.030262515
3	0xbd945a77	-0.07243817
4	0xbda2b2fe	-0.07944296
5	0xbcbe159f	-0.02320367
6	0x3d25d225	0.040483613
7	0x3d4e71e1	0.050401572
8	0xbd7301b2	-0.05932779
9	0x3d55de5c	0.05221401
10	0xbd8bf835	-0.06834451
11	0xbd33f339	-0.043933127
12	0x3d82741f	0.063698046
13	0x3c6e1b4d	0.014532876
14	0xbd2fe4b5	-0.04294272
15	0x3d9b9569	0.07596857
16	0x3d1fd76a	0.039023794
17	0xbce14a45	-0.027501235
18	0xbd9b7f9b	-0.07592698
19	0x3c901275	0.017586926
20	0x3d0dc056	0.034607254
21	0xbd3d7d95	-0.046262342
22	0x3d8bb788	0.06822115
23	0xbb83f5d5	-0.004027108
24	0xbc02b47e	-0.007977603
25	0xbd1096cc	-0.03530006
26	0x3cd1357b	0.025538197
27	0xbdeccb30	-0.115621924
28	0xbd20aec2	-0.039229162
29	0x3cf9bd14	0.030485667
30	0xbd76993f	-0.06020474
31	0xbb56802c	-0.0032730205
32	0xbd7085ac	-0.05872123
33	0x3c275fb5	0.010215689
34	0x3dae567c	0.08512589
35	0x3dd163bb	0.102241
36	0xbd278182	-0.040894993
37	0xbd25fd71	-0.040524904
38	0x3d45ef98	0.048324198
39	0xbd0d92ac	-0.034563705
40	0x3c89a9ff	0.016804693
41	0xbdba1758	-0.09086484
42	0xbc84884d	-0.016178275
43	0x3d1051a5	0.035234112
44	0x3a655f44	0.00087498524
45	0xbcf3095f	-0.029667554
46	0xbc7c40b1	-0.015396283
47	0x3d4bd52e	0.04976385
48	0xbc84fd08	-0.016233936
49	0xbc9c8715	-0.01910738
50	0x3cb518f5	0.022106627
51	0xbd1a0a63	-0.03760756
52	0xbd17a4f2	-0.03702254
53	0xbb6785db	-0.0035327587
54	0x3c9883c2	0.018617515
55	0xbd7b2fc1	-0.06132484
56	0x3d9232a4	0.07138565
57	0xbdc6089f	-0.09669613
58	0x3b699b06	0.003564538
59	0xbc5a0a1d	-0.013308075
60	0x3c771334	0.015080262
61	0x3d2c7855	0.042106945
62	0xbbe56280	-0.0070002675
63	0x3dcc03c5	0.099616565
64	0xbd318aa8	-0.043345124
65	0xbd498578	-0.04919955
66	0xbd70b0d4	-0.058762386
67	0x3dd8c031	0.105835326
68	0x3d436f3e	0.04771351
69	0xbdb5d197	-0.08877867
70	0xbd19ac02	-0.037517555
71	0xbd8bfae6	-0.068349645
72	0xbbe48fd5	-0.006975154
73	0xbd91f6e5	-0.071271695
74	0x3b3e0064	0.0028991932
75	0x3dafc354	0.08582178
76	0xbc77e38e	-0.015129937
77	0x3d3123ea	0.04324714
78	0xbcee877a	-0.029117335
79	0xbd8a2f9c	-0.06747362
80	0xbc39c550	-0.011338547
81	0xbd1c03d2	-0.03808958
82	0xbb1bf143	-0.0023794926
83	0xbd303993	-0.043023657
84	0x3c31ec8a	0.010859618
85	0xbda995aa	-0.08280499
86	0xbdbfa89f	-0.09358334
87	0x3d84f236	0.064915106
88	0x3d13b501	0.03606129
89	0x3bec8ed3	0.0072191744
90	0x3dca5996	0.098803684
91	0x3d86c8ca	0.06581266
92	0xbd1e6e2b	-0.038679283
93	0xbd625ca5	-0.055264134
94	0x3d03265c	0.032019004
95	0xbd4239c9	-0.04741839
96	0x3ced4af7	0.02896641
97	0xbd56d0ca	-0.05244521
98	0x3d276f3d	0.04087757
99	0x3cb3e2c8	0.021958724
100	0x3c207d0f	0.009795441
101	0x3dd36710	0.10322392
102	0xbd2f0e6f	-0.042738374
103	0xbdae5b97	-0.08513563
104	0x3d95bba1	0.07311178
105	0xbdb76dea	-0.08956511
106	0x3be9e712	0.0071381414
107	0xbd04f25c	-0.032457694
108	0xbd35c7b2	-0.044379897
109	0x3ce1c621	0.027560296
110	0xbd36b787	-0.04460862
111	0x3d852d02	0.06502725
112	0x3c4b6cb0	0.01241605
113	0x3d93190b	0.07182511
114	0x3ceb66d8	0.028735563
115	0xbd9345e1	-0.07191063
116	0x3d834f51	0.06411613
117	0x3d73c3e9	0.059513006
118	0xbd42af4f	-0.04753047
119	0x3d386455	0.04501756
120	0xbd1d19b0	-0.038354576
121	0x3cd41261	0.02588767
122	0xbc9df94f	-0.019283919
123	0x3c2219c6	0.00989384
124	0x3d9f08af	0.07765328
125	0x3d047932	0.032342143
126	0xbd6dd87a	-0.058067776
127	0x3caf5e06	0.021407139

network_body._body_endoder.seq_layers.0.bias f4 [128]
0	0x3c58b9c1	0.013227881
1	0xbb3f2b28	-0.002917001
2	0x3c8d639c	0.017259412
3	0x3c865bc2	0.016401175
4	0xbb6c7c00	-0.0036084652
5	0x3c1b1964	0.009466503
6	0x3b84bb1f	0.004050627
7	0xbc3feae2	-0.011713715
8	0x3ca52b19	0.020162152
9	0x3be51685	0.00699121
10	0x3aaa44c9	0.001299047
11	0x3bb8ac24	0.005635755
12	0x3bf21e4e	0.0073888665
13	0x3ba63ac4	0.0050729234
14	0x3c90ac3e	0.017660256
15	0x3c08dfbb	0.008354123
16	0x3d26b4cb	0.04069976
17	0x3c59d2c1	0.013294877
18	0x3b062c00	0.0020473003
19	0xbae4695d	-0.001742642
20	0xbc9e3430	-0.019311994
21	0x3cd79f55	0.026321093
22	0x3c96c8da	0.01840632
23	0xbc3a91a4	-0.0113872625
24	0x3be54760	0.006997034
25	0x3cb92f00	0.02260542
26	0x3c22e8b3	0.009943175
27	0x3bc3f564	0.0059801806
28	0xba94c2ca	-0.0011349556
29	0x3c939e9b	0.018019965
30	0xbc256e8b	-0.010097156
31	0xbcdb4d83	-0.026770359
32	0xbc4a2621	-0.012338192
33	0x3ad14ac6	0.0015967719
34	0x3c8ebfe6	0.017425489
35	0xbb7ddb94	-0.0038735615
36	0x3c77c82e	0.01512341
37	0x3cd4134b	0.025888106
38	0x3c1d85c6	0.009614414
39	0x3d100ece	0.03517037
40	0xbc037027	-0.008022345
41	0x3c284655	0.010270675
42	0x3d41c1f3	0.047304105
43	0xbc393d8e	-0.01130618
44	0x3cdc6381	0.026902916
45	0xbc0621ab	-0.008186738
46	0xbc7e0117	-0.0155031895
47	0x3ae769ff	0.0017655491
48	0x3c51e0cd	0.012809944
49	0xbb4b767d	-0.0031045966
50	0xbc27f65b	-0.010251607
51	0x3c3d7350	0.011563137
52	0xbab29dea	-0.0013627384
53	0xb9e049f4	-0.0004277971
54	0x3b963925	0.004584449
55	0x3b1792b2	0.0023128209
56	0x3af6d4b8	0.0018831706
57	0x3c3c2244	0.011482779
58	0x3cb5722b	0.022149166
59	0x3bf7bc56	0.007560293
60	0x3b319ca8	0.002710143
61	0x3cfc91ff	0.030831335
62	0x3bf8be33	0.007591033
63	0xbc76c8dc	-0.015062537
64	0xbb6c0723	-0.0036014996
65	0xbc562449	-0.0130701745
66	0xbb5a7202	-0.0033332114
67	0x3cc4e877	0.02403663
68	0xbaed05d5	-0.0018083403
69	0xbcb2f89d	-0.021847064
70	0x3cd5076e	0.02600452
71	0xbbf3259a	-0.007420254
72	0x3bbbf984	0.0057365317
73	0x3c9751ba	0.018471587
74	0xbb7f52c9	-0.0038959256
75	0xbca7a943	-0.020466452
76	0xbb4f964c	-0.0031675277
77	0x3b853a2f	0.004065774
78	0xbc64cff3	-0.013965595
79	0xba6104af	-0.0008583767
80	0x3b821590	0.0039698556
81	0x3d0bb650	0.034109414
82	0xbc39bb94	-0.011336226
83	0x3cb550f5	0.02213333
84	0x3d10929d	0.03529607
85	0xb9930ffb	-0.0002804993
86	0xbc838585	-0.016054878
87	0x3d0d3348	0.034472734
88	0x3c82816b	0.015930852
89	0x3cee1dc6	0.029066931
90	0x3bc4bbf8	0.006003853
91	0x3c9481c4	0.018128283
92	0xbc8b73c2	-0.017022971
93	0xba8f0ebd	-0.0010914427
94	0x3c0a8f47	0.008457012
95	0xbaff9f73	-0.0019502476
96	0x3c2337f2	0.009962069
97	0x3c6baec3	0.014384928
98	0xbc23cc79	-0.009997481
99	0x3bd54227	0.00650813
100	0x3ba87b05	0.005141618
101	0xbcb4218a	-0.021988649
102	0x381230de	3.4854624e-05
103	0x3c0b30e5	0.008495544
104	0xbb3add95	-0.002851342
105	0x3c9cc51b	0.019136956
106	0x3b2a2ba3	0.002596595
107	0x3a3fcedb	0.00073168956
108	0xbca95d65	-0.020674417
109	0x3d2a70f6	0.041611634
110	0x3cb46fab	0.022025904
111	0xbafe9116	-0.0019421901
112	0x3b83c49c	0.0040212404
113	0x3c9d91f0	0.019234627
114	0x3c7384a5	0.014863168
115	0x3af82bdd	0.0018933971
116	0x3b1625c1	0.0022910687
117	0x3d11bb5c	0.03557907
118	0x3c8acc1b	0.016943028
119	0xbb04df29	-0.0020274615
120	0xbca25bdf	-0.019819198
121	0xbc86e6da	-0.0164675
122	0xbc71dddf	-0.014762371
123	0x3ac246c0	0.001482211
124	0x3d4cafed	0.049972463
125	0x3c4a15b0	0.012334272
126	0x3d434e07	0.047681835
127	0x3c848755	0.016177813

network_body._body_endoder.seq_layers.0.weight f4 [128, 18]
0	0x3e7a2ef0	0.24431968
1	0x3d1faf04	0.038985267
2	0xbe01ce6e	-0.12676403
3	0x3dc7a010	0.097473264
4	0x3e4ae36a	0.19813314
5	0x3dcc7b46	0.0998445
6	0xbdd47d50	-0.10375464
7	0xbdf7ac94	-0.120934635
8	0xbdf39879	-0.11894316
9	0xbf02ba39	-0.51065403
10	0xbcc78a89	-0.02435805
11	0x3dfb13dd	0.12259648
12	0xbe4b9fba	-0.1988515
13	0x3e2ee5a6	0.17079791
14	0xbbf352f7	-0.0074256617
15	0xbe9415da	-0.2892292
16	0xbdd362df	-0.103215925
17	0xbe0ad387	-0.13557254
18	0xbf2a241d	-0.66461354
19	0xbe06e665	-0.13173826
20	0xbe7dd3d7	-0.24787842
21	0x3eff4e5d	0.49864474
22	0xbe3b8026	-0.18310603
23	0x3ea5d6bc	0.32390392
24	0x3ed88de9	0.4229577
25	0xbea4c422	-0.32180887
26	0xbe36368a	-0.17794243
27	0xbc8b280b	-0.016986867
28	0x3d792f92	0.060836382
29	0x3d33bddf	0.043882247
30	0x3dcce5e0	0.10004783
31	0xbe797687	-0.24361621
32	0x3f06171e	0.52379024
33	0x3eace122	0.33765513
34	0xbef47153	-0.4774271
35	0xbd75eef3	-0.060042333
36	0x3cc59e77	0.024123413
37	0x3ec55693	0.38542613
38	0x3ed17665	0.4091064
39	0xbef658e7	-0.48114702
40	0xbeca8706	-0.3955614
41	0x3ead92e3	0.33901128
42	0x3e6d0fe4	0.23150593
43	0x3e89b082	0.26892477
44	0x3d24cff6	0.04023739
45	0xbf0bab3e	-0.5455817
46	0x3ed00230	0.4062667
47	0x3d143675	0.036184747
48	0x3e63f571	0.22261597
49	0x3ea793b8	0.32729888
50	0x3de68b18	0.11256999
51	0x3ebff6cc	0.3749298
52	0xbf1ffe4f	-0.6249742
53	0xbea37409	-0.31924465
54	0x3d585802	0.052818306
55	0x3dd8665b	0.10566398
56	0xbe710412	-0.23536709
57	0x3e2f7f98	0.17138517
58	0xbb0d33ef	-0.0021545847
59	0xbe60269d	-0.2188973
60	0xbda0ff16	-0.07861154
61	0xbf05e0c4	-0.5229609
62	0xbdcdfeb3	-0.10058346
63	0x3e95976c	0.29217088
64	0xbda4c481	-0.08045293
65	0xbddb45a6	-0.10706644
66	0x3e84767e	0.25871652
67	0xbca5f08e	-0.020256307
68	0x3c9ccbb2	0.019140098
69	0x3dea32ec	0.11435494
70	0x3dd48f16	0.10378854
71	0x3aa5df99	0.0012655138
72	0xbd844508	-0.06458479
73	0x3d81873d	0.06324623
74	0xbe4a9107	-0.19781886
75	0x3df32c19	0.11873645
76	0x3e742f99	0.23846282
77	0x3e7640c8	0.2404815
78	0xbe33d3a6	-0.17561206
79	0x3ec28ae7	0.379966
80	0x3ede53d9	0.43423346
81	0x3bbfba28	0.005851049
82	0x3ea14f6f	0.31505916
83	0x3d248b9e	0.04017221
84	0x3be23476	0.0069032265
85	0x3bb0dd8f	0.0053975056
86	0x3e671a13	0.2256854
87	0xbc147ae3	-0.009062502
88	0x3e47cfb6	0.19512829
89	0xbee87005	-0.45397964
90	0xbd907dbc	-0.07055232
91	0xbdefbd76	-0.11706059
92	0xbd0e4038	-0.034729213
93	0x3e25f6b9	0.16207398
94	0x3d3c86c6	0.046026967
95	0xbeb92fae	-0.3616919
96	0xbec77d8a	-0.38962966
97	0x3ea9ea96	0.33186787
98	0xbdf85ea2	-0.12127425
99	0x3d8cf9cd	0.06883583
100	0xbcfd21de	-0.030899938
101	0x3d6c57aa	0.05770079
102	0xbed24344	-0.41066945
103	0xbde6ac47	-0.11263328
104	0xbdef149d	-0.116738535
105	0x3e0e5038	0.13897789
106	0xbd8af92e	-0.067858085
107	0xbe132037	-0.14367758
108	0xbe93bc82	-0.28854758
109	0xbd4a4791	-0.049384657
110	0xbe884d3a	-0.2662142
111	0x3d83b57e	0.06431101
112	0xbda01197	-0.07815855
113	0xbebe2bf9	-0.37142923
114	0x3ee0b6ac	0.43889368
115	0x3d5caf80	0.053878307
116	0x3e6d8e47	0.23198806
117	0x3e8a43c7	0.27004835
118	0x3f3597f9	0.70935017
119	0xbd5d362c	-0.05400674
120	0xbe09ceb7	-0.13457762
121	0x3e26392a	0.16232744
122	0x3d9aaab1	0.07552088
123	0xbdd3f2a9	-0.10349018
124	0x3eacf6a0	0.3378191
125	0x3ee1fa82	0.44136435
126	0xbf1561a3	-0.58352107
127	0xbdda95eb	-0.10673126
128	0xbe09571c	-0.13412136
129	0x3ebb9add	0.3664159
130	0x3daee970	0.085406184
131	0x3e541e0d	0.20714588
132	0xbdc1f413	-0.094703816
133	0x3e63dd9c	0.22252506
134	0x3c0d9ee0	0.008643836
135	0xbe715295	-0.23566659
136	0xbe84f7be	-0.25970262
137	0x3e6eebe5	0.23332174
138	0xbd9e2a56	-0.07722919
139	0x3de4f373	0.11179247
140	0x3e8e2019	0.27758864
141	0x3eece71b	0.4627007
142	0xbca67368	-0.020318702
143	0x3e2a9599	0.1665863
144	0x3ee1f6a7	0.44133493
145	0xbebe474d	-0.37163773
146	0x3e845839	0.2584856
147	0x3ee4dfab	0.44701895
148	0x3eaf896e	0.34284538
149	0xbda7cb3a	-0.08193059
150	0x3f0d77e5	0.5526107
151	0xbe531469	-0.20613255
152	0x3e10b20e	0.14130422
153	0xbdf9ee78	-0.122036874
154	0xbe993a25	-0.29927173
155	0x3e737fe8	0.23779261
156	0x3eb3e7d1	0.351378
157	0xbe931f84	-0.28734982
158	0x3eb478f9	0.35248545
159	0x3ed90c1f	0.4239206
160	0xbcfcda8d	-0.030865932
161	0xbe8ab135	-0.27088323
162	0xbc9a2e6f	-0.01882097
163	0x3d9ca4c6	0.076486155
164	0xbd45dd5c	-0.048306808
165	0x3c0cd1a6	0.008594906
166	0xbe148d58	-0.14507043
167	0xbe780262	-0.24219659
168	0xbd1b18dc	-0.037865505
169	0xbdd357e7	-0.103195004
170	0x3d203630	0.039114177
171	0xbd185f18	-0.037200063
172	0x3e07a0d6	0.13244948
173	0x3e0a9b5a	0.13535824
174	0x3d3d2a81	0.046183113
175	0x3d9452c8	0.07242352
176	0x3c4c04f3	0.012452352
177	0xbeba8548	-0.3642981
178	0x3e72d5e3	0.23714404
179	0x3ee19ee1	0.44066527
180	0xbe067c8a	-0.13133445
181	0x3c66ecce	0.014094545
182	0x3d5d0f0d	0.05396943
183	0x3e810a8e	0.25203365
184	0x3e4943e3	0.19654803
185	0xbd4adbe7	-0.04952612
186	0xbe04229b	-0.12903826
187	0x3ef8532e	0.4850096
188	0x3e898641	0.2686024
189	0xbca00182	-0.019531969
190	0x3e8fabf3	0.28060874
191	0x3e6c6098	0.23083723
192	0xbbf502d7	-0.007477145
193	0x3e175758	0.14779413
194	0x3e694f17	0.22784077
195	0x3f0c487a	0.5479809
196	0x3da95d1e	0.08269714
197	0xbe789319	-0.24274863
198	0x3e239663	0.15975337
199	0xbe31441e	-0.17311141
200	0xbd6f3bd8	-0.05840668
201	0x3d2924c7	0.04129484
202	0x3e90f741	0.2831364
203	0xbcb024df	-0.021501957
204	0x3e58bd5b	0.21165983
205	0x3dd33654	0.10313097
206	0x3ea77aa4	0.32710755
207	0x3d092124	0.03347887
208	0x3e846b18	0.25862956
209	0xbe69b209	-0.22821821
210	0x3e9524aa	0.29129535
211	0xbd0326f2	-0.032019563
212	0xbd74db3b	-0.059779387
213	0x3e9f9bc2	0.3117352
214	0xbd1e27bf	-0.038612124
215	0xbe3023ef	-0.17201208
216	0xbea8b84e	-0.32953113
217	0xbd62625a	-0.055269577
218	0x3db0cfc8	0.08633381
219	0x3d189523	0.037251603
220	0x3e674e7e	0.22588536
221	0xbf04c026	-0.51855695
222	0xbddc5ee9	-0.1076029
223	0xbe9fb281	-0.31190875
224	0xbba2f81e	-0.0049734255
225	0x3db9f998	0.09080809
226	0x3eaf9187	0.34290716
227	0xbcb948e9	-0.022617774
228	0x3e9c274f	0.3049874
229	0x3e28398a	0.164282
230	0x3d726161	0.0591749
231	0x3cd83292	0.026391301
232	0x3e1d355f	0.1535239
233	0x3ec632d8	0.38710666
234	0xbcdad073	-0.026710724
235	0x3ce2c9af	0.02768406
236	0xbc5dd7ba	-0.013540203
237	0xbecbb8f1	-0.39789537
238	0x3eb3468c	0.3501476
239	0x3dd40a0b	0.10353478
240	0x3e2403aa	0.16017023
241	0xbe248667	-0.16066895
242	0xbddcce46	-0.10781531
243	0xbecc4e9b	-0.3990372
244	0x3d9c31c7	0.07626682
245	0x3e1c0e08	0.15239727
246	0x3ed46491	0.41482976
247	0x3de189e3	0.11012628
248	0xbeb6dc1f	-0.35714814
249	0xbe275d45	-0.16344173
250	0xbd8882d5	-0.06665579
251	0xbe7d788b	-0.24753015
252	0xbe196777	-0.14980875
253	0x3dc9f732	0.09861602
254	0xbee310fb	-0.44348893
255	0xbe34ebb8	-0.17668045

network_body._body_endoder.seq_layers.2.bias f4 [128]
0	0x3c84c7b1	0.016208502
1	0x3c546d0a	0.01296545
2	0x3c6c413b	0.014419849
3	0xbbf12660	-0.007359311
4	0xbc71a4f2	-0.014748799
5	0x3bdbecbb	0.00671157
6	0x3afaf9ec	0.0019147969
7	0x3c944668	0.018099979
8	0x3bc34619	0.005959284
9	0x3b9579bb	0.0045616305
10	0x3cd5e93b	0.02611219
11	0x3c5fe238	0.013664775
12	0x3c31df8a	0.0108565185
13	0xbbc191ac	-0.005907258
14	0x3b707f0b	0.0036696817
15	0x3b456ca4	0.003012457
16	0xbb5dd838	-0.00338508
17	0xbbc2148f	-0.005922861
18	0x3c540b62	0.012942167
19	0x3c345521	0.011006624
20	0xbaa24f74	-0.0012383298
21	0x3bb97f8e	0.0056609577
22	0x3c1ed874	0.009695161
23	0x3ba5ed73	0.0050637065
24	0x3b3847a4	0.0028118873
25	0x3b257e7a	0.0025252388
26	0x3c8fe114	0.01756338
27	0xb8ab14c1	-8.157781e-05
28	0xbbad0aa4	-0.0052808095
29	0x3c028dfe	0.007968424
30	0x3bc01fd8	0.005863171
31	0xbc9089b4	-0.017643787
32	0x3c9817ae	0.018565979
33	0x3b2551a8	0.0025225673
34	0x3c59327f	0.013256668
35	0x3ac88272	0.0015297665
36	0x3a9039b0	0.001100352
37	0x3b89c65c	0.0042045545
38	0x3c104678	0.008805864
39	0x3beaa554	0.007160822
40	0x3b85d878	0.004084643
41	0xbb8b332f	-0.004248045
42	0xbb06b979	-0.0020557328
43	0xbade463d	-0.0016958188
44	0xb9ec9d16	-0.00045130466
45	0x3b21f120	0.0024710372
46	0xb9220ebe	-0.00015455016
47	0x3bac523d	0.005258827
48	0x3b8db862	0.0043249587
49	0x3babcb8f	0.005242772
50	0xbb21f9e9	-0.0024715608
51	0x3c0d371b	0.008619095
52	0xbb51bf81	-0.0032005014
53	0xbc25d8b6	-0.010122469
54	0xbc59658c	-0.01326884
55	0x3c6bf1ab	0.01440088
56	0x3b35c584	0.0027736137
57	0xbbd4e3ea	-0.006496896
58	0x3be044dc	0.006844146
59	0x3b143e82	0.0022620265
60	0x3ceb9b80	0.028760672
61	0xbc2edfc5	-0.010673468
62	0x3cc6df68	0.02427645
63	0x3c230878	0.00995075
64	0xbbe97284	-0.007124247
65	0xbb1c1b7d	-0.0023820095
66	0x3ca6ecb7	0.020376546
67	0x3c0ba8df	0.008524149
68	0xbc1616a5	-0.009160672
69	0xbbeae1eb	-0.007168045
70	0x3b80db5d	0.0039324
71	0x3c2e1416	0.010624906
72	0xbbaa4f46	-0.0051974384
73	0x3b6fe34a	0.003660398
74	0xbbf245eb	-0.007393589
75	0xba9ac90d	-0.0011809185
76	0xbc0d38b2	-0.008619474
77	0x3c35af43	0.011089149
78	0x3cebfe28	0.028807715
79	0x3c47441b	0.012162234
80	0xbc89da37	-0.016827686
81	0x3c08996c	0.00833736
82	0xbc03cdf1	-0.008044706
83	0x3a29e587	0.00064810406
84	0x3c8897ab	0.016673883
85	0x3c1c72ad	0.009548825
86	0xbcb4c426	-0.022066187
87	0x3b0bd1c4	0.0021334747
88	0x3ac2bea9	0.0014857847
89	0xbc4ac2aa	-0.012375513
90	0xbc028629	-0.007966557
91	0xbadd06db	-0.0016863005
92	0x3b93c3a8	0.004509408
93	0x3aac8306	0.0013161607
94	0xbc432783	-0.011911276
95	0x3bc444b8	0.005989637
96	0xbb8e99f8	-0.0043518506
97	0x3b1bf6df	0.002379827
98	0xbb59150d	-0.003312412
99	0x3c5ca8c4	0.013467971
100	0xbbb0fb54	-0.0054010544
101	0x3a8ef533	0.0010906815
102	0x3ac6d013	0.0015168212
103	0x3c360c7d	0.011111376
104	0x3ba400e6	0.00500499
105	0x3bb29c58	0.0054507665
106	0x3b48ea90	0.0030657388
107	0x3c7fe6a7	0.015618957
108	0x3c21e8b8	0.009882145
109	0xbcaf7da1	-0.02142221
110	0x3c174d0e	0.00923468
111	0xbc3756bb	-0.011190112
112	0x3be2b436	0.0069184555
113	0x3bac4364	0.005257057
114	0x3bcaa6e3	0.006184445
115	0x3bce1310	0.0062888935
116	0xbb324af6	-0.0027205325
117	0x3ca6b0d5	0.020347992
118	0x3b216875	0.0024628912
119	0x3c7e53e4	0.015522931
120	0x3c677564	0.014127109
121	0x3ba1dedf	0.0049398984
122	0x3baa8641	0.0052039926
123	0xbbbf0f56	-0.0058306856
124	0x3be1404d	0.0068741203
125	0xbc589bfc	-0.013220783
126	0x3c23d7f0	0.010000214
127	0xbbf39a2d	-0.0074341507

network_body._body_endoder.seq_layers.2.weight f4 [128, 128]
0	0x3ce3ba62	0.027798835
1	0xbccff67a	-0.025386084
2	0xbd6b3285	-0.057421226
3	0x3da2a347	0.07941299
4	0xbde18508	-0.11011702
5	0x3d0095b3	0.031392764
6	0x3d0d77e5	0.03453817
7	0x3da96259	0.082707115
8	0xbd0d0876	-0.034431897
9	0x3e07c04a	0.13256946
10	0x3dc7b840	0.0975194
11	0xbe71a316	-0.23597369
12	0x3e13e3eb	0.14442413
13	0x3cd6402f	0.026153652
14	0x3db19d1c	0.08672544
15	0x3c839756	0.016063374
16	0x3cd5a676	0.026080351
17	0x3dbe7ecb	0.093015276
18	0xbca9bb64	-0.020719238
19	0x3d2c2dd6	0.0420359
20	0x3dd44701	0.103651054
21	0xbd77811f	-0.060425874
22	0x3d9ecf25	0.077543534
23	0xbd81dff4	-0.06341544
24	0x3e0cd91e	0.13754699
25	0xbd9ab63d	-0.075542904
26	0xbdffe5e1	-0.12495018
27	0x3d8f8080	0.07006931
28	0xbe85b543	-0.26114854
29	0x3e1fcdf1	0.15605904
30	0xbc8b1696	-0.016978543
31	0xbc85702f	-0.016288845
32	0x3dae8d23	0.085230134
33	0x3e76a5ba	0.24086657
34	0xbdc93ae0	-0.09825683
35	0xbc231832	-0.009954499
36	0x3cf098f0	0.029369801
37	0x3e1f2e1c	0.15544933
38	0xbcd76abe	-0.026296016
39	0x3c4ab898	0.012373112
40	0x3dd03781	0.101668365
41	0x3c96f3e2	0.01842684
42	0x3d4b3086	0.049606822
43	0x3d5404f4	0.051762536
44	0x3c6f5bea	0.014609316
45	0x3bf466a6	0.0074585257
46	0xbcd28c5c	-0.025701694
47	0x3df20d42	0.11818935
48	0xbd3f8f9b	-0.046767812
49	0x3d9fd73d	0.07804725
50	0xbe25df86	-0.16198549
51	0xbdc26261	-0.094914205
52	0x3e0b6c67	0.13615571
53	0xbde6c16f	-0.11267363
54	0xbdf197c4	-0.11796525
55	0x3d98728b	0.07443722
56	0xbe0b5d75	-0.1360987
57	0xbd4445b8	-0.04791805
58	0xba6db8be	-0.0009068361
59	0x3e36d661	0.17855217
60	0xbc8dcbef	-0.017309157
61	0x3d3f71eb	0.0467395
62	0xbdf3e8f2	-0.11909665
63	0xbd22c010	-0.039733946
64	0xbd078de8	-0.033094317
65	0xbe205986	-0.1565915
66	0x3cb26e13	0.021781003
67	0x3e42d3fd	0.1902618
68	0xbe7e2ca5	-0.24821718
69	0x3d7c185e	0.061546676
70	0xbdbf97a4	-0.09355095
71	0x3e0f8f09	0.14019407
72	0xbbfd8503	-0.0077368035
73	0x3e2278d7	0.15866409
74	0x3dbc3730	0.09190214
75	0x3df51ed5	0.11968771
76	0xbc0f3ca4	-0.008742485
77	0x3dd0e2ed	0.10199533
78	0xbd54490d	-0.05182748
79	0x3b16a13c	0.0022984287
80	0xbcaf3996	-0.021389764
81	0x3e02f245	0.12787731
82	0xbc834cee	-0.016027894
83	0x3e1d5832	0.15365675
84	0x3e1c5e32	0.15270308
85	0xbd9c9868	-0.07646257
86	0xbd9d7d1a	-0.07689877
87	0xbd7f42d4	-0.06231959
88	0x3d08a8e7	0.033364203
89	0x3df46590	0.11933434
90	0xbe0553a4	-0.13020188
91	0xbd2082fc	-0.039187416
92	0x3d7548ec	0.059883997
93	0x3d255cfc	0.04037188
94	0xbe07754d	-0.1322834
95	0xbc9ab5a2	-0.018885437
96	0xbd9ae2ef	-0.075628154
97	0x3da69eee	0.08135782
98	0x3d1fb719	0.038992975
99	0xbd8c3288	-0.068455756
100	0x3d8bdb72	0.06828965
101	0xbdab3dcf	-0.083613984
102	0xbd865473	-0.06559076
103	0x3e07ad92	0.13249806
104	0xbd8e4d31	-0.06948317
105	0xbd5e3fdf	-0.05426013
106	0xbd3e5f40	-0.046477556
107	0xbd02a7ac	-0.031898186
108	0xbba143e4	-0.0049214233
109	0x3da6c6c1	0.08143378
110	0xbb436f99	-0.0029821156
111	0x3dc235af	0.094828956
112	0x3e0fa9a0	0.1402955
113	0xbb5dcda6	-0.00338445
114	0x3e5ac444	0.21363932
115	0xbe06ae19	-0.1315235
116	0xbdb13cf7	-0.08654206
117	0xbc09d16f	-0.008411749
118	0xbbcf461f	-0.0063254978
119	0x3cb686ac	0.022281013
120	0x3c949531	0.018137546
121	0x3c7fb062	0.015606018
122	0xbd44c763	-0.048041712
123	0x3d970a4a	0.07375009
124	0xbd149a0e	-0.03627973
125	0x3d9e37e0	0.07725501
126	0x3da21501	0.079141624
127	0xbdb24b5f	-0.08705782
128	0x3d4c2ca0	0.049847245
129	0x3dae15d0	0.08500254
130	0x3d9ef24a	0.07761057
131	0x3cd52bcb	0.026021859
132	0xbe23794a	-0.15964237
133	0x3d925d69	0.07146723
134	0xbd454232	-0.048158832
135	0xbd0dcee6	-0.03462114
136	0x3df3da53	0.119068764
137	0x3de33092	0.110932484
138	0x3e0b3d0a	0.13597503
139	0xbbb22b73	-0.0054373085
140	0x3d2c6143	0.042084944
141	0xbda0281b	-0.078201495
142	0xbd91dae0	-0.07121825
143	0x3e17a037	0.14807211
144	0xbd8b8bd9	-0.06813783
145	0x3d6a0a30	0.05713862
146	0x3d4ebefb	0.050475102
147	0x3c3d62b3	0.011559176
148	0xbc8f8a70	-0.017522067
149	0x3ddbe9d9	0.10737962
150	0xbe0eea14	-0.13956481
151	0x3d044695	0.032293875
152	0x3d7b095e	0.06128823
153	0x3e35b50d	0.17744847
154	0xbd6d6f15	-0.057967264
155	0xbde1b613	-0.11021056
156	0x3ddd810a	0.10815628
157	0x3d192278	0.037386388
158	0x3e22f947	0.15915404
159	0x3cee0c06	0.029058468
160	0xbe752ce7	-0.2394291
161	0xbd5385a5	-0.051641125
162	0xbdbbc575	-0.09168521
163	0x3d13dd56	0.036099754
164	0xbd85a5fd	-0.065258004
165	0xbc4963cc	-0.01229186
166	0x3e01ffff	0.12695311
167	0xbde76a4c	-0.112995714
168	0x3d7381e3	0.05945004
169	0xbd1e6e25	-0.03867926
170	0xbd3c5323	-0.045977723
171	0x3dff1f64	0.12457159
172	0xbe0b169f	-0.13582848
173	0x3ca253af	0.019815294
174	0xbc18faf9	-0.00933718
175	0xbcd30b19	-0.025762128
176	0x3cc88889	0.024479168
177	0xbca38c3c	-0.01996433
178	0xbc6b23bd	-0.014351782
179	0x3da98ae9	0.08278448
180	0x3e0ffd94	0.14061576
181	0x3d56cbfe	0.052440636
182	0x3d6f0876	0.05835768
183	0xbc562378	-0.01306998
184	0xbdcc4bb7	-0.09975379
185	0xbd20600a	-0.03915409
186	0xbd7686b7	-0.060187068
187	0xbd8aca17	-0.06776827
188	0x3cbd8a08	0.023137107
189	0x3d19da6f	0.03756183
190	0x3d5279fe	0.051385872
191	0x3c904d10	0.017614871
192	0x3e1fb7a3	0.15597396
193	0x3e039aa4	0.1285196
194	0x3e11a8ba	0.1422452
195	0xbe1b2d94	-0.15154105
196	0xbe0fa79e	-0.14028785
197	0xbd4798df	-0.048729774
198	0xbd1ee582	-0.038793094
199	0x3d9d9487	0.07694345
200	0xbdfae695	-0.12251011
201	0x3dd382b8	0.10327667
202	0xbd310f48	-0.043227464
203	0x3947afef	0.00019043659
204	0x3cf77dc5	0.030211339
205	0xbb5868c7	-0.0033021437
206	0x3b9a323e	0.0047056964
207	0x3e156d8d	0.14592572
208	0x3db80b11	0.08986486
209	0xbc784b3b	-0.015154655
210	0x3d1d34cb	0.038380425
211	0xbd825af9	-0.06365008
212	0xbdb8bb1a	-0.09020062
213	0x3d330268	0.043703467
214	0xbd8fd7af	-0.0702356
215	0xbda895a7	-0.08231669
216	0x3da3506d	0.079743244
217	0xbd8dc8eb	-0.06923088
218	0xbd992643	-0.07478001
219	0xbd91cb1d	-0.07118819
220	0xbe00f384	-0.12592894
221	0xbbbb51da	-0.0057165446
222	0xbbeb41b6	-0.007179464
223	0x3cdbe8dc	0.026844434
224	0x3da39a18	0.079883754
225	0x3ddeaf56	0.108732864
226	0x3d5df2d9	0.054186676
227	0x3d6c9b8b	0.057765525
228	0xbe18f1bc	-0.14935964
229	0x3c101bad	0.008795661
230	0xbdca4cf3	-0.09877958
231	0x3dd1a425	0.10236386
232	0x3d07e528	0.033177525
233	0xbd91b8ae	-0.07115303
234	0x3d452389	0.048129592
235	0xbdaebc66	-0.08532028
236	0x3ca553a9	0.020181494
237	0x3d34b404	0.04411699
238	0xb9f70f8b	-0.00047123092
239	0xbd88c63a	-0.06678434
240	0xbda52ca9	-0.08065159
241	0xbdeab1f7	-0.11459725
242	0xbdf2fef6	-0.11865036
243	0xbc8554fc	-0.016275875
244	0xbd9b3145	-0.07577757
245	0xbc0cc293	-0.008591312
246	0x3dc848cc	0.0977951
247	0x3d925376	0.07144825
248	0x3da9c281	0.08289052
249	0xbcf2a53e	-0.02961981
250	0xbe1ca743	-0.1529818
251	0x3dc92557	0.09821575
252	0x3e02ccd3	0.12773447
253	0xbb2caea0	-0.0026349202
254	0xbb498984	-0.0030752132
255	0x3ddb93e1	0.10721565

network_body._body_endoder.seq_layers.4.bias f4 [128]
0	0xbbaefcdc	-0.005340202
1	0x3ad8ab7d	0.00165306
2	0x3c3d60c5	0.011558716
3	0xbb0e72ca	-0.00217359
4	0x3b96c6e9	0.0046013487
5	0x3b4ef282	0.0031577651
6	0xbc05b451	-0.008160667
7	0x3bed882d	0.0072488994
8	0x3c4d6b87	0.012537844
9	0xbabf617b	-0.0014601195
10	0xbc81f37d	-0.015863175
11	0x3c68ea01	0.014215947
12	0x3c7ecc4f	0.015551641
13	0xbb679431	-0.0035336132
14	0xba698978	-0.0008908729
15	0x3c1548b7	0.009111575
16	0xb94436af	-0.00018712388
17	0x3bfa6a07	0.007642034
18	0x3b2fa125	0.002679893
19	0x3c8e3591	0.017359527
20	0x3c6cd2eb	0.014454584
21	0x3c6d1042	0.014469208
22	0x3a87e00f	0.0010366457
23	0x3b1530d2	0.0022764695
24	0x3c9f57f2	0.019451115
25	0x3cc85160	0.024452865
26	0xbbdf13a6	-0.006807762
27	0x3c3649bf	0.011125981
28	0x3c122519	0.008919978
29	0x3b7090c6	0.0036707385
30	0xbaffe1fa	-0.0019522302
31	0xba8ee945	-0.001090326
32	0xbbd76fe0	-0.006574616
33	0xbc501ce3	-0.0127022
34	0x3beedf2d	0.007289788
35	0xbb3b41f1	-0.002857324
36	0xbca33ee4	-0.01992745
37	0xbab2bfcc	-0.0013637482
38	0x3cdfe0a6	0.0273288
39	0x3bcba0fe	0.00621426
40	0x3bfac731	0.00765314
41	0xbcbd2325	-0.023088047
42	0xbbf4a04f	-0.0074653993
43	0xb9f1d057	-0.00046122327
44	0xbb4dd0d5	-0.0031404991
45	0x3c86f2e3	0.01647324
46	0x3b382409	0.002809765
47	0xbb4b79b4	-0.0031047883
48	0xbb548078	-0.0032425206
49	0x3c6bcd05	0.014392142
50	0x3c8e9e29	0.017409401
51	0x3ca82a38	0.020527944
52	0x3b222a59	0.002474448
53	0x3ba6ab5d	0.005086346
54	0xbb887eb8	-0.0041654967
55	0x3c93aa07	0.018025411
56	0x3bdfbf30	0.0068282112
57	0xbb72bff2	-0.0037040678
58	0x3c11d40f	0.008900656
59	0x3976bcf0	0.00023530773
60	0x3c7c20b7	0.015388659
61	0xbb6373c4	-0.0034706453
62	0x3bf314fd	0.0074182735
63	0xbba05782	-0.0048932442
64	0x3bd50700	0.0065010786
65	0x3b40d8f6	0.0029426194
66	0xbc0d613d	-0.00862914
67	0x3c15af2c	0.0091360025
68	0xbb7a1f18	-0.0038165506
69	0x3bcb9021	0.00621225
70	0xbb951724	-0.0045498777
71	0xb9b4f559	-0.00034515074
72	0xbbe5dfef	-0.0070152204
73	0x3b43abb8	0.002985699
74	0x3bb92598	0.0056502335
75	0x3c988445	0.018617759
76	0x3bfcd8a8	0.007716257
77	0xbbb27191	-0.005445667
78	0x3c4e8110	0.012604013
79	0xb7ca95cf	-2.4150037e-05
80	0xbbf05c1f	-0.0073352004
81	0xbcaf0ddc	-0.021368913
82	0xbb26e63f	-0.0025466827
83	0x3cda1121	0.026619496
84	0x3c1849ef	0.009294971
85	0xba95522c	-0.0011392287
86	0x3b85af9f	0.0040797736
87	0x3c3c880c	0.0115070455
88	0x3acaf23e	0.0015483571
89	0x3c051a66	0.00812397
90	0x3b8fd5a1	0.00438948
91	0x3cdd5a20	0.027020514
92	0xbc199e44	-0.009376112
93	0x3c315e3c	0.01082569
94	0x39bbb032	0.00035798695
95	0x3cd4b218	0.025963828
96	0xbb413033	-0.0029478192
97	0x3b57093a	0.0032811896
98	0xba977032	-0.0011553823
99	0xbbe9165f	-0.0071132625
100	0x3b754e38	0.0037430655
101	0x3b2bfae7	0.0026242079
102	0xbb003b5e	-0.0019566636
103	0x3a07decf	0.00051830424
104	0x3c4cd1ff	0.012501239
105	0x3c19f951	0.009397821
106	0x3c62f4e5	0.013852333
107	0x3c1a9754	0.0094354935
108	0x3b4fbee7	0.003169948
109	0xbc951d95	-0.018202582
110	0x3c15f0d1	0.009151653
111	0xbb8d759f	-0.004317
112	0xbca71302	-0.020394806
113	0x3c177522	0.009244235
114	0xbc3653c2	-0.011128368
115	0x3b805894	0.0039168093
116	0x3b8d5833	0.0043134927
117	0x3c46f6e9	0.012143829
118	0x3c3b6e4a	0.011439869
119	0xb95f864e	-0.0002131697
120	0xbbddb8de	-0.0067664227
121	0x3b79d3a8	0.0038120542
122	0xbc4a42e9	-0.012345054
123	0x3cb3930a	0.0219207
124	0xbb12f26d	-0.002242233
125	0x3b584c84	0.0033004591
126	0x3a1c3f6f	0.000596038
127	0xba20eaf8	-0.00061385287
