results/SeekerAgent/SeekerAgent/SeekerAgent-157001.onnx (onnx, 344226 bytes, 12 tensors)

101 f4 [1, 256, 128]
00000000: e593 4fbe 6ed9 3bbd 0d33 0e3e be5f 94bd
00000010: ba88 1abe 1c52 0ebe 6adb 2bbe f7b4 b63d
00000020: f2e9 febd c793 51bd 1242 b2bd 72eb 363e
00000030: 8578 f43d edf6 643d eebc f33d 2fc6 16bd
00000040: ad13 dc3d d25c ac3d 51e0 a3bd 045d 113e
00000050: 8070 a0bb 6149 f3bd a7b9 e0bc 2158 cc3d
00000060: f57d 83bd 001a 513e 897e 053e cf4b d1bd
00000070: ff8f 6dbd 21c8 0cbd 97e6 f53c 617e 0abe
00000080: a925 03be 203e 353d ff9b e33d 309f 123e
00000090: d7c4 1c3d 6e85 263e 2e27 8ebd 8565 613d
000000a0: e908 263e 4a68 80bc 9c9c dcbd f32c b0bd
000000b0: 35c4 15be 3750 db3d 758d 433a d599 143e
000000c0: 5886 243e e4bf 913c 3990 233d 774b bd3d
000000d0: 8155 b6bd 1859 3d3d 796d 8ebd 61ee 12be
000000e0: 19d5 fabc 5d58 19be 8bf9 f23d b0f4 513d
000000f0: 78dc 02bd 2ad8 fe3d 6a21 aabd 0a28 d73d
00000100: 5c85 c3bd 7e71 a2bd 7793 edbd c323 2c3b
00000110: 946b be3d d597 17bd c122 02be 232a bbbd
00000120: f916 a63c 7dd2 b23d 1ff6 223e 0f37 1b3e
00000130: 5039 ac3b 3a34 0fbd ee09 35be 47eb 1c3e
00000140: 0926 7cbd 1ec5 3d3d f2af 1e3e 34c4 51bd
00000150: a269 11bd 0d61 4a3d 6e07 19be b374 67bd
00000160: f1b5 563c 0bc4 07bd 79b5 edbb acc5 be3d
00000170: b646 86bd 591b 993d d194 0dbd a825 2e3e
00000180: afe5 14be e63f 713d 0504 113d b8a0 40be
00000190: c6c7 1f3d 85b8 c9bd b370 f7bb e8ae 58bc
000001a0: 5f66 54be b667 a03d a599 e53d df6c 02be
000001b0: a0d3 113e a6ed 9dbd 8717 ca3d 2c77 873d
000001c0: de15 183e 2fd6 c33c b088 273c 410d 32be
000001d0: 7bc3 f9bd 3eb2 2b3e 3198 38bd d799 d2bd
000001e0: e83a 3b3e ee6f f2bd 7479 abbd 6112 d4bd
000001f0: 767d d13d 719d da3c 7cee 75bd d279 1bbd
00000200: d50b 9bbd 4614 c6bd 0920 25be ed19 523e
00000210: 31e4 1cbd afaf fd3d 4719 28bd 9443 683d
00000220: 5377 d93d 20b7 a1bd 19c2 293d dfe8 30be
00000230: 01ec 1b3e 8e62 6b3d 2d8d 13be d54a 283e
00000240: 7489 5bbd 1ccd ba3c b7d5 13be bdbc 53bd
00000250: 2d96 d1bd dc67 9fbd a5e6 3cbc 7020 ac3d
00000260: ee21 16be b613 14be 3a5a 93bd 5b81 99bd
00000270: 98ad 5839 4c61 c83c be3f 5fbb 1ca6 163d
00000280: b14b c33c 7fe8 0f3e 5499 f43d b8d4 99bc
00000290: 1d61 6bbd b5a8 053e 0565 eabc 2b31 a8bc
000002a0: 17aa acbc 833e 0c3e a353 b0bc 75f6 f1bd
000002b0: 8771 28be bd53 1abd 1999 28be fa6c 1c3e
000002c0: 0096 4abe f6e6 b33c 31d5 1b3e 81b7 763d
000002d0: 98a3 953b 980e 2e3b 8972 01be 9744 f03d
000002e0: 60e7 edbd 59f3 15be 11b9 e43d 5c81 23bd
000002f0: fc50 b33d b3d1 0b3d d76a 08be fb72 573c
00000300: 3c69 80bd 41b5 d73d 5851 a2bd d825 98bd
00000310: 3255 213e 2cf7 24bd 58fd cfbd 9420 b4bd
00000320: fe2f b53d 3a11 803d c61b 043e 3de1 793d
00000330: e65f c73d c1cc 4e3d bff4 8cbd 4d71 283d
00000340: b9cd 30be 2b20 233d f948 c4bd ea5d 053e
00000350: a48b 283e a339 333e 368b 553d 8a13 9ebd
00000360: 40ff 5c3d 35d0 e23d 7ca6 803c a3c8 1fbe
00000370: 0ee4 4cbc 9aeb 793d 0787 a8bc 3e22 7d3d
00000380: 1873 0ebe 9b85 f53d 35bf 0c3e e9f8 a63d
00000390: 3bad e8bd e4d7 87bd ac65 9abd 6e02 0a3e
000003a0: 5418 2cbe c3bd 11bd bc5d 8ebd 499d f13c
000003b0: 49f4 e2bd fb2f 503d 75ee 1d3e 542a cb3c
000003c0: 48a8 163e 1259 e0bd d976 14be 9869 153e
000003d0: 576f 00be da58 fbbd df0f eb3a d440 f53d
000003e0: 6785 f13d 2321 263e f753 95bc e8ea ed3d
000003f0: dafc 043e 356a 90bd e506 e83d 64ff 153e
-0.20271261 -0.045861654 0.13886662 -0.07244824 -0.1509122 -0.1389851 -0.16782919 0.08921235
-0.12446965 -0.051166322 -0.08704008 0.17863253 0.1193705 0.05589955 0.1190127 -0.036810096
0.1074594 0.084161416 -0.08001769 0.14195639 -0.0048962235 -0.1187923 -0.027432276 0.09977747
-0.06420509 0.20420074 0.1303655 -0.102195375 -0.057998654 -0.034370545 0.03001718 -0.13524772
-0.12807335 0.0442487 0.11113738 0.14318538 0.03827366 0.16261837 -0.06941067 0.055028457
0.16214336 -0.015674729 -0.10772058 -0.086023234 -0.14625628 0.10708659 0.00074597384 0.14511807
0.16066873 0.017791696 0.039932463 0.092429094 -0.08903027 0.046227545 -0.06954474 -0.14348747
-0.030619191 -0.14975114 0.11864003 0.051258743 -0.031948537 0.12443574 -0.083071545 0.10505684
-0.09546921 -0.07931803 -0.11600392 0.0026266433 0.09297863 -0.037010033 -0.1270857 -0.09138896
0.020274626 0.08731554 0.159142 0.15157722 0.0052558556 -0.034961917 -0.17679569 0.15324126
-0.06155971 0.046330564 0.15496805 -0.051212505 -0.03550113 0.04940896 -0.1494424 -0.056507777
0.013104902 -0.033145946 -0.0072542992 0.09315047 -0.06556456 0.07475919 -0.03456575 0.17006552
-0.14540742 0.05889883 0.035404224 -0.1881131 0.03900888 -0.098496474 -0.0075512766 -0.013225295
-0.20742176 0.07832281 0.11210946 -0.12736844 0.14240885 -0.077113435 0.09867769 0.06614527
0.14852092 0.023905842 0.01022546 -0.17387868 -0.12195488 0.16767213 -0.045067016 -0.10283249
0.1828419 -0.11837755 -0.08372775 -0.10355068 0.10229008 0.026686402 -0.06004189 -0.037957974
-0.07570616 -0.096718356 -0.16125502 0.20517702 -0.038303558 0.123870246 -0.04103973 0.056705073
0.106184624 -0.078962564 0.04144487 -0.17276333 0.15226747 0.057467036 -0.14409323 0.16434796
-0.053597882 0.022802882 -0.14436994 -0.051693667 -0.10233722 -0.077834815 -0.011529599 0.084046245
-0.1466138 -0.14460644 -0.07194944 -0.07495376 0.00020664034 0.024460457 -0.0034065093 0.036779508
0.023839803 0.14053534 0.119433075 -0.01877819 -0.05746566 0.13052638 -0.028612623 -0.020531258
-0.021077199 0.13695721 -0.021524256 -0.11814586 -0.16449557 -0.037677515 -0.16464652 0.15275946
-0.19783783 0.021960717 0.15218045 0.060233597 0.004566621 0.0026558992 -0.12641348 0.117318325
-0.11616397 -0.14643611 0.11168111 -0.03991829 0.08755681 0.03413553 -0.13322006 0.013149972
-0.06270072 0.10532618 -0.07925671 -0.07429093 0.15755156 -0.040274784 -0.10155743 -0.08795276
0.088470444 0.06253286 0.1290122 0.06100582 0.09735088 0.050488237 -0.06882619 0.041123677
-0.17265977 0.0398256 -0.09584231 0.13024107 0.16459519 0.17502455 0.052134715 -0.077185705
0.053954363 0.110748686 0.015704386 -0.1560388 -0.012505544 0.061015703 -0.020572199 0.061800234
-0.13911092 0.11988374 0.13744815 0.081529446 -0.11361166 -0.06632975 -0.075389236 0.1347749
-0.16806155 -0.03558136 -0.06951472 0.029493945 -0.1108175 0.050827008 0.15422995 0.024800457
0.14712632 -0.10954489 -0.14498462 0.14591062 -0.12542473 -0.122728065 0.0017933807 0.119752556
0.117930226 0.16223578 -0.018228514 0.116170704 0.1298708 -0.070515074 0.1132944 0.14648205

102 f4 [1, 256, 64]
00000000: 3f97 2a3d 45b2 fa3d 1aeb 46be 9c1c 32be
00000010: a1c9 d9bc 0db5 05be 5683 ccbd 91d2 dd3d
00000020: d43c 5d3e 4dda 19be fad4 d6bd 575e b2bd
00000030: dfd5 49be f5fc c83d af1b 603e b14c 6d3c
00000040: f7c3 473e 4d93 683d f9be 343e c071 aebd
00000050: c414 da3d 431f 643e 3a3b 14be 65c3 90bc
00000060: 6b61 843c feef db3d 2399 28be cdad 143d
00000070: 82e8 34be 5687 08be 0575 4e3d 0af9 2ebe
00000080: 0974 08be f8b8 443e dfc4 353e 76af e0bd
00000090: 534c c83d 29e4 62bc 8f11 52be 075c adbd
000000a0: 5d0a 34be 58fa 2a3e d1e9 e3b8 245b 3cbe
000000b0: b057 cdbc 2516 93bd ae42 eabd ce67 e53c
000000c0: 0372 0cbe 43c3 4bbd 6008 08be 6c00 163e
000000d0: 9c94 143e 7d37 8ebd 14af 2abe be5f 00bd
000000e0: a8ed e73c 086a 2f3e 86c1 a1bd af41 93bc
000000f0: 1c74 74bd 683f 4fbe ec57 733d dbd3 ce3d
00000100: e456 423e f39b 0e3e fd7f 59be a80b e3bd
00000110: e2fd 05be c525 72be 16d9 8abd 6e0b 9b3d
00000120: 720e 40be 0ded 4fbd fbda cdbc 2027 383e
00000130: d4ad bebd c520 3abe 722c e33a e1ef 03be
00000140: ce00 4b3e 5dc4 b03d 26c2 143e 398a 11be
00000150: 5ba3 46be 3041 56be dd44 84be de6e 393e
00000160: d268 07be ff0a 99bd fcc4 e4bc 99d2 ccbc
00000170: d5ca 963c 4770 023e 8549 e73c f457 633e
00000180: 62d3 b5bd 9a88 293e 83f1 0e3d 96ee 1abe
00000190: 2ab1 31bd 9d9d 1bbe abf3 37be d71e 7c3d
000001a0: c565 713d 54b0 c53d 1091 b3bd 7a3f 8fbc
000001b0: 5d44 f4bd 9294 923c b8ba 43be a328 413e
000001c0: f543 0a3e d2df 08be ac42 6fbe 45b3 4bbe
000001d0: f2bf 303e 718b e03d a7f1 1b3e b3cc 27bd
000001e0: 3129 1b3e 32ff 573d 8279 82bd e117 1b3e
000001f0: c1dc 713e 1a18 39bc 5092 073e dc1c 563d
00000200: 1def 383e 66a2 15bd 7d16 71bd 3a4a 6cbe
00000210: 6817 42be b416 5fbe 9466 243e 5792 4b3e
00000220: 657d 073e 55c4 9b3c a037 50be dc51 b53b
00000230: f64e 41be 40f7 b73d 3e37 37be cd1d 6dbd
00000240: eaca a5bd 495d 1f3d 2267 74bd 10ad aa3d
00000250: 120e 4abe 07d2 bb3a 7fa8 dfbd 4bf9 3e3d
00000260: 890e 4dbe ca15 5cbe d84a 0c3d 16c3 bfbd
00000270: a5cb 41be 4735 023e c8a5 14bc e928 1ebe
00000280: 5447 5cbe fdd1 533e ca7f 2bbd 7985 6fbd
00000290: 6df8 d8bd d734 263c 3db4 debd 49b0 25be
000002a0: 1937 e1bd c4a5 ac3d 3925 b63c bfb4 3e3e
000002b0: d2d0 46be cea2 3dbe c616 88bd a4a8 f8bb
000002c0: 7412 263c 01e8 373d 4f6e 65bc eb11 c83d
000002d0: e736 263e 6119 1abe e854 9ebd 64b9 e43d
000002e0: 556b 70bd 0eec 59be 5acc 48be 33c9 15be
000002f0: ebce 28bd 23fe e23d a811 9e3d 561b 23be
00000300: 17dc c5bd f490 44bd b9be 353e dc3e 48be
00000310: 536d 8cbd 43b1 b1bd 201d 2abe 0ab8 1c3e
00000320: 392f 00be 0f34 7abd c550 093e c5ce 993d
00000330: bfd0 2c3e a193 363e bcee f1bd 25b4 0d3d
00000340: 0c71 b3bd 204e 3d3d 2419 de3c c2b1 573d
00000350: 6913 2e3e bc80 c2bd a0ff 28bd 19d5 5e3e
00000360: e8c5 f2bd 451f c63d c68e 1cbe 6a03 4dbc
00000370: 85cc 13be 2f25 edbd ab4d 96bd 0e43 91bb
00000380: 2213 c33c 3222 64be f371 353e 24b5 b6bd
00000390: 963c 5c3d 5eef d0bc 0a4a ddbd 3852 42be
000003a0: 78ef 12bd 631d 743e f928 8b3c a6b5 e33d
000003b0: 2187 92bd 49cd 40bb 4114 543e 617e 20bd
000003c0: 5f0a 13be 9d26 4c3e fa9d fbbd dd65 c2bc
000003d0: 9eb1 ad3c ef9b c93d 7a33 103e 18ac fcbd
000003e0: d0b9 ce3d 31cc 6d3e 6bb1 4fbe 82da 46be
000003f0: f2e9 16be 68b8 c53c 7e3c 81bd e209 f2bd
0.041648146 0.122410335 -0.19425622 -0.17393726 -0.026585402 -0.13057347 -0.09985988 0.10831178
0.21605235 -0.15024681 -0.10489841 -0.087094 -0.19710492 0.09813873 0.2188556 0.014483617
0.19508348 0.056781102 0.17650975 -0.0851779 0.10648492 0.2227755 -0.14475718 -0.017671296
0.016159734 0.10739134 -0.16464667 0.03629856 -0.1766682 -0.13332877 0.050404567 -0.17087188
-0.13325514 0.19211185 0.17750882 -0.109709665 0.09780183 -0.013848343 -0.2051451 -0.084648184
-0.17582078 0.16697061 -0.00010867755 -0.18394142 -0.025066227 -0.07181958 -0.114384994 0.0280036
-0.13715367 -0.049746763 -0.13284445 0.14648598 0.14509815 -0.06944177 -0.1666835 -0.031341307
0.028311566 0.17130291 -0.0789824 -0.017975656 -0.059681043 -0.20239031 0.05941002 0.10099002
0.18978459 0.13926677 -0.2124023 -0.11086208 -0.1308513 -0.2364722 -0.06779687 0.075705394
-0.1875551 -0.05076318 -0.025128832 0.17983675 -0.09310499 -0.18176563 0.0017331971 -0.12884475
0.19824526 0.08631203 0.14527187 -0.14212884 -0.19398253 -0.20923305 -0.2583379 0.18108699
-0.1322358 -0.074728005 -0.02792596 -0.025002765 0.018407265 0.12738143 0.028233299 0.2220152
-0.08878209 0.16556016 0.034898292 -0.15130076 -0.043381847 -0.15196843 -0.17964046 0.06155285
0.058934946 0.096527725 -0.08767903 -0.017486323 -0.11927102 0.01789311 -0.19114196 0.18863158
0.13502486 -0.1336663 -0.23365277 -0.19892605 0.17260721 0.10964096 0.15228902 -0.0409667
0.15152432 0.052733608 -0.06370832 0.15145828 0.23619367 -0.01129725 0.13239408 0.052273616
0.18059964 -0.03653183 -0.058859337 -0.2307519 -0.18954241 -0.21786004 0.16054755 0.19880043
0.13231428 0.019014517 -0.20333719 0.00553344 -0.18877777 0.08982706 -0.17892167 -0.05788975
-0.080953434 0.038907323 -0.059668668 0.0833379 -0.1973193 0.0014329561 -0.1092081 0.046624463
-0.20025076 -0.21492687 0.034251064 -0.093633816 -0.1892534 0.12715636 -0.009072728 -0.15445293
-0.21511585 0.20685573 -0.041869916 -0.0584769 -0.105942585 0.010144434 -0.108742215 -0.16180529
-0.10996837 0.08430055 0.022234546 0.18623637 -0.19415596 -0.18519136 -0.06644969 -0.007588463
0.0101362355 0.04489899 -0.01400335 0.097690426 0.16231881 -0.15048744 -0.07731038 0.11168173
-0.05869611 -0.21281454 -0.19609204 -0.14627533 -0.041212957 0.11083629 0.077182114 -0.15928397
-0.096611194 -0.0479898 0.17748536 -0.19555229 -0.068567894 -0.08676388 -0.16612673 0.1530458
-0.12518014 -0.061084803 0.13409717 0.07510141 0.16876505 0.17829753 -0.11813113 0.034595627
-0.08761796 0.046217084 0.027111597 0.052659757 0.16999592 -0.094972104 -0.041259408 0.21760978
-0.11854154 0.09673933 -0.15288839 -0.012513021 -0.14433487 -0.11579358 -0.07339033 -0.0044330424
0.023812834 -0.2227867 0.1771925 -0.089212686 0.053768717 -0.025504764 -0.108051375 -0.18976676
-0.035872906 0.23839335 0.01698731 0.11118631 -0.0715468 -0.0029419234 0.20710851 -0.039183024
-0.14359425 0.19936605 -0.12285991 -0.023730213 0.021202859 0.09844195 0.14082137 -0.12337512
0.10094035 0.23222424 -0.20282523 -0.19419292 -0.1473768 0.024135783 -0.06310366 -0.11818291

103 f4 [1, 512]
00000000: ba1f 2d3d 350c 7cba 8e0f 633b a266 983c
00000010: acdb 2d3c 61c2 f23b e4fe 2a3c 073a 323d
00000020: abf1 313d 7977 2f3d 88dc efbb 0df0 473d
00000030: 5b97 283d 61b6 a0bb 2a9b 5d3c f8e9 fc3c
00000040: aaab 373c 1c5e 343d ab75 fa3b 977e 10bb
00000050: c5cd de3b 0848 8ebc 8308 e53c d8ac c23c
00000060: 6c96 0a3d 0c20 7bba 8ac4 d93c 51bb 233d
00000070: e7ba 19bb e953 a63c 4189 99ba bdee c73b
00000080: b5c6 79bc 044b b0bc 86b6 e43c 02a3 863c
00000090: 634d 683c 23f0 dd3c ef25 3a3c 62e3 b73c
000000a0: 33ba 433d b0f1 b03b df8f 093c 7e60 57bc
000000b0: 6399 51bc de65 8abb c1e6 5038 f434 aa3b
000000c0: 8d86 303d 8e65 943d acaf 64bc 2816 803d
000000d0: f90e 0b3d e830 943c d9d7 a53c e0b3 073c
000000e0: 5a6c b63c a7ea ae3b 7996 dfbb e532 7b3b
000000f0: 5f63 263c 8309 b03c dd16 c93c e07a b93c
00000100: 6f45 d83c 7af0 923c 8a8b 7a3c 50da 153d
00000110: 3f44 b73c 6026 643b bd5b 05bc 08bb f33c
00000120: 89f8 c83c e6ce 243d 309b 8439 f622 763d
00000130: 8fcb c93c c84e e7bb 526d f43b f437 d53c
00000140: d9d2 263c 8552 3b3c e1bc 503a 1bb3 d5bc
00000150: 5e16 093c 6c6e c23c de37 693d ed17 203b
00000160: 1a0b 6c3c a326 3b3c f6e8 a93c 7dff fd3c
00000170: 5a86 453c 3c92 7e3c bafe f4bb a072 013b
00000180: 3bb5 2b3c 059c 373c 7498 f03c 9845 bb3b
00000190: 6cb6 dd3b d5d7 273d 69db 333c 8925 853c
000001a0: d6cb fd3c f67c c33c afa9 38bb 7ee0 aabb
000001b0: 5b8c dfbc 9620 b8bb 10d4 c93c 2e19 59ba
000001c0: fd3d 7b3c 4f49 8e3d b678 a13c 32fc 633d
000001d0: 8b7d fb3c 4b67 133c 2242 2e3c 728c 77ba
000001e0: 2be4 763c 6d32 0dbc ccf0 2f39 c2a7 ab3c
000001f0: c7c7 333b 9d18 563c 8b15 5bbb 4f74 b83c
00000200: cf2a 833f e688 803f c804 7c3f 6854 7f3f
00000210: 95c1 833f 21d4 803f 4e81 803f 16fb 803f
00000220: 98d9 833f 73a9 803f a5b6 7e3f 89c8 813f
00000230: c3e1 7f3f c3ab 793f 60d5 813f e6a2 813f
00000240: 7012 823f 865e 823f 3d39 833f cabe 813f
00000250: 48cc 803f 1b13 823f 2a34 803f 2aee 7e3f
00000260: 15dd 833f cc41 7d3f b35f 853f 3b69 813f
00000270: 47da 813f 5762 803f 83c3 7d3f c25d 803f
00000280: e02b 813f ec62 7c3f 0f57 7a3f 6a9e 823f
00000290: b3b3 823f 68d9 823f 772a 813f 91cf 7e3f
000002a0: a769 873f 5570 803f 6297 823f 5333 793f
000002b0: 0362 7c3f 5a8d 7d3f dc1d 7d3f 1bd7 823f
000002c0: fb4a 813f 12f1 7d3f 3c02 7d3f 9f8a 7e3f
000002d0: 028c 813f 0032 813f 9616 813f 5708 783f
000002e0: 656d 843f c3bc 823f 463e 803f 78d5 803f
000002f0: 7e44 833f edfd 813f 8e9a 7f3f 4ac1 7a3f
00000300: 7858 75bb 0c99 1bbc 7d45 e43b 15dd 3f3c
00000310: bb59 dd3a dbf4 43bc cc00 af3c b96e 323c
00000320: 6e71 a13b 8ad8 213c 048d 833c fbe0 49bb
00000330: bc93 cabc 03ec 673c 8746 63bc 5916 cc3b
00000340: ed82 92bb 6a5c 0d3c c78b 16bc e975 cc3b
00000350: 361d 9dbc 80f5 3bbb b8a4 8f3b f252 acbc
00000360: 0349 d0bb c1fc 043c 740f 45bb 59f5 6bbb
00000370: 82fb 913c 0545 543c 1d2f 613c 8003 8ebb
00000380: a59c 5d3c 9e5f 403b de4b a53b 8333 983b
00000390: fc1a 073c 7be8 04bb 4a7d a2bc 8bd9 3a3b
000003a0: 38bc 0ebc 1beb 1f3c 253e 8dba abb0 15bc
000003b0: 60f0 b83c 7998 763b dc9c 733b dc19 593c
000003c0: 26af c4bb af27 3cbc 8567 d1bb 4cf5 a43b
000003d0: ee07 05bb 1daa 023b b56d 4cbc 63b1 a43a
000003e0: 2894 9e3c 080f 103c 4ca4 1fb9 c33b b13b
000003f0: 3927 443a be13 203c d0e3 acbb 8890 dcbb
0.042266585 -0.0009614856 0.0034646722 0.018603627 0.010611456 0.0074084257 0.010436747 0.04351237
0.043443363 0.042838547 -0.0073199905 0.048812915 0.04115997 -0.0049045538 0.0135257635 0.030873284
0.0112103615 0.044035062 0.0076434216 -0.002204811 0.006799432 -0.017368332 0.02795816 0.023764059
0.03383486 -0.00095796655 0.026582975 0.03997356 -0.002345735 0.020303683 -0.0011713878 0.006101458
-0.015245129 -0.021520145 0.027919065 0.01643515 0.014178607 0.027092045 0.011361583 0.022447292
0.047784995 0.005399905 0.008396118 -0.013145564 -0.012792918 -0.0042235693 4.980597e-05 0.005194301
0.043097068 0.072459325 -0.013957899 0.06254226 0.033949826 0.018089727 0.020244526 0.008282632
0.022268463 0.0053380313 -0.0068233577 0.0038329896 0.010155528 0.02148891 0.024547035 0.0226416
0.026400296 0.017936934 0.015292058 0.036585152 0.02237141 0.0034812912 -0.008139548 0.02975227
0.024532573 0.040236376 0.00025292626 0.060091935 0.024633197 -0.007058952 0.007459321 0.026027657
0.010182106 0.011433248 0.00079627155 -0.02608638 0.008367149 0.023734294 0.056938045 0.0024428323
0.014406944 0.011422786 0.020740967 0.031005615 0.012055958 0.015537795 -0.007476655 0.001975216
0.01048022 0.011206632 0.02936957 0.0057150833 0.006766131 0.040977318 0.010977604 0.01625325
0.030980986 0.023863297 -0.0028177311 -0.00521475 -0.027288606 -0.005619119 0.024637252 -0.0008281645
0.015334603 0.06947576 0.01971088 0.055660434 0.030699512 0.008996795 0.0106358845 -0.000944323
0.015069048 -0.0086179795 0.00016779004 0.020954017 0.002743231 0.013067392 -0.0033429589 0.022516398
1.0247439 1.0041778 0.98444796 0.9973817 1.0293452 1.0064737 1.0039461 1.0076625
1.0300779 1.0051712 0.99497443 1.0139323 0.9995386 0.9752771 1.0143242 1.0127838
1.0161877 1.0185096 1.0251843 1.0136349 1.0062342 1.016208 1.0015919 0.9958216
1.0301844 0.98928523 1.041983 1.0110239 1.0144738 1.0030011 0.9912645 1.0028613
1.0091515 0.9858844 0.9778909 1.0204594 1.021109 1.0222597 1.0091084 0.9953547
1.0579118 1.0034281 1.0202448 0.9734394 0.98587054 0.9904381 0.98873687 1.0221895
1.0101007 0.9919597 0.98831534 0.9943027 1.0120852 1.0093384 1.0085018 0.96887726
1.0345885 1.0213856 1.0019004 1.0065145 1.0255277 1.0155617 0.99845207 0.97951186
-0.0037436765 -0.009496938 0.0069662915 0.011710425 0.0016887704 -0.011960234 0.021362685 0.010890656
0.004926852 0.009878287 0.016058452 -0.0030804265 -0.024728648 0.014155391 -0.0138717955 0.00622825
-0.004471174 0.00862799 -0.009188599 0.006239642 -0.019178968 -0.0028680265 0.0043836497 -0.021035645
-0.00635636 0.008116902 -0.0030069025 -0.0036004393 0.017820124 0.012955909 0.013744143 -0.0043339133
0.0135261165 0.0029353867 0.0050444445 0.0046448126 0.00824618 -0.002028017 -0.019835133 0.0028511013
-0.008711867 0.009760643 -0.0010775967 -0.009136359 0.022575557 0.0037627502 0.0037172353 0.013250794
-0.0060023246 -0.011484071 -0.0063905143 0.0050341245 -0.0020298916 0.0019937821 -0.012477328 0.0012565072
0.019357756 0.008792646 -0.00015224627 0.0054087355 0.0007482651 0.009770332 -0.005276181 -0.0067310967

action_model._continuous_distribution.log_sigma f4 [1, 2]
00000000: e293 aabd ed1a 2b3c
-0.08328988 0.010443431

action_model._continuous_distribution.mu.bias f4 [2]
00000000: 4609 3fbc f154 adbb
-0.011659926 -0.005289667

action_model._continuous_distribution.mu.weight f4 [2, 64]
00000000: a8ae 1d3d bf49 a93d 8dc8 033d 44e3 98bd
00000010: e752 a4bd 43ee cabc 1e54 343d b00e 543d
00000020: 42f7 7fbd 15a1 6f3d 599b 8bbd 9830 35bd
00000030: fa90 873d 058a 673c 04b3 37bd f5f9 a23d
00000040: e05b 2c3d 7495 dabc 0efc 9ebd 0d03 943c
00000050: 8a89 043d 0861 2dbd a23e 8e3d f3a9 75bb
00000060: 200e 17bc 7dbf 19bd 422f c03c fa26 f2bd
00000070: a05a 1bbd 3ac9 083d 7a61 7bbd f515 85ba
00000080: 253c 70bd d94e 5a3c bd45 b53d c3c3 d43d
00000090: 06dd 36bd 6922 2ebd 4f01 503d 61e6 10bd
000000a0: ce75 663c 5f10 b9bd 3073 98bc ef01 133d
000000b0: b6b4 4a3a 1b11 02bd 3acb 61bc 734f 3d3d
000000c0: 8b65 71bc e36d adbc 2cc7 b93c 148a 16bd
000000d0: 8c56 0ebd 5cd7 94bb 56df 9e3c 7a39 82bd
000000e0: a9ad 933d d62a c7bd 112e 5b3b abf5 7ebc
000000f0: 6ebe 6c3c 82b1 2f3d fdcb a8bb 5ad7 d43d
00000100: a739 32bd 79de 4bbd 477c 71bd f517 da3d
00000110: 220a 383d 8da8 aebd 11e6 24bd 8770 8ebd
00000120: 4132 96bb 4584 94bd 1afc 353b 5f14 ae3d
00000130: 36dd 80bc 4dc3 273d 5ade ebbc 4483 86bd
00000140: 7fbc 7abc 5d7f 13bd 9db2 2abb 16fd 29bd
00000150: d86d 713c e74e a9bd 6c40 bbbd 2d0c 7d3d
00000160: 8f36 173d 5097 4e3b ebcd c93d fedc 843d
00000170: c5c7 21bd be1b 62bd 8fe4 003d e10e 43bd
00000180: 7d87 ea3c 69a9 4bbd 76f5 193d 8136 c03c
00000190: 3d6b 383c eea4 d23d ebd3 2abd 3a4c adbd
000001a0: fcf6 923d bab8 b6bd 346e b63b aedb 04bd
000001b0: 2fa2 32bd 79ca cf3c 92d4 2abd 253c 853d
000001c0: cadb 1d3c e9b7 903d d8dc dd3c c259 8ebd
000001d0: 34c8 773d cf5e 673d cc16 34bd 851c 3d3d
000001e0: 1424 1fbd 1487 cc3c 93a3 6cbc 1e31 0d3c
000001f0: 4ed1 9f3d 51f8 f83c ac4a 66bd c6d3 903c
0.038496643 0.08266019 0.032173682 -0.074652225 -0.08023625 -0.024771815 0.044025533 0.05177182
-0.062491663 0.05850323 -0.068167396 -0.044235796 0.06619449 0.0141320275 -0.044848457 0.07957832
0.042079806 -0.026682593 -0.07762919 0.018067861 0.03235773 -0.042328864 0.0694554 -0.003748533
-0.009219676 -0.037536133 0.023460034 -0.118238404 -0.037928224 0.03339503 -0.061372258 -0.0010153638
-0.05865111 0.013324463 0.08851192 0.10388901 -0.044644378 -0.042513285 0.050782498 -0.035375956
0.014066173 -0.09036326 -0.018609613 0.035890516 0.00077326165 -0.031754594 -0.013781363 0.046218347
-0.014733682 -0.021170562 0.02267798 -0.036752775 -0.034750506 -0.0045422744 0.019393604 -0.06358619
0.072108574 -0.09724967 0.0033444206 -0.0155615015 0.014449699 0.042893894 -0.0051512704 0.103926376
-0.043512013 -0.049772713 -0.05895641 0.10649101 0.04493154 -0.08528242 -0.04025847 -0.06955057
-0.0045836275 -0.07251791 0.0027768672 0.08499979 -0.015730482 0.040957738 -0.028792549 -0.06568006
-0.01530373 -0.036010135 -0.0026046403 -0.041501127 0.014735661 -0.082670026 -0.09143147 0.06177919
0.036917266 0.0031523295 0.09853729 0.064874634 -0.039497156 -0.05520224 0.03146797 -0.04762161
0.028629059 -0.04972211 0.037587605 0.02346349 0.011256036 0.10285364 -0.041706007 -0.08461805
0.07176015 -0.089219525 0.0055673365 -0.032436065 -0.0436117 0.025365101 -0.04170663 0.06505612
0.009634921 0.07066328 0.027082846 -0.06950714 0.060493663 0.0564869 -0.043967053 0.046169776
-0.038852766 0.024966754 -0.014443296 0.0086176675 0.078035936 0.030391844 -0.056223556 0.017679106

network_body._body_endoder.seq_layers.0.bias f4 [128]
00000000: 2bf8 543c 5582 5cbb 55a2 8c3c d410 8d3c
00000010: e2dc 75bb e086 193c 92f7 a33b 7006 41bc
00000020: a6ee a13c 7f22 ec3b 6784 ba3a 8602 b13b
00000030: 1e03 023c 08dd 913b 3fb6 973c 03c7 f03b
00000040: e3fb 283d f537 693c 662f f33a f29b 04bb
00000050: dc3d adbc 5bc1 d63c c233 9a3c c207 4fbc
00000060: 72aa f53b 5480 933c b75f 2b3c 482c d53b
00000070: aaff c2ba 7f1d 993c 3cc7 28bc 32bd d4bc
00000080: 2454 41bc cbdc d439 b2a0 923c 29a3 65bb
00000090: 080d 713c 5041 d93c 7fcf 103c 20c6 133d
000000a0: 839b 07bc 04aa 3c3c 7c40 423d 46e9 39bc
000000b0: b2fb df3c 7318 eabb 0af5 6ebc 9e10 1b3b
000000c0: 6651 4d3c 0dcd 32bb 9dee 20bc c918 3b3c
000000d0: 20a6 feba 75bd a4ba 30df 843b d4cb eb3a
000000e0: 4413 243b 4b42 243c 1af8 b53c 9c55 103c
000000f0: 1fa1 133b 0491 ff3c fb7b e43b 7724 86bc
00000100: a8c3 07bb acad 49bc 50a4 17bb 8c8f cd3c
00000110: 99c7 fdba e33e a8bc bcad d63c f5c1 f0bb
00000120: 3b46 d53b 82ec 883c ced9 49bb a5ff adbc
00000130: b203 85bb ec6a 973b faba 5cbc ed05 c0ba
00000140: b299 723b 91f9 0f3d 488d 15bc 9bcb bc3c
00000150: 65f4 103d 764d 3bba 4648 87bc 18f6 0f3d
00000160: c42d 903c e1e4 f73c 82ae cc3b 6039 9b3c
00000170: d858 84bc dba7 cbba 521d e73b 8cfa 5cbb
00000180: be42 203c 80df 693c f108 31bc 0f56 053c
00000190: f58c f83b 7841 8dbc b049 253a b506 093c
000001a0: bee1 feba c860 913c 7b75 f83a 05f6 573a
000001b0: 0f74 a1bc dfa9 2b3d cd95 af3c 23d9 ceba
000001c0: 786f 923b a798 a23c 6267 7a3c cc67 143b
000001d0: 24ec 403b 155f 143d dabb 913c 218d 40bb
000001e0: 5748 9dbc b449 93bc 8884 6ebc feac ca3a
000001f0: 1907 4a3d edf6 3f3c be18 3e3d 4ddc 903c
0.012998621 -0.003364702 0.01716725 0.017219938 -0.003751569 0.009370536 0.005003878 -0.01178132
0.019767117 0.0072062607 0.0014230133 0.005401912 0.0079353135 0.004451398 0.018519519 0.007347943
0.041255843 0.014234533 0.0018553555 -0.0020234552 -0.02114766 0.026215246 0.018823508 -0.012636127
0.0074971253 0.018005528 0.010459832 0.006505523 -0.0014877219 0.018690823 -0.010301407 -0.025969122
-0.011799846 0.00040600295 0.017898891 -0.0035039878 0.01471258 0.026520401 0.008838533 0.03607762
-0.008276823 0.011515144 0.04742478 -0.011347121 0.027341697 -0.007144028 -0.014584789 0.0023661028
0.012531614 -0.0027282864 -0.009822515 0.011419483 -0.0019428171 -0.001256867 0.0040549263 0.0017989823
0.0025035897 0.010025571 0.02221303 0.008809473 0.0022526456 0.031197079 0.0069727874 -0.01637481
-0.0020715985 -0.012309473 -0.002313871 0.025092863 -0.0019361853 -0.0205378 0.02620589 -0.00734734
0.0065086163 0.016714338 -0.0030799988 -0.021240065 -0.0040592784 0.0046209004 -0.013472313 -0.0014650204
0.003701788 0.035150114 -0.009127922 0.023046305 0.035389323 -0.00071450265 -0.016513955 0.035146803
0.017599948 0.030260505 0.006246389 0.018948257 -0.016155645 -0.0015537696 0.007053056 -0.0033718674
0.009781538 0.014274478 -0.010805354 0.008138194 0.0075851628 -0.017243132 0.0006305231 0.0083634155
-0.0019445939 0.017746344 0.001895591 0.0008238259 -0.019708661 0.04191005 0.021433735 -0.0015781265
0.0044688545 0.019848181 0.015283437 0.0022644876 0.0029437626 0.03622349 0.01778977 -0.0029380994
-0.019199533 -0.01797948 -0.014557965 0.0015462933 0.049323175 0.011716587 0.046410315 0.017683173

network_body._body_endoder.seq_layers.0.weight f4 [128, 18]
00000000: 113e 793e 5159 263d 9ff7 02be 05e8 cc3d
00000010: a118 4a3e bd57 ce3d ea20 d6bd d4d5 f1bd
00000020: 820e f6bd 8c73 02bf e9f3 cebc c5c6 fe3d
00000030: 6016 4cbe 0cb6 303e e608 01bc 70cd 93be
00000040: 1283 d4bd 7cc0 09be 20ec 29bf 7932 07be
00000050: 6885 7dbe c008 ff3e a9e3 3abe 1885 a53e
00000060: 36c8 d83e a286 a4be 643f 35be a4d5 8cbc
00000070: 6f5c 7c3d 0821 343d f66a cd3d 4702 7abe
00000080: eb1e 063f 88b2 ac3e 53aa f4be db6f 79bd
00000090: dd05 ce3c ba70 c53e 35cf d13e b367 f6be
000000a0: 451a cabe 5281 ad3e d2be 6d3e 2efd 893e
000000b0: b83d 293d 8a95 0bbf 137c d03e 9078 153d
000000c0: 3d73 643e bb78 a73e 58a8 e73d 0bfb bf3e
000000d0: 23f4 1fbf e0c5 a3be 5c94 513d 7456 d93d
000000e0: d4c0 71be 986e 303e a485 38bb 1f54 5fbe
000000f0: d1b3 a1bd 88f2 05bf 8816 d0bd cccf 953e
00000100: 76f5 a5bd c052 dbbd 693b 843e c256 9ebc
00000110: 8d34 9e3c 32e0 ea3d c6db d33d 2db5 223b
00000120: cacf 81bd eb0d 823d 73b4 49be 0f42 f23d
00000130: 8511 753e cdf4 753e 1a35 33be 22d1 c23e
00000140: bfd6 de3e 9843 c33b 5bb5 a13e 1960 243d
00000150: 5cd6 f43b 3658 9f3b 048e 673e f94b 19bc
00000160: 4635 483e 6ff1 e8be 4961 8dbd fc24 f0bd
00000170: fb41 0fbd e1b6 253e b723 3d3d 7274 b9be
00000180: ab34 c7be 5e3c aa3e 742b f7bd f2af 8c3d
00000190: d033 f4bc 3dc6 6d3d 1a1d d2be 156e e7bd
000001a0: 8ce1 eebd 70e6 0d3e df2a 8bbd faa7 13be
000001b0: c20d 94be 4673 48bd 9477 88be af4c 853d
000001c0: 580a a1bd 2dc7 bdbe 0b87 e03e 8c92 5c3d
000001d0: 2502 6d3e 1478 8a3e b97b 353f 8e27 5cbd
000001e0: 9828 0abe 0af3 263e 4b79 9a3d 9849 d2bd
000001f0: dfe3 ac3e a480 e23e bf2a 15bf a4e1 dabd
00000200: f00b 09be d966 bb3e 19c0 af3d 21a3 533e
00000210: 336a c1bd 0c3f 643e 4eeb 1a3c c85e 71be
00000220: 68af 84be d411 6f3e e54d 9dbd 753a e43d
00000230: af30 8e3e 8dd0 ec3e 4049 a5bc 99d7 293e
00000240: e766 e23e 4353 bebe 9eb9 843e 196a e43e
00000250: fee7 af3e e7e9 a8bd 0d95 0d3f da05 53be
00000260: 1273 113e 665a fabd a0e8 98be 4434 733e
00000270: b9fb b33e 32ba 93be 18b8 b43e 21ed d83e
00000280: fea6 fabc a387 8bbe 4e88 a0bc e573 9c3d
00000290: 8567 47bd 9e2b 113c 5f07 15be f8d5 77be
000002a0: 179d 1cbd f79a d4bd ea02 1e3d dc21 19bd
000002b0: 8a16 073e 6256 0a3e b906 3c3d a9d8 943d
000002c0: 6db7 493c de4f babe 6dc0 723e baf3 e13e
000002d0: f351 05be 49d0 6b3c 9e66 603d 8bea 803e
000002e0: ab31 4a3e cd6f 4bbd cc88 03be 248e f83e
000002f0: a312 8a3e 589f 9ebc e310 903e 4862 6c3e
00000300: a713 e7bb a2d0 163e 7785 693e 8839 0c3f
00000310: 85fd a93d a67b 79be 127f 243e 0def 30be
00000320: 1bfa 6bbd 8e40 263d 4461 913e d5fb b1bc
00000330: 7157 593e 985e d33d f8de a73e 1bc0 083d
00000340: 1fd1 843e 343e 6abe b756 953e d12f 07bd
00000350: ac4b 71bd ed50 9f3e 18fc 1cbd a59d 31be
00000360: 151a a9be 69eb 62bd d0d3 af3d 58af 1a3d
00000370: 2fbe 663e 9ab5 04bf 394b ddbd bbee 9fbe
00000380: d43f babb 5823 ba3d 7c45 af3e 1df8 babc
00000390: baf1 9b3e 17e0 283e a33c 713d f958 d93c
000003a0: a031 1d3e 92bc c63e 8df1 ddbc 0752 d43c
000003b0: 8e00 5fbc 7ffc cbbe ef26 b33e 829a d13d
000003c0: b3f7 233e 12f4 25be c6f2 dcbd 451a cdbe
000003d0: 07ff 9b3d 267a 1b3e 1f61 d43e e3ec df3d
000003e0: 5fe3 b6be c196 27be 8e37 88bd 5cad 7dbe
000003f0: 8137 1abe f07b cb3d 350c e3be 3b95 33be
0.24340083 0.040612523 -0.12789772 0.10005192 0.19735958 0.100753285 -0.104554966 -0.118083626
-0.12014486 -0.5095756 -0.02526279 0.12440256 -0.1993041 0.17256945 -0.007875657 -0.28867674
-0.10376562 -0.13452333 -0.66375923 -0.13202848 -0.24757922 0.49811363 -0.18250908 0.32328105
0.4234025 -0.32133967 -0.17699963 -0.017191716 0.06161159 0.043976814 0.10030167 -0.24414931
0.5239093 0.3372996 -0.47786197 -0.06089769 0.02514928 0.38562566 0.409784 -0.4812599
-0.39473167 0.33887726 0.23217323 0.26950973 0.041318625 -0.54525054 0.4071966 0.03649193
0.22309585 0.32709298 0.11311406 0.37496218 -0.624819 -0.31986904 0.051166877 0.10612193
-0.23608714 0.17229688 -0.0028155828 -0.21809433 -0.078956254 -0.523232 -0.101605475 0.292601
-0.081034586 -0.10709143 0.25826576 -0.019328479 0.019312168 0.11468543 0.10344653 0.0024827227
-0.06338461 0.06350311 -0.19697742 0.11829006 0.23932464 0.24019165 -0.17500725 0.3805018
0.43523213 0.0059589855 0.31583676 0.04013071 0.0074718427 0.0048628105 0.22612768 -0.009356492
0.19551572 -0.454967 -0.06903321 -0.11725804 -0.034975033 0.16183044 0.04617664 -0.36221653
-0.3890737 0.33249182 -0.12068835 0.068694964 -0.029809862 0.058050383 -0.41037828 -0.11300293
-0.116641134 0.13857436 -0.067952864 -0.14419547 -0.28916746 -0.04893806 -0.2665373 0.06508767
-0.07863301 -0.37066022 0.4385303 0.053850695 0.2314535 0.27044737 0.7089191 -0.05374866
-0.13492048 0.1630365 0.07542666 -0.10267943 0.33767602 0.4423877 -0.5826835 -0.10687569
-0.1338346 0.36601904 0.085815616 0.20667697 -0.09444084 0.22289675 0.009455515 -0.23571312
-0.25915074 0.23346645 -0.07680873 0.11143962 0.27771518 0.46252862 -0.02017653 0.1658615
0.44219133 -0.371729 0.25922865 0.44612196 0.34356683 -0.08247738 0.5530556 -0.20607701
0.14204052 -0.122242734 -0.2986498 0.23750407 0.35152987 -0.28852993 0.35296702 0.42368415
-0.030597206 -0.2725192 -0.019596245 0.07639293 -0.04868271 0.008860497 -0.14553593 -0.24202716
-0.03823575 -0.1038112 0.038576998 -0.037385806 0.13192192 0.13509515 0.04590485 0.07267887
0.0123117985 -0.3638906 0.23706217 0.4413126 -0.13019542 0.014392921 0.054785363 0.25178942
0.1974551 -0.04966717 -0.12845153 0.48545945 0.26967344 -0.01936309 0.28137884 0.23084366
-0.0070519033 0.14728025 0.22804819 0.54775286 0.08300308 -0.24363574 0.16064098 -0.1727869
-0.057611566 0.040588908 0.2839452 -0.021726528 0.21224762 0.10320777 0.327873 0.03338633
0.25940797 -0.22875291 0.2916772 -0.033004586 -0.058910057 0.3111643 -0.038326353 -0.17345293
-0.33027712 -0.055400286 0.08585322 0.037764877 0.22533487 -0.518396 -0.10805363 -0.31236824
-0.0056838784 0.090887725 0.342327 -0.022823388 0.3045786 0.16491733 0.05889572 0.026531683
0.15350962 0.38815743 -0.02709272 0.02591802 -0.013610972 -0.39841077 0.3499064 0.10234548
0.16012459 -0.16206387 -0.10788493 -0.40059105 0.07617002 0.15183315 0.41480348 0.109338544
-0.35720345 -0.16366102 -0.06651221 -0.24773163 -0.15060236 0.099357486 -0.4434525 -0.17537396

network_body._body_endoder.seq_layers.2.bias f4 [128]
00000000: 7e7d 9e3c b359 503c a032 8b3c e784 d7bb
00000010: 90e7 52bc 6c19 f73b 0d0f c93a 070b 913c
00000020: f92e c83b 58d1 6f3b f9a8 d43c 6c89 833c
00000030: 5069 133c c551 e8bb b05d 4f3b e161 de3a
00000040: be7f dfbb 5921 c3bb d1dc 5a3c 72c0 353c
00000050: f04d e4b9 e472 ff3b 45e2 373c cfae 913b
00000060: 87e6 c73b 533c 173b cb92 943c d413 55ba
00000070: 835f 92bb 4028 e73b b4b0 a83b 418c 8dbc
00000080: 8a4f 9d3c b193 543b ea09 543c 887b 233b
00000090: 0a12 39bb 3888 b73b 1baa f23b 45e6 473c
000000a0: dfc8 9c3b 091d 72bb e2bd 90b8 4445 87ba
000000b0: b28a c7ba bf0f f83a b8f2 ad39 0451 b73b
000000c0: 706e 753b 74d8 aa3b 1069 3abb 8ae3 f83b
000000d0: d7bf 0ebb d9f0 22bc 3ccc 41bc 6e0a 733c
000000e0: 82f3 253b 4133 bfbb d951 c53b 666b 863b
000000f0: fc01 ed3c 1ca1 47bc ff5b cd3c 2d73 253c
00000100: b33e a6bb 0748 58bb b607 543c 37e6 013c
00000110: 708c eabb 3b55 c3bb 4c4e 823b 7510 533c
00000120: e31e 97bb fa04 c83a 6129 07bc f5ac c939
00000130: fd7e 00bc 297d 593c 4a61 f13c 2d21 333c
00000140: 420c 8fbc 04d0 083c c5e1 06bc 575d 2eba
00000150: 2214 623c ee77 253c 4cf4 b6bc 285e 1a3b
00000160: 482f 53ba 9fce 39bc 2d2e 33bc d78e 57bb
00000170: 437d 673b e451 5a3a 1661 04bc 8323 c03b
00000180: bd25 18bb 83f0 b33a 22f9 1cbb a337 653c
00000190: 89d7 afbb 006d f03a ad97 ad3a 5dd8 343c
000001a0: 70a1 5e3b e800 ba3b e38a 523b b9c5 823c
000001b0: 72d5 1b3c 2013 b6bc 79a9 1a3c 554a 47bc
000001c0: 0284 d33b 17bd cb3b 193c df3b 4259 b83b
000001d0: 4754 2abb 37e3 9f3c 797a 513b 8e33 443c
000001e0: 9e61 693c 2ed7 9c3b 317f bd3b cb7e bebb
000001f0: c55d ee3b 1e30 4bbc a241 2b3c 24c9 f2bb
0.019346949 0.012716698 0.016991913 -0.0065771225 -0.012872592 0.0075408723 0.0015339568 0.017705454
0.006109115 0.0036593284 0.025959479 0.016056739 0.008997276 -0.007089826 0.0031641535 0.0016966426
-0.006820648 -0.005954903 0.013358311 0.011093246 -0.00043545617 0.0077956785 0.01122338 0.0044458876
0.006100479 0.0023076728 0.018136403 -0.000812826 -0.0044669523 0.0070543587 0.005148018 -0.017278792
0.019202966 0.0032436664 0.012941817 0.0024945457 -0.0028239512 0.0056009553 0.007405532 0.012200897
0.004784688 -0.0036943576 -6.9018235e-05 -0.0010320325 -0.001522383 0.0018925591 0.0003317797 0.0055943746
0.003744986 0.0052137915 -0.002844397 0.007595484 -0.0021781826 -0.009945118 -0.011828478 0.01483403
0.0025322144 -0.0058349674 0.00602172 0.0041021584 0.02893161 -0.012184408 0.025068281 0.010098261
-0.0050733923 -0.0033001916 0.012941292 0.007928423 -0.0071578547 -0.005961088 0.003976619 0.012882342
-0.0046118363 0.0015260272 -0.008249612 0.0003846657 -0.007842776 0.013274469 0.029465336 0.010933203
-0.0174619 0.008350376 -0.008232539 -0.0006651482 0.013798745 0.010099394 -0.022333287 0.0023554657
-0.00080560567 -0.011340766 -0.010936302 -0.0032891536 0.0035322465 0.00083282427 -0.008079788 0.0058636083
-0.0023215853 0.0013728294 -0.0023952206 0.013990316 -0.00536627 0.0018343031 0.0013244055 0.011037913
0.0033970736 0.0056763776 0.003212624 0.015963422 0.009511339 -0.022225916 0.0094398195 -0.012163718
0.0064549455 0.0062176096 0.006812584 0.0056258747 -0.0025990175 0.019517524 0.0031963869 0.011975182
0.014244465 0.0047863936 0.0057829847 -0.0058134547 0.007274362 -0.012401609 0.01045266 -0.0074092317

network_body._body_endoder.seq_layers.2.weight f4 [128, 128]
00000000: e29c d63c 274d c2bc 099a 6abd 87ac a33d
00000010: c756 e3bd acce fb3c 546a 163d 44f4 ad3d
00000020: 38ce 0fbd eb19 0a3e c915 ca3d 63c3 72be
00000030: 0724 163e 79ed c13c aeb3 ac3d b20a 653c
00000040: 8c16 d53c 7910 bb3d ddec a5bc 8112 2f3d
00000050: 7890 d83d 2c49 81bd 4e86 9a3d 7d32 81bd
00000060: a36e 103e 9c6a a0bd e324 fcbd 3b15 923d
00000070: 841c 84be 4558 1d3e c957 80bc 57ab 88bc
00000080: ac90 b63d f7c9 783e df57 c8bd 6574 05bc
00000090: 83af 043d ea21 203e c6ee edbc 80bf 1e3c
000000a0: b310 d03d 20b8 8a3c 2c35 4e3d b366 4e3d
000000b0: 4e0f 963c f0cb c13b 5ba2 b0bc 97e7 f53d
000000c0: c07d 39bd 7bef a23d bbb8 26be 56c5 c3bd
000000d0: 4335 0d3e 6831 e4bd e20d f2bd 4829 953d
000000e0: 3f9f 08be b6cf 4ebd 74dd 29bb 478e 383e
000000f0: f16d 87bc 842f 463d 18b5 f8bd 8a05 21bd
00000100: c9d6 08bd 4c7e 1ebe 8305 c53c cdfa 453e
00000110: 9687 7ebe fbdf 773d f79a c3bd b384 113e
00000120: 5eb6 c3bb 9215 203e c478 c03d 5ac0 f73d
00000130: 0c88 38bc 3a0a d83d 3b81 54bd bead 5d3b
00000140: 1965 acbc 2cd1 023e ee3b 93bc 1d81 1d3e
00000150: d027 193e e0b6 a0bd 39a8 9cbd 5c6f 81bd
00000160: 414c 0f3d e249 f13d 43f6 05be b652 28bd
00000170: a775 803d 4e48 2a3d fc4d 07be 7802 8abc
00000180: 8c28 9ebd d8de 9f3d 42a2 213d b343 89bd
00000190: e3f1 8e3d 64e5 adbd 5da2 83bd 890b 043e
000001a0: 642b 89bd cac9 64bd 6a6a 39bd 572d f3bc
000001b0: 7bff 5dbb d3a2 a23d c921 86bb 1435 c53d
000001c0: 652d 113e 811d 22ba d859 5c3e b9db 03be
000001d0: f70e aabd b828 17bc cb07 12bc 4b58 c33c
000001e0: db0f a23c fa59 8e3c 63b9 40bd f4e3 9a3d
000001f0: 6ddd 1cbd 2ff4 9a3d eaaf 9d3d 9cb1 b7bd
00000200: c68b 4b3d b113 ab3d 21c1 a13d fa97 c83c
00000210: b4fa 21be 0a7a 923d 11c5 45bd 4a70 13bd
00000220: ef32 f73d cc20 df3d 4b8e 0b3e 0b56 69bb
00000230: 89a7 273d 07a3 9ebd ed46 91bd fa0f 1a3e
00000240: 1e5b 8cbd 46ce 673d 061b 513d 68d7 483c
00000250: 3538 92bc a0e7 e23d 9962 0dbe 819c 083d
00000260: b64a 733d ee32 363e ce19 76bd eeb3 e2bd
00000270: 540e db3d 082e 243d db3e 223e 5640 fa3c
00000280: 7ed8 76be add2 52bd daf5 bdbd f7f2 0a3d
00000290: 9af4 87bd 62ef 61bc 1026 033e 6286 e5bd
000002a0: f6de 773d 4f70 1dbd 5c44 3fbd c032 013e
000002b0: 1ea2 0ebe 09d2 b23c e7f8 2cbc ebec d7bc
000002c0: 1e66 c83c 9f3e c4bc 0fcf 6dbc e956 a83d
000002d0: bf1f 103e ab96 573d 1e78 753d 8f22 54bc
000002e0: d213 cebd 501c 1dbd 29fb 6cbd 1639 8dbd
000002f0: d7bf bf3c d466 163d 1e28 5e3d d737 893c
00000300: f348 203e af2f 023e 75bb 103e 826a 1fbe
00000310: c057 10be 64e6 4ebd c906 1bbd 6618 9c3d
00000320: a3b4 febd 3522 d53d 390e 38bd f126 29ba
00000330: 487e fc3c 08d3 9cbb e6f5 383b 1545 163e
00000340: adad b43d 1630 7cbc 0fb3 203d 514d 83bd
00000350: 8c8a b7bd 2198 383d 578f 92bd 2b9c a8bd
00000360: c754 a13d b500 8fbd a704 98bd e7b9 91bd
00000370: e922 02be 52d5 98bb 21bd ccbb 2cff da3c
00000380: d446 a83d 608a e43d c7be 603d 3209 653d
00000390: 1537 1abe 6e00 103c ea26 cbbd dc9a d63d
000003a0: 35b9 fe3c 3501 92bd 3156 473d b21f b1bd
000003b0: 3689 a03c 4873 343d a77a 17ba 26bd 8abd
000003c0: 5794 a5bd 6028 efbd e4c5 f7bd 9e45 a0bc
000003d0: 19a0 a1bd dafc 12bc 8e60 ca3d 1be7 913d
000003e0: 40de a73d 8306 f5bc 42b0 1dbe c281 c73d
000003f0: 7a41 033e 346d f6ba a3f1 ddba ec35 dd3d
0.026197854 -0.02371843 -0.057275806 0.07991891 -0.11100536 0.030738197 0.036722496 0.084938556
-0.035108775 0.1348645 0.098674364 -0.23707347 0.14662181 0.023672806 0.08432709 0.013979601
0.026011728 0.09134001 -0.020254547 0.042742256 0.1057443 -0.063127846 0.07545148 -0.06308458
0.14104705 -0.07832834 -0.12311723 0.07132956 -0.25803006 0.15365703 -0.01566686 -0.016683264
0.08914313 0.24295793 -0.09782385 -0.008145426 0.032393944 0.15637937 -0.02904452 0.009689212
0.10159435 0.0169335 0.050343677 0.05039091 0.018317845 0.005914204 -0.021561792 0.12007063
-0.04528594 0.079558335 -0.16281407 -0.09559123 0.13789849 -0.11142236 -0.11819054 0.072832644
-0.13341998 -0.050491057 -0.002591935 0.18023024 -0.016531916 0.04838516 -0.12143916 -0.039311923
-0.03340796 -0.15477866 0.02405048 0.19333954 -0.2485641 0.06051634 -0.095510416 0.14210777
-0.0059726676 0.15633228 0.09398034 0.12097235 -0.011262905 0.105488256 -0.051881056 0.0033825482
-0.0210443 0.12775105 -0.017972913 0.15381284 0.14956594 -0.07847381 -0.076492734 -0.06320068
0.03498483 0.1178167 -0.13082223 -0.041094504 0.062724404 0.04157286 -0.13213342 -0.01684688
-0.077225775 0.07806176 0.03946138 -0.06702366 0.0697973 -0.084910184 -0.06427453 0.12895025
-0.06697729 -0.055856504 -0.0452675 -0.029684706 -0.0033874202 0.079412125 -0.004093383 0.096292645
0.14177473 -0.0006184206 0.21518648 -0.12876786 -0.083036356 -0.009226017 -0.008912991 0.023845812
0.019782951 0.017376889 -0.0470518 0.0756301 -0.038297106 0.075661056 0.076995686 -0.08969423
0.049693845 0.08353365 0.078981645 0.02448653 -0.15818292 0.07152183 -0.04828364 -0.03599576
0.12070262 0.108949274 0.13628499 -0.0035604264 0.04093126 -0.07745939 -0.07093606 0.15045157
-0.06853317 0.056593202 0.051051162 0.012258388 -0.017849067 0.11079335 -0.13807143 0.03335238
0.05939742 0.17792866 -0.060083203 -0.11069475 0.10696092 0.04008296 0.1584429 0.030548256
-0.24106023 -0.051470447 -0.09275408 0.033923116 -0.06638451 -0.0137899835 0.12807488 -0.11207272
0.060515366 -0.038437184 -0.046696052 0.12617016 -0.1392903 0.021828668 -0.01055739 -0.026358088
0.024462756 -0.023955641 -0.014514699 0.08219702 0.1407461 0.052633923 0.059929006 -0.012947693
-0.10062374 -0.03835708 -0.057856712 -0.06895654 0.023406906 0.03671916 0.054237477 0.01675026
0.15652828 0.12713502 0.14134009 -0.15567973 -0.14095974 -0.050512686 -0.037848268 0.07621841
-0.124367975 0.10406915 -0.04493544 -0.0006452641 0.030821934 -0.004785899 0.0028222739 0.1467479
0.088221885 -0.015392324 0.039233264 -0.06411231 -0.089619726 0.045066956 -0.07156246 -0.08232912
0.07877498 -0.06982557 -0.07422762 -0.07115536 -0.1270863 -0.0046641016 -0.006248132 0.026733004
0.082166344 0.111592054 0.05486944 0.055916972 -0.15060075 0.008789165 -0.09919532 0.10478756
0.031094173 -0.071291365 0.048666183 -0.086486235 0.019596677 0.044055253 -0.00057784695 -0.067743585
-0.08084934 -0.11677623 -0.120982915 -0.019564446 -0.07891864 -0.008971417 0.098816976 0.07124158
0.08196688 -0.029910332 -0.15399268 0.09741546 0.12817946 -0.0018800856 -0.0016932975 0.108013004

network_body._body_endoder.seq_layers.4.bias f4 [128]
00000000: 1b68 afbb d6f1 ab3b e63f 073c 009e b1ba
00000010: c130 f33b 137a 393b e2dc bebb 2b56 1a3c
00000020: f767 4b3c 2a46 0dbb 5633 8cbc 1a85 493c
00000030: 063d 3d3c 36bd 033b a14b f239 d513 cf3b
00000040: 5d6c 24ba 20bf df3b 4804 4d3b 7e1c ac3c
00000050: dd83 7c3c ba98 5c3c 5565 97ba 01a6 983b
00000060: e102 833c 27d3 bf3c 79d9 a9bb cd16 373c
00000070: 3674 1f3c da09 073b 12e2 5dbb 14cc 293b
00000080: b150 a2bb f0a9 57bc 4671 f73b 78b1 deba
00000090: 7895 76bc b76e 8abb e11a e43c 0640 1f3b
000000a0: b922 2d3b c3d7 b7bc 0a9c 3cbb 18d2 44bb
000000b0: 2080 afbb c2e7 663c 138f 7b3b 4de3 11bb
000000c0: f453 f1bb d232 753c ad6b 923c 1c0f a13c
000000d0: fbdb 71ba 382d c33b aa47 7ebb e8e9 993c
000000e0: 4de0 093c 7f13 dbbb 134a 2a3c 8cd5 093b
000000f0: 5ba9 863c e112 84ba a4a1 213c 2ad0 afba
00000100: 6427 b83b 68c4 a03b 5fa4 2fbc 0473 4b3c
00000110: 03e8 a2ba 5682 4c3b db45 4ebb 2423 1d3a
00000120: b145 c9bb 1d74 543b 9049 0d3c c9d6 ab3c
00000130: bada 153c ef64 9ebb 86a0 1d3c 0cf1 663a
00000140: c7fa 24bc 341d a3bc 7dfd 33ba ff4d a73c
00000150: 6990 403c 8b80 b3b9 40a7 e23b 455a 2c3c
00000160: 0af0 133b ec2f a43b e186 953b 33af c33c
00000170: 78eb 88bb 1161 f43b 508a c13a 73a4 b23c
00000180: b950 2ebb 8a43 a23b 062c 0d3b 6717 0fbc
00000190: b78d a93b 0e61 353b 51b6 e237 4164 893b
000001a0: 0a77 603c 7040 283c 5324 9a3c 0209 493b
000001b0: 464f 973b 267b 67bc 6be1 fb3b 9c54 a6bb
000001c0: 6dd3 a9bc bad1 5c3c 41a1 29bc d664 813b
000001d0: a982 903b 9235 df3b 5572 853c 9370 d7ba
000001e0: f56a 40bc af39 663b bd82 1fbc f07d b03c
000001f0: 42b0 f9ba b79f 07bb ab3f 4c3b fca4 3139
-0.0053529865 0.005247335 0.008254981 -0.0013551116 0.0074215834 0.0028301522 -0.005824671 0.009419958
0.012414924 -0.0021556714 -0.017114323 0.0122998 0.011550194 0.0020101792 0.00046214185 0.006319503
-0.0006272251 0.006828204 0.003128307 0.02100968 0.015412298 0.013464147 -0.0011550585 0.004658461
0.015992584 0.023416115 -0.0051833955 0.01117487 0.009732297 0.0020605237 -0.0033856672 0.0025908994
-0.004953467 -0.013163075 0.007551345 -0.0016990146 -0.015050285 -0.004224624 0.027844848 0.0024299636
0.0026418401 -0.02244175 -0.002877953 -0.0030032452 -0.00535585 0.014093341 0.003838484 -0.0022260726
-0.0073647443 0.01496573 0.01787361 0.019660525 -0.00092262 0.005956318 -0.003880004 0.018788293
0.008415294 -0.0066856737 0.010393637 0.0021031825 0.016438177 -0.0010076427 0.009865198 -0.0013413478
0.00561993 0.004906226 -0.0107203415 0.012417559 -0.0012428764 0.0031205616 -0.0031474743 0.0005994311
-0.006142341 0.0032417842 0.008623496 0.020976441 0.009146387 -0.0048338096 0.009620791 0.00088097225
-0.010069556 -0.019911386 -0.0006866081 0.020422934 0.01175318 -0.00034237313 0.0069169104 0.010519569
0.0022573494 0.0050105955 0.004563198 0.023887252 -0.0041784607 0.0074578603 0.0014765952 0.021806931
-0.0026598407 0.004951899 0.0021541133 -0.008733607 0.0051743644 0.0027676257 2.7026197e-05 0.0041928594
0.013700256 0.010269269 0.018816149 0.0030675535 0.0046176044 -0.014128482 0.007686784 -0.005076004
-0.020730698 0.013477737 -0.010353387 0.003948788 0.004410107 0.006811806 0.01628987 -0.0016436748
-0.011744251 0.0035129597 -0.00973576 0.021544427 -0.0019049721 -0.0020694563 0.0031165879 0.00016941497
