results/SeekerAgent/SeekerAgent/SeekerAgent-65249.onnx (onnx, 344226 bytes, 12 tensors)

101 f4 [1, 256, 128]
00000000: 9919 2dbe 1112 50bd 33a1 113e 3035 92bd
00000010: 427d 06be 1d1e f6bd 9097 12be d9e4 cd3d
00000020: 4236 d6bd d545 50bd 4194 b0bd 51d5 2f3e
00000030: 2756 e43d 47dc 433d 0230 d83d 4d52 37bd
00000040: fcc0 b73d 081d cc3d 114e cabd 4661 053e
00000050: 1b31 d93c c961 f5bd 0625 28bc 520d ab3d
00000060: a650 26bd ce5f 3a3e f154 ee3d 3dea 91bd
00000070: bd17 0fbd f8e4 27bd a287 983c 6919 0bbe
00000080: ff25 0fbe 7313 223d 1ea9 c53d 7388 133e
00000090: 1fac 1f3d a3ba 203e 355d adbd fd7c a63d
000000a0: a008 303e a029 edbb 4cce 9cbd 8aec b9bd
000000b0: d568 16be 0c19 b73d 8428 81bc da2b 063e
000000c0: e23d 1f3e 4fac 193a d5ba d63c 30f5 933d
000000d0: 8a66 5cbd eb1a b63c e46e 42bd d123 02be
000000e0: f18a 63bc 98e9 1abe 4f9f e13d 0b1b 903d
000000f0: da20 50bd 948e 0a3e 2077 5dbd db69 9e3d
00000100: 1e29 a1bd 3015 7cbd a2b9 06be 8584 ae3c
00000110: 7f88 953d 9e1c 21bd 28af ebbd fae8 8bbd
00000120: 66fa 3e3d c4e3 dd3d 3084 113e 99e2 0b3e
00000130: 4912 f4bb a94a 25bd 58b1 32be 15cb 123e
00000140: 053c 8fbd 8aeb 1c3d 8ed5 1c3e 0724 9cbd
00000150: ccd7 57bd 6f00 1c3d 81b8 00be d4fd 83bd
00000160: 2e6c 8dba c95b 14bd 86fd 36bb 5396 aa3d
00000170: 83f1 86bd 7ac7 873d cd49 31bd 5211 363e
00000180: 8174 1fbe 8d54 293d e900 5b3d 19cb 3bbe
00000190: 91b6 803d e092 d9bd e47d b0bc 9b4a 01bd
000001a0: 2965 3ebe 3cf8 863d 6286 f53d 5104 06be
000001b0: a459 093e 481d 5bbd 5702 b83d 2a23 4f3d
000001c0: 8670 273e f24f 523d 3f9c 063d f5a6 18be
000001d0: 92ed 09be f1ae 3d3e b7fe 72bd 5b04 ebbd
000001e0: 2a24 263e bcab 09be 5edc c7bd 9be1 b1bd
000001f0: 4ddc b13d 7387 043d 7dc5 45bd 90f4 4bbd
00000200: 1193 9bbd ac9a e3bd e911 23be c6b1 543e
00000210: 08be 0fbd 46bb 033e 2222 10bd 8895 ba3d
00000220: 3fbb ed3d 47ee d5bd 5996 1e3d 6327 3ebe
00000230: 9253 223e 4213 6b3d bcfc 25be bbf5 213e
00000240: f99b 79bd 6943 823d fce3 09be d881 55bd
00000250: dc17 cfbd 990c b7bd b127 633c a07f c83d
00000260: d58f f7bd 1fc2 20be 9016 a4bd 9b47 7fbd
00000270: 4b1b 563c 3ff4 f43b ee36 163b 6d5e bb3c
00000280: 3a5a b83b 7421 0b3e 3d8a ce3d aad6 05bd
00000290: 97fa 47bd 963b f33d 0296 28bd a88a cdbc
000002a0: 492c 09bd 39af 0f3e dbfa 5239 aa8f 11be
000002b0: e4f5 37be d765 28bd a860 28be 18db 1d3e
000002c0: 7371 59be bcf0 b93c 57a1 0f3e 6c33 5d3d
000002d0: e0d8 223c 829a bf3a 318f f4bd f9c2 0f3e
000002e0: 57be d9bd 52c0 2ebe 34c0 ca3d ee1b 28bd
000002f0: d435 b73d 2291 1a3d acbf 04be 0652 593d
00000300: a0a8 71bd af23 ef3d 7959 9dbd 9538 8abd
00000310: d1f8 0f3e f3b9 f8bc 6ec6 b7bd 6a71 aabd
00000320: 0ce7 a73d 4429 923d 00ea 123e 78bf 653d
00000330: 78f8 e23d 82f5 673d 2255 a4bd d530 353d
00000340: 2615 36be 19d2 ab3c b201 9dbd 9fb1 f63d
00000350: 7621 1a3e e1cb 2b3e ec48 3d3d e256 b0bd
00000360: 55e6 9e3d 1e94 d53d c1b6 143d 0247 25be
00000370: 0e36 d6bc cb9a 4b3d 679e afba 8eee c93d
00000380: 1e1d 0ebe dbe9 f23d 9d05 193e 2fa4 9f3d
00000390: d4e7 d8bd 021a 9bbd 8416 a2bd 8304 073e
000003a0: 3cef 21be 870b 2abd 6757 98bd 86d1 263c
000003b0: 2f1f e3bd b29f 6b3d 2204 103e 4c88 e43b
000003c0: 16b8 0a3e df94 e7bd 9a4a 09be ca03 123e
000003d0: 13c5 11be 1bca 0cbe f443 13bb 4c92 cb3d
000003e0: e5e2 c43d c8f9 303e 0ab9 82bc 6668 0e3e
000003f0: aeb4 f63d 4493 9bbd 59f7 ee3d 6535 183e
-0.16904296 -0.05079848 0.14221649 -0.07139051 -0.1313372 -0.120174624 -0.14315629 0.10053415
-0.104595676 -0.050847847 -0.08622027 0.17171218 0.11149245 0.047817495 0.10556032 -0.044756223
0.08972356 0.09966475 -0.09878171 0.13025388 0.026512673 -0.11981542 -0.010262733 0.0835215
-0.040604256 0.18200609 0.11637295 -0.071247555 -0.034934748 -0.040989846 0.018619362 -0.13583912
-0.13979338 0.03956933 0.09651397 0.1440752 0.038982507 0.15696196 -0.084650435 0.081293084
0.1719079 -0.007237628 -0.076565355 -0.09078319 -0.14688428 0.08940324 -0.01576639 0.13102666
0.1555095 0.0005862163 0.026212135 0.072245 -0.053808726 0.022229632 -0.047469035 -0.12708975
-0.013888107 -0.15128171 0.11016714 0.07036408 -0.05081258 0.13530952 -0.054068685 0.07735034
-0.078691706 -0.061543643 -0.13156751 0.021303425 0.07301425 -0.039333932 -0.11508018 -0.06831546
0.046625517 0.108344585 0.14210582 0.13660659 -0.007448469 -0.040354405 -0.17450464 0.14335282
-0.0699387 0.038310565 0.1531584 -0.07624059 -0.052696034 0.03808635 -0.12570383 -0.06444898
-0.0010789686 -0.036220346 -0.0027922108 0.08329453 -0.065890335 0.06629844 -0.043283273 0.17780045
-0.15571786 0.0413404 0.053467665 -0.18339194 0.06284822 -0.10623717 -0.021544404 -0.03156529
-0.18593277 0.06590316 0.11988522 -0.13087584 0.13413101 -0.05349472 0.08984821 0.050570644
0.16351518 0.051345773 0.03286385 -0.14907439 -0.13469532 0.18523766 -0.059324946 -0.1147544
0.16224733 -0.13444418 -0.097588286 -0.08685609 0.08684597 0.032355737 -0.048284043 -0.04979378
-0.0759641 -0.11113486 -0.15924801 0.2077094 -0.035093337 0.12864408 -0.0351888 0.09110552
0.1160798 -0.104458384 0.0387176 -0.18569712 0.15852192 0.057391413 -0.16209692 0.15816395
-0.060939763 0.06360514 -0.13465875 -0.05212578 -0.10111973 -0.0893795 0.013864444 0.097899675
-0.12087981 -0.15699051 -0.08012116 -0.062324148 0.013068031 0.0074754055 0.0022920924 0.022872174
0.00562599 0.1358698 0.100849606 -0.032675423 -0.048822965 0.118765995 -0.041158684 -0.02509053
-0.0334895 0.14031686 0.00020120612 -0.1421496 -0.17964894 -0.041112747 -0.16443121 0.15415609
-0.21234684 0.022697799 0.1402639 0.054004118 0.009939402 0.001461819 -0.11941374 0.1403922
-0.106320076 -0.17065552 0.09899941 -0.04104226 0.08945814 0.037736066 -0.12963742 0.05305674
-0.058998704 0.11676728 -0.07683081 -0.067490734 0.1405976 -0.030362105 -0.08973394 -0.08322413
0.081983656 0.07136777 0.14347076 0.056090802 0.11082548 0.05663062 -0.0802405 0.044236023
-0.17781505 0.020974206 -0.07666339 0.12045597 0.15051827 0.16776992 0.04621212 -0.086103216
0.07758776 0.10428642 0.0363071 -0.16140369 -0.026148822 0.04970817 -0.0013398648 0.09859954
-0.13878295 0.11861011 0.14943548 0.077949874 -0.10591093 -0.0757332 -0.07914451 0.13185315
-0.15813917 -0.0415149 -0.07438546 0.01018179 -0.11089932 0.057525344 0.14064077 0.0069742557
0.13546786 -0.11307692 -0.13407364 0.14259258 -0.14235334 -0.13748972 -0.0022470923 0.09940013
0.09613589 0.17282784 -0.015957374 0.13907012 0.12046181 -0.07596448 0.116682716 0.14864118

102 f4 [1, 256, 64]
00000000: 3691 ee3c 929a f03d cc94 4fbe 28a4 1dbe
00000010: eae4 c53a 0c2e 14be 8d03 c0bd 55a1 e23d
00000020: 178c 5d3e 9099 24be 28a1 e4bd 6e91 adbd
00000030: eef1 4bbe 1dc6 e83d 6de6 5e3e 6d70 563c
00000040: 7c84 463e 0740 4d3d 6321 4a3e 7ce7 bebd
00000050: b4d5 d33d 5554 613e d526 1bbe 548b c3bb
00000060: 145f f53c 998c f43d d8f5 15be 8ef7 313d
00000070: 5f8f 27be 09af 17be 5f51 fd3c 9089 30be
00000080: 7f4d 05be 731c 3f3e 32b0 3d3e 490d ecbd
00000090: 591f cd3d 611c d73a 3687 61be 4061 adbd
000000a0: 473a 26be b670 203e f63e e33a 747f 3abe
000000b0: dd63 1bbd a9dd 94bd ec97 04be 76d2 cb3c
000000c0: 204f 14be 7d4e 2bbd 5b8b 0dbe e495 133e
000000d0: 6edc 2a3e 97a5 54bd 0299 35be 8127 15bd
000000e0: 0d2d 8c3c 4566 2d3e acbe a3bd b16c 08ba
000000f0: 948b 81bd ee5f 41be d10a 0e3d 69b9 ba3d
00000100: e24a 373e 8d9e 163e fe30 52be 5a11 15be
00000110: 6d09 12be 887a 81be 6230 23bd 0623 d63d
00000120: 2935 40be 87df 3fbd 4c29 fabc 09f8 273e
00000130: 8a6f 56bd 61db 31be e5a7 d9bc 2f09 1cbe
00000140: 758a 3c3e 74e7 283d 2dcb fc3d 7045 c8bd
00000150: 5946 1dbe c892 62be 2345 6cbe a90f 3f3e
00000160: 5431 21be d598 95bd 1de5 9bbd e010 71bd
00000170: 1ec0 f53c 6f3e 243e 6eb7 923c 2251 473e
00000180: ad2e e7bd 7e2f 023e d39c 033d 7c17 11be
00000190: 04a3 65bd 35dd 2ebe 1822 16be 4e21 1d3d
000001a0: 9302 623d d2b1 a33d 2c17 babd 1f45 063d
000001b0: 542e cabd 51e2 3bbc 9336 54be c1d8 553e
000001c0: bcd5 013e b3bb 20be 4b6a 3bbe 4a44 50be
000001d0: ff72 283e bda5 ca3d 570f ff3d bd58 46bd
000001e0: d784 203e 9966 e53c 4f94 80bd 88cb 303e
000001f0: e0b7 543e 6b98 8839 7c02 043e d6d3 513d
00000200: 7973 363e 3269 3abd 84ae 86bd c22b 64be
00000210: 4e1f 36be 22d3 63be 9d74 233e b940 4d3e
00000220: 6c5f f73d 9715 fb3b 1eae 4dbe 7274 793a
00000230: d93c 4abe e551 cc3d b926 2dbe 2034 8abd
00000240: 8e6a 94bd a710 d53c d417 63bd 8643 a43d
00000250: db88 50be 513f acbb 6704 00be 89ba 173d
00000260: bffa 48be 97cb 49be f7fa 453d 53e8 aebd
00000270: 7ccc 4abe eb39 f53d 597e 3bbc 6fa5 1ebe
00000280: 1cf9 5fbe fba5 543e fbc4 06bd f67b 7dbd
00000290: 0669 ccbd 9e8b 943c 6e96 e4bd 2cc4 1bbe
000002a0: 100d b5bd 67f1 ae3d 4cba 093d 01ef 403e
000002b0: 7740 43be b838 34be 4b86 99bd 7813 0f3b
000002c0: 01ac 6a3c ec62 623d 8919 9cbc d55e 8b3d
000002d0: ea26 2f3e f846 10be 13a5 adbd 56a8 e03d
000002e0: a152 8dbd 8910 4dbe f682 45be f592 0dbe
000002f0: 7bdb 35bd 3941 c73d c31d a23d f44c 27be
00000300: adf4 efbd d570 02bd c337 253e 997c 44be
00000310: 657f 93bd 814b e0bd 563c 23be d593 353e
00000320: 91ca 00be fc06 9fbd b833 d03d b280 7b3d
00000330: c027 3e3e 05c0 513e 4a2e e6bd 6371 0e3d
00000340: f6fd a8bd da64 9d3c 45dd 3d3c 91ef 563d
00000350: dd36 473e 8dc8 eebd 50c5 84bc a38d 643e
00000360: 0f04 e3bd e3ee d83d 6e60 13be 66e5 57bc
00000370: bb02 18be 9809 f8bd 7db0 c3bd 9638 edbc
00000380: d82a 62bc 8ae0 71be 73e6 423e af54 cabd
00000390: ae45 983d 20e6 c7bc 1f27 d1bd 4319 40be
000003a0: 3887 05bd 95ca 523e f394 3d3d edf6 053e
000003b0: 4679 8ebd 947f d539 f315 4a3e 2650 16bd
000003c0: 33b2 32be 13de 3d3e 6f5f d1bd 79c0 f8bc
000003d0: e2c0 a03c b333 e23d 50e7 f03d 3f58 1ebe
000003e0: e1c2 a93d 97fc 423e 300d 49be a643 3ebe
000003f0: 0837 2abe eca4 0a3d 3ce3 97bd 3b0f d3bd
0.029121976 0.11748232 -0.20271605 -0.15394652 0.0015098129 -0.1447069 -0.09375677 0.11065928
0.21635471 -0.16074204 -0.111635506 -0.08475004 -0.19916508 0.11365912 0.21767588 0.013088328
0.19386476 0.05010989 0.19739299 -0.09321496 0.10343495 0.22004826 -0.15151532 -0.005967537
0.029952563 0.119408794 -0.14644563 0.043448977 -0.16363285 -0.14812864 0.03092259 -0.17239976
-0.13017844 0.18663196 0.18524244 -0.115259714 0.10015745 0.0016411656 -0.22024235 -0.084658146
-0.16233169 0.15667996 0.0017337489 -0.18212682 -0.037937034 -0.07268841 -0.12948579 0.024880629
-0.14483309 -0.0418229 -0.13822691 0.14412647 0.1668565 -0.05191573 -0.17734149 -0.036414627
0.017111326 0.16933544 -0.07995352 -0.00052041846 -0.063254505 -0.1888425 0.034678284 0.091173954
0.1789966 0.1470892 -0.20526502 -0.145574 -0.14261408 -0.25288796 -0.039841063 0.10455899
-0.18770279 -0.04684403 -0.03053727 0.16403212 -0.052352466 -0.17368843 -0.026569316 -0.15237878
0.18412192 0.041236356 0.1234344 -0.09778869 -0.15358867 -0.22126305 -0.23073249 0.18658318
-0.15741473 -0.07304541 -0.07612059 -0.058853984 0.029998835 0.16039442 0.017909732 0.19464543
-0.112881996 0.1271343 0.03213198 -0.14169115 -0.056063667 -0.17076571 -0.14661443 0.03836184
0.055178236 0.07992901 -0.09086451 0.032780763 -0.09872118 -0.011467532 -0.20723943 0.20883466
0.1267919 -0.15696602 -0.18302266 -0.2033855 0.16450118 0.09894893 0.12454098 -0.04842447
0.15675674 0.028003024 -0.062782876 0.17265141 0.20773268 0.00026053502 0.12891573 0.051227413
0.17817487 -0.04551048 -0.06576255 -0.22282317 -0.1778538 -0.2224851 0.15962453 0.20044221
0.12078747 0.007662486 -0.20085952 0.0009515948 -0.19749774 0.09976558 -0.16909303 -0.06748223
-0.07246886 0.026008917 -0.055442646 0.080206916 -0.20364706 -0.0052565713 -0.1250168 0.03704313
-0.19626902 -0.1970657 0.04833504 -0.08540406 -0.19804567 0.119739376 -0.011443698 -0.15492795
-0.21872371 0.20766442 -0.0329027 -0.061885796 -0.09980969 0.01813298 -0.11161505 -0.15211552
-0.08840382 0.085421376 0.033624932 0.18841173 -0.1906756 -0.17599761 -0.074963175 0.0021831673
0.0143232355 0.05527012 -0.019055145 0.06805197 0.17104688 -0.14089572 -0.08478751 0.109696075
-0.06900526 -0.20025839 -0.19288239 -0.13825591 -0.044398766 0.09729237 0.07915833 -0.16337949
-0.1171659 -0.031845886 0.16134553 -0.19188155 -0.07202033 -0.10951901 -0.15940985 0.17732175
-0.12577273 -0.07765004 0.101661146 0.06140203 0.18569851 0.20483406 -0.11239298 0.034776103
-0.08251564 0.019213129 0.011588399 0.052474562 0.19454522 -0.11659346 -0.016207367 0.22319655
-0.110847585 0.10592439 -0.14392254 -0.013177251 -0.14844792 -0.12111205 -0.09555147 -0.028957646
-0.01380416 -0.23620811 0.19033222 -0.09879433 0.07435165 -0.024401724 -0.1021254 -0.18759637
-0.032599658 0.20585091 0.046284627 0.13082476 -0.06956725 0.0004072158 0.19734935 -0.03669753
-0.1745079 0.18541746 -0.10223281 -0.030365216 0.019623224 0.11045017 0.11762869 -0.1546335
0.08289123 0.19041668 -0.19633937 -0.18580493 -0.16622555 0.033848688 -0.074163884 -0.10305639

103 f4 [1, 512]
00000000: 0174 023d 6ca5 2d3c f3d3 d8ba 8e97 0a3b
00000010: 3057 063c 7c86 53bc 244a 4c3b 468b af3c
00000020: b584 c33c 4aa0 3f3c 2020 0bbc c6ef 743c
00000030: a605 193c 64a1 af3a bfbc 703c 0cf5 d73a
00000040: e3db 7839 fb58 833c da9c 83ba 1f17 56bb
00000050: 99e2 183b 39fd ff3a 0ce8 063d 7749 803b
00000060: 7ef7 c63c a7e2 a9bb 4bc8 db3b abae f53c
00000070: 97c7 8bbb 31db c73b 62e9 18bb e983 47bc
00000080: a071 6ebc 37b0 a4bc 990e a5bb 40cf b9b9
00000090: 36b6 4f3c f217 423c 92d1 603c cb13 5e3c
000000a0: a1a5 c13c 58c2 f43a 6b7f 0b3b 2266 2dbb
000000b0: 1e62 27bc d16c cebb f1db 3f3b 1a1d c03b
000000c0: 178f de3c 7f70 163d 0ad5 ecbb cc1f 923c
000000d0: 8cfb f13b 6a7d 7d3c 0c44 8a3c 4d79 ee3a
000000e0: b795 8c3c d58c c63b 5e43 42bc 5591 5c3c
000000f0: c10b 9a3c 9ebe 4abc ed1c 0a3b 21b7 4bbc
00000100: 4350 183c c1c8 ed3c 6baa 3cbb c96c b33c
00000110: 31b0 2f3b 046d 00bb 35cc 193b e99a 923c
00000120: 1028 873c d955 3e3c e654 343b 4eea 2d3d
00000130: aa47 ea3b 2640 73bb cd13 253c 2b43 4b3c
00000140: 1f83 273c 2fe2 063c ff37 e0bb 298d 2abc
00000150: 0baa ce3b dc7d 1c3c 5531 313d 7ce0 ec38
00000160: 1b46 7b3c 23cb 65bb af9c cc3b a815 df3c
00000170: d0b3 213b f43d 963a 2b8a 8aba 3e73 57bc
00000180: c221 da3b 90c5 a639 e7c9 a7bb b450 7abb
00000190: 83a4 413b e0cc 5b3c 4472 db3b fae9 f43c
000001a0: e9ec 033d 98ca 8139 f714 eaba 373d ae3b
000001b0: 737f 4ebc 4080 39bc 12f6 f13b 6fc1 acbb
000001c0: 5afe 283c a0bd 373d 3672 85bb 5be9 983c
000001d0: 6d20 e93b 968b 87bb 35f1 893b dfa4 81bb
000001e0: 6aa0 cb3c dc3f 983b a485 37bb 38e9 843c
000001f0: c28e c2bb f061 6bbb 851d 06bc 64a9 51bb
00000200: 819c 813f 3c2f 813f 62ca 7e3f 33ba 793f
00000210: d979 833f e044 793f ce27 803f f865 7e3f
00000220: fd06 843f 524b 813f a3cb 7c3f 2b9c 7d3f
00000230: 6a78 7f3f 5a0c 7e3f fb06 803f 93af 7e3f
00000240: 80e9 813f 147f 823f d463 823f d1e9 813f
00000250: 2bf9 7f3f 0dcc 7c3f f5d6 813f 4315 823f
00000260: 57cd 823f 2421 7e3f e776 803f 5316 813f
00000270: e358 813f a611 813f d1ce 7c3f 41fe 7e3f
00000280: c07a 7f3f 0f51 7d3f 02bd 7d3f c2b2 803f
00000290: 0bba 803f 650e 7f3f 3866 7c3f 76ec 7c3f
000002a0: d1a6 843f f9a9 7b3f 847a 803f f66b 7e3f
000002b0: 9f5c 7c3f 3d4c 7c3f 3af5 803f c5be 803f
000002c0: e106 823f 885d 823f d4e5 7e3f b2ae 793f
000002d0: ba66 813f 7916 813f 6741 803f 20a1 7a3f
000002e0: 8661 833f dbb4 803f 4aee 803f 79cd 803f
000002f0: dc1e 803f 7a58 7c3f 5e15 7f3f 0967 803f
00000300: bf68 faba 8139 2bbc 89bb 1a3b f15f 4f3b
00000310: b933 a63b 4b0e 903a 58f4 2e3c f567 71bb
00000320: 858c 5c3b 87b2 e63a 6971 153c aea1 2ebb
00000330: bad9 b8bc 2e0c 27ba d131 9bbb 4388 cc3a
00000340: 89e5 f3b9 338d ecbb 8e23 67bb 44b1 143c
00000350: 1dd4 91bc 78e3 92bb b8fd 3f3a 9dc6 4cbc
00000360: 308f b3bb a5e5 d73b a4d3 a63a c009 c5bb
00000370: 4884 bf3b e282 a73a a91d 9d3b 3ccd cd3a
00000380: a059 243c 5e78 a23c 0871 163b ae42 0f3b
00000390: 3c5c 91ba b7ae 4bbb dca2 65bc e9ae 1b3a
000003a0: 9bfa 16bb d9be 033a e95a 07bb c1d3 efbb
000003b0: a8f9 573c 0147 223b e478 70b9 f25c 9b3c
000003c0: 0dd0 30bb 0c1f f0b9 a1d2 bdbb 1781 edba
000003d0: e35e 4d3b 0a98 403c 2da8 93bb 180b 913b
000003e0: e801 ac3a 92fe 093b c9a0 5aba f74b d239
000003f0: 0414 ce3b 902a 91bc 42fc f2ba f1d5 8abb
0.03184891 0.010598522 -0.0016542658 0.0021147463 0.008199498 -0.012910482 0.003117212 0.021428715
0.02386699 0.011695931 -0.008491546 0.014949745 0.009339726 0.0013399539 0.014693438 0.0016476228
0.00023733037 0.01603364 -0.0010041252 -0.003266759 0.0023328422 0.0019530422 0.03293614 0.0039150077
0.024287935 -0.00518449 0.0067072264 0.029990515 -0.0042657363 0.0060991277 -0.0023332466 -0.012177446
-0.0145534575 -0.020103557 -0.0050371406 -0.00035440363 0.01267772 0.011846529 0.01372184 0.013554524
0.023638548 0.0018673642 0.0021285664 -0.002645858 -0.010216264 -0.006299593 0.0029275382 0.005862844
0.02716784 0.03672838 -0.0072275447 0.017837428 0.007384723 0.015471796 0.01687815 0.001819411
0.017161233 0.006059269 -0.011856882 0.013462384 0.018804433 -0.012374548 0.002107437 -0.012433798
0.00929648 0.029026391 -0.00287881 0.021902459 0.00268079 -0.0019596228 0.0023467664 0.017896133
0.016498595 0.011617147 0.0027516424 0.04245978 0.0071496563 -0.0037117093 0.010075522 0.012406151
0.010224133 0.008232637 -0.0068426128 -0.010409632 0.006306892 0.009551492 0.043259937 0.000112951704
0.015336539 -0.0035063706 0.006244264 0.027232006 0.0024673827 0.0011462555 -0.0010569742 -0.0131500345
0.0066568563 0.00031809183 -0.005120504 -0.0038195075 0.002954752 0.013415545 0.006696971 0.029896725
0.032208357 0.00024755741 -0.0017859031 0.005317356 -0.012603628 -0.011322081 0.00738407 -0.0052720825
0.010314548 0.044858575 -0.004072453 0.01866596 0.007114461 -0.004136513 0.0042096623 -0.0039564217
0.024856765 0.0046462845 -0.002800324 0.016224489 -0.005937428 -0.003591653 -0.008185749 -0.0031991834
1.0125886 1.009254 0.9952756 0.9754974 1.027156 0.9737072 1.0012147 0.9937434
1.0314633 1.0101111 0.98748225 0.9906642 0.9979311 0.99237597 1.000213 0.99486655
1.0149384 1.0195031 1.0186715 1.014948 0.99989575 0.98748857 1.0143725 1.0162739
1.0218915 0.9926932 1.0036286 1.0084938 1.0105251 1.0083511 0.98753077 0.9960671
0.99796677 0.9895181 0.9911653 1.0054553 1.0056776 0.9963134 0.98593473 0.9879831
1.0363408 0.9830623 1.0037389 0.99383485 0.9857883 0.9855383 1.0074837 1.0058218
1.0158349 1.0184793 0.9956944 0.9753219 1.0109475 1.0084983 1.0019959 0.9790211
1.0264137 1.0055193 1.007272 1.0062705 1.0009418 0.98572505 0.9964198 1.0031444
-0.0019104703 -0.010450722 0.0023610315 0.003164288 0.005072084 0.0010990588 0.010678373 -0.0036835645
0.0033653092 0.0017600813 0.009121277 -0.0026646662 -0.022564758 -0.00063723593 -0.004736163 0.0015604574
-0.0004651959 -0.0072189807 -0.0035268995 0.009075467 -0.017801339 -0.004482683 0.0007323879 -0.012498525
-0.0054797158 0.006588655 0.0012727869 -0.006013125 0.0058446266 0.0012780095 0.0047947955 0.0015701423
0.010031134 0.019832786 0.0022955555 0.0021859813 -0.001109011 -0.003107948 -0.0140158795 0.00059388444
-0.0023037556 0.0005025692 -0.0020653552 -0.007318944 0.013182081 0.002476156 -0.00022933219 0.018965218
-0.0026979477 -0.000457995 -0.005792931 -0.0018120137 0.0031337074 0.011754999 -0.004506132 0.0044263713
0.0013123127 0.0021056277 -0.0008339999 0.0004011092 0.006289007 -0.01772049 -0.0018538313 -0.0042369296

action_model._continuous_distribution.log_sigma f4 [1, 2]
00000000: 5fd9 2fbc c9eb 953b
-0.010732978 0.004575227

action_model._continuous_distribution.mu.bias f4 [2]
00000000: 8bfc 4fbc 4c0b efbb
-0.012694488 -0.007295048

action_model._continuous_distribution.mu.weight f4 [2, 64]
00000000: b46b f73c 8d06 6c3d 213b 123c 1d74 42bd
00000010: 815d 68bd eb54 5bbb debb 263c d53b 063d
00000020: d0df cdbc c965 2f3d 74b5 0cbd 7d88 b5bc
00000030: e156 843c 0aa1 4b3c 8641 cebc 0666 3a3d
00000040: f31c b23c fa6f b4bc 3900 e8bc bb62 4f3c
00000050: 7571 c83b 0c5b eebc 75f8 033d 6af4 8bbc
00000060: 0fd1 7d3a 1d9f 9bbc 7a14 4b3c 3b09 a8bd
00000070: eff6 17bd 9422 a03c 2141 04bd b806 223c
00000080: 18f2 c0bc c759 9dbb 712c fd3c fa8b 8f3d
00000090: a83a 38bc 9a56 01bd 7f3b b93c 440b 48bb
000000a0: 9394 e53a 9aab 61bd a3d6 a6bc b309 593c
000000b0: 5809 66bc ca87 fcb9 faa7 50bb 5380 803c
000000c0: ccf5 cebb edb6 aebc cf68 01bc e85f 47bc
000000d0: 2225 ecbc af9f 75bb 3a34 f23c eeb0 03bd
000000e0: 060c ae3d 64be 43bd 1075 a73c 762a 7dbc
000000f0: c325 80ba 8f2d c63c caae 18bb 2c9e 6c3d
00000100: 0981 afbc 9b86 0bbd 27df 14bd cb97 ae3d
00000110: 0600 cc3c 12cb 21bd a23f 53bd dadf 5cbd
00000120: 6fb3 863c 1c50 11bd f638 f33a 2522 913d
00000130: a0be 6dbc f07a bf3c cbbe 15bd 1120 4cbd
00000140: c7ac c3bc 2531 d3bc 781a 523c 669a 39bc
00000150: 198c 573c 3bc5 58bd 46e6 6bbd d2ba 583d
00000160: b651 143d 063e 1cbb 51a5 643d 80ae 053d
00000170: af07 d2bc fbfb aabc b75c 003d fa9d 4dbc
00000180: 7fd3 b43c 119a 02bd d028 e4bc 8325 dc3c
00000190: 09c9 11bc 52fb 903d f4e7 e8bc 737a 9cbd
000001a0: c974 4e3d 03ab 8bbd 9541 463b e04a 58bc
000001b0: a0f1 cabc 96d7 143c 7471 67b6 c19f 2d3d
000001c0: 0c78 823c 913e 4d3d feec 1e3c 8ab7 f8bc
000001d0: fea4 0f3c 67fd 153d 2825 e9bc ea77 333d
000001e0: b06f 16bd 4960 813c a81c cd3c c231 faba
000001f0: 51f4 303d 576a 0c3c e64f 06bd 2969 cf3c
0.030202724 0.057623435 0.00892523 -0.047474016 -0.056729797 -0.0033467363 0.010176627 0.032771904
-0.025131136 0.04282168 -0.034352735 -0.02215981 0.016154708 0.012428531 -0.025177728 0.045507453
0.02174232 -0.02202605 -0.028320419 0.0126578165 0.0061170408 -0.029096149 0.03221937 -0.01708432
0.0009682336 -0.01899677 0.012395019 -0.082048856 -0.03710073 0.019547738 -0.032288674 0.009889297
-0.02355294 -0.004801962 0.03090498 0.0700912 -0.0112444535 -0.03157673 0.022611378 -0.0030524293
0.0017515592 -0.055095293 -0.020366019 0.013246941 -0.014040314 -0.00048166356 -0.0031838403 0.01568619
-0.0063159224 -0.02132746 -0.0078985235 -0.012168862 -0.0288263 -0.0037479212 0.02956592 -0.032151155
0.08498387 -0.047788993 0.020441562 -0.015452018 -0.0009776879 0.024191646 -0.0023297542 0.057768032
-0.021423833 -0.034063917 -0.036345627 0.08525046 0.024902355 -0.039500304 -0.051574357 -0.05392442
0.016442982 -0.03547679 0.0018556404 0.07086591 -0.014510781 0.02337405 -0.036558907 -0.04983527
-0.023886098 -0.02578027 0.012823693 -0.011328315 0.0131559605 -0.05292247 -0.057592653 0.05291254
0.036210738 -0.002384068 0.05582172 0.03263712 -0.02563843 -0.020872107 0.03133842 -0.012549872
0.022073505 -0.03188521 -0.027851492 0.026873356 -0.008898028 0.070791855 -0.028430916 -0.07640543
0.050404344 -0.06819727 0.0030251492 -0.013201445 -0.024773419 0.009084603 -3.448772e-06 0.04238868
0.015926383 0.050108496 0.009700058 -0.030360956 0.008767365 0.036618616 -0.0284601 0.04381553
-0.036727607 0.015792983 0.025038078 -0.0019088315 0.04320175 0.008570275 -0.03279104 0.025318699

network_body._body_endoder.seq_layers.0.bias f4 [128]
00000000: eea1 603b 2fd5 d1ba 7dfe 913c 9c80 503c
00000010: 21d7 f6ba 6505 183c 2899 863b bbbd 01bc
00000020: 76a6 5a3c b453 373b 4390 f93a 03bb 903b
00000030: f8a0 e5ba f5d9 1dbc 0b7a 883b e9fa 303c
00000040: 5ca7 bd3c eea1 3a3c 9d57 dc3b 5f14 b9b9
00000050: 7cf4 3bbc 7ef8 b23c 26ed 973c 50f9 50bc
00000060: 8b26 b13b 627a ff3c a79a 993b d0ca 77bb
00000070: 853b d93a 584d 663c 98c8 deb9 4899 afbc
00000080: 1a39 b3bb 26cb 42bb c154 6e3c db7d 5fbb
00000090: 544e a4ba e161 5d3c ba4c e53b 45c4 9a3c
000000a0: a894 1dbc d04c 1d3b a4ad ab3c 22d6 e5bb
000000b0: 93bf 7e3c 1aef 4dba 4b25 50bc be9a 623a
000000c0: b927 663c da6f 26bc 8990 8abb 972f 763c
000000d0: adeb 40ba ad5a c0ba b48f 0f3b e9fb c0ba
000000e0: b8b4 62bb c5d4 793c 9bc7 543c cc97 033c
000000f0: ab5c 2b3a 4111 a53c 1e50 083b 7e02 56ba
00000100: 932f b5bb a9bb 19bc e3fc 2abb a2cd b13b
00000110: 8270 dfba 74de 3abc dbba 873c 52a3 9a39
00000120: d74d 643b 3762 f73b 8e3a 18bb c2a8 58bc
00000130: 59a1 1d3c e4b9 6b3b b731 a0bc 08b4 77bb
00000140: 8fac 3cbb 9ed0 523c a97f 4dbb 4f4a 513c
00000150: 7770 bb3c f908 813a 711c 08bc 5bc8 763c
00000160: e671 043c 8290 233c 0eea 93ba df98 273c
00000170: d062 90bc 3968 83bb 6915 ee3a a639 61b9
00000180: 3947 083c 073e 7f3c 6c1a c2bb 5845 e33b
00000190: 6a4d 8e3b 35c1 13ba 436e c0ba 1c96 273b
000001a0: 5559 13bb 011e f43b 13ad 5e3b 7203 923b
000001b0: 02d8 9abc fffd eb3c a033 e73b 1288 0ebb
000001c0: 89cd c43b f21d 3b3b 93fb fc3b 9d10 ccba
000001d0: f2ee fb3a 2cb3 7a3c ad6d 7e3c c60c dfba
000001e0: d1b5 3dbc 20fc 8abc 574a d6bb 0ffa 11bb
000001f0: 4240 053d e8e3 8d3b c0cf b83c cf35 143c
0.0034276205 -0.0016008968 0.017821545 0.012725975 -0.0018832424 0.00927863 0.004107613 -0.00791877
0.013345351 0.0027973475 0.0019040186 0.004416825 -0.0017519286 -0.009634485 0.0041649393 0.010802009
0.023151092 0.011391146 0.0067243115 -0.00035301127 -0.011471864 0.021847006 0.018545698 -0.012754753
0.005406206 0.031186286 0.0046876254 -0.0037810095 0.0016573524 0.014056526 -0.00042492594 -0.021435395
-0.0054694535 -0.0029723137 0.014546574 -0.0034102115 -0.0012535551 0.013512106 0.006997672 0.018892417
-0.009617962 0.0024002083 0.020956822 -0.007014052 0.015548605 -0.00078557583 -0.012704204 0.0008644274
0.014047557 -0.010158503 -0.0042286557 0.015025995 -0.0007359337 -0.0014675461 0.0021905722 -0.0014723513
-0.003459258 0.015248482 0.012987043 0.008031797 0.0006536941 0.020149829 0.0020799707 -0.00081638235
-0.005529353 -0.009383121 -0.0026090674 0.0054261247 -0.001704708 -0.011405576 0.016568592 0.00029494852
0.0034836435 0.00754955 -0.002322826 -0.013223829 0.009620988 0.0035968954 -0.019554956 -0.0037796516
-0.0028789376 0.012867121 -0.003135661 0.012774064 0.022880776 0.0009844593 -0.008307562 0.015062417
0.008083796 0.009983184 -0.0011284964 0.010229318 -0.017625242 -0.004010227 0.001816434 -0.00021479148
0.008317762 0.015578753 -0.00592356 0.0069357567 0.0043427246 -0.0005636395 -0.0014681298 0.002557165
-0.0022483666 0.007449866 0.0033977672 0.004455977 -0.018901829 0.028807638 0.0070557147 -0.0021748585
0.006005947 0.0028551784 0.0077204197 -0.0015568916 0.0019220992 0.015301507 0.015529078 -0.0017017357
-0.011578993 -0.016965926 -0.0065396237 -0.002227429 0.032531984 0.004330147 0.02256 0.009046032

network_body._body_endoder.seq_layers.0.weight f4 [128, 18]
00000000: b377 803e 9cec f33c 659b dbbd 2077 bd3d
00000010: 9021 583e caac b83d e13c b4bd 5d25 03be
00000020: c3af d0bd d217 05bf 8fba 93bc c527 e43d
00000030: 678f 3ebe babe 283e 37c3 a4bb e480 99be
00000040: 2b62 a8bd 7060 0ebe 94de 2fbf 333a 10be
00000050: c251 92be 2007 f83e 7f86 5cbe 57d4 a33e
00000060: 1962 c93e c66f abbe 38d0 46be a0ae abbc
00000070: f822 2a3d 2f7f 093d 36bc da3d ca12 75be
00000080: 1f58 013f e681 ac3e f790 f8be d75e 53bd
00000090: 2ca1 733c 699a c03e 6249 c63e faa4 fdbe
000000a0: 55fd d0be 33d8 ab3e 861a 593e b367 833e
000000b0: a7ac 123d 1535 0cbf 6516 cc3e b794 e13c
000000c0: 9601 6e3e 9ee0 a93e 6ad3 b43d 5621 be3e
000000d0: bec3 20bf 17fe 9fbe c704 443d 5ea2 e33d
000000e0: a87c 6abe ec36 393e 3138 35bc cadb 65be
000000f0: 3548 a2bd 4b00 04bf 2b24 e8bd 69bf 923e
00000100: 40b3 a3bd b0fa d0bd e37a 673e 8118 f9bc
00000110: 0cf4 c23c bc3f ed3d ee1c ab3d 4c8c 4abc
00000120: 651c 9dbd af02 543d f292 63be 3aab d23d
00000130: f5d2 6c3e 53f9 753e 71f9 43be 940e bd3e
00000140: 2dc0 dc3e 60b9 b43b 8d8f a03e 1762 1a3d
00000150: 39be b43c e4ff 173c 9d87 4f3e 0df5 33bc
00000160: 5022 523e 09eb e3be 051e 91bd 4776 00be
00000170: 8976 71bd 5bcc 183e 3b49 d23c ae11 babe
00000180: d43d d1be d143 a43e c321 03be 2806 863d
00000190: 11e0 08bd f28f 453d 1bbc c3be c463 dfbd
000001a0: 319e fcbd 4c12 0e3e 0f11 83bd 4f49 0abe
000001b0: acc0 90be f592 15bd 4d38 82be b13f a53d
000001c0: 1bfb 9dbd 9e08 bdbe deee e53e 58e3 863d
000001d0: f1af 693e 42ab 8b3e 3e77 363f af56 4bbd
000001e0: efd8 17be e2c8 223e f70b c03d eb52 cfbd
000001f0: 07af a73e 6e5b dd3e 4187 15bf 1f3a ddbd
00000200: fa6c 1dbe 94da b73e b809 913d cbe4 563e
00000210: c6b8 dfbd 1f66 5d3e 3489 413c 0775 6ebe
00000220: ee3d 85be 7bea 6b3e 66e0 87bd a2df f83d
00000230: 07f4 883e ae13 f03e 7cd2 9ebc c2f5 373e
00000240: db32 d53e 8adc ccbe e3d5 613e 2b71 d43e
00000250: 5bdf a23e bd25 ccbd 3bfe 053f e241 6cbe
00000260: de8f f63d 5887 0cbe 462c a4be 2d09 633e
00000270: 4c7d b03e 8d5f 99be d071 a13e 4cb8 d03e
00000280: 7da1 33bd fa82 90be 1db9 90bc 81db ae3d
00000290: ab18 11bd 117f b53c ad62 15be e29d 7abe
000002a0: a924 eebc aab6 c1bd ecbc 023d fc7b 21bd
000002b0: c818 063e 5530 0d3e 3c49 dd3c a548 863d
000002c0: ff2d 083d 2cb0 babe 7372 643e 10f8 da3e
000002d0: 1487 0fbe cd2b ae3b 50cc e13c 2049 743e
000002e0: 49e0 3b3e 3ebf 52bd b647 18be 5534 f33e
000002f0: efb9 863e 4138 a6bc 421a 8b3e 61a8 673e
00000300: cfc6 283b f84a 1b3e 7689 4e3e 31b3 0b3f
00000310: 3434 aa3d 1f2a 71be 38ac 0d3e 928f 4abe
00000320: 861a b5bd 8154 613c 9829 883e 5495 06bd
00000330: 766f 423e dbc4 ab3d 736d a13e 46e9 c23c
00000340: 921e 7e3e e37a 72be d5d9 963e bf7d 1dbd
00000350: 994d bebd b179 993e 7909 14bd 7121 32be
00000360: d144 a6be b119 33bd 5ffc d03d fd64 583d
00000370: 64e3 6c3e f761 05bf ef49 cabd 3650 9abe
00000380: 4b42 1ebc bcae b33d c5c0 b03e 4245 9bbc
00000390: 6e56 943e c2d1 1d3e 530b 963d e715 d53c
000003a0: da9c 113e 62d4 bd3e 8a7e 50bc 69d1 043d
000003b0: 3fb8 543b 777b c7be 31fb bd3e 7e5f cc3d
000003c0: 53b4 253e 43ce 1fbe ea18 debd ffbc cebe
000003d0: 4094 8c3d edcc 1a3e fbb5 d13e 8643 ca3d
000003e0: 3a09 b4be 5db9 30be 86a4 aebd 5971 89be
000003f0: 214d 0dbe 76fc d13d faf7 d1be 2041 2cbe
0.25091323 0.02977591 -0.107229985 0.09251237 0.21106553 0.09017332 -0.08800674 -0.12807222
-0.10189774 -0.5198947 -0.018033294 0.11140398 -0.18609391 0.16479006 -0.0050281542 -0.29981148
-0.08221849 -0.13903975 -0.68699 -0.14084701 -0.28578 0.48442936 -0.21535681 0.3199794
0.39332655 -0.33483714 -0.19415367 -0.020957291 0.041537255 0.033568557 0.1068043 -0.23932949
0.5052509 0.33692855 -0.485481 -0.05160412 0.014869969 0.37617806 0.38727862 -0.4953993
-0.40818277 0.33563384 0.21201524 0.25665054 0.035809185 -0.54768497 0.39860836 0.027536733
0.23242792 0.33179182 0.088293865 0.37134808 -0.6279868 -0.31248543 0.04785612 0.111149535
-0.22899115 0.18087357 -0.01106076 -0.22447124 -0.07923929 -0.5156295 -0.113350235 0.2866166
-0.079931736 -0.10204065 0.22605471 -0.030407192 0.023798011 0.11584422 0.08355127 -0.012362551
-0.076714315 0.05176037 -0.22224024 0.10286565 0.23127349 0.24020891 -0.19138123 0.36925185
0.43115368 0.0055152625 0.3135952 0.037691202 0.022063361 0.009277318 0.20266576 -0.010983718
0.20520902 -0.44515255 -0.07085804 -0.12545119 -0.058950935 0.14921705 0.025669685 -0.36341614
-0.40867484 0.3208299 -0.12805848 0.06544143 -0.03341681 0.04823298 -0.3822945 -0.10907701
-0.1233486 0.13874167 -0.06399738 -0.13504528 -0.28271997 -0.036517102 -0.2543358 0.08068789
-0.0771391 -0.36920637 0.44908804 0.06586331 0.22821023 0.27279097 0.712757 -0.049643215
-0.14828847 0.15896943 0.09377282 -0.10123237 0.32750723 0.43233818 -0.58409506 -0.10802101
-0.15373603 0.3590895 0.07081932 0.20985715 -0.109239146 0.21620987 0.011812497 -0.2328683
-0.2602381 0.23038666 -0.066345975 0.121520296 0.26748678 0.46890014 -0.019387476 0.17964843
0.41640362 -0.40012008 0.22054248 0.4149259 0.31811032 -0.099681355 0.5234105 -0.23072007
0.12039159 -0.13723505 -0.32065028 0.22171469 0.34470594 -0.29955712 0.31532145 0.40765607
-0.04385518 -0.28224927 -0.017666394 0.08537961 -0.035423916 0.022155317 -0.14588423 -0.2447429
-0.029070215 -0.094586685 0.03191845 -0.03942488 0.13095391 0.13787968 0.02701246 0.065568246
0.03324699 -0.36462533 0.22309284 0.42767382 -0.14016372 0.00531528 0.027563244 0.2385602
0.18347277 -0.051451914 -0.14871106 0.47500864 0.2631373 -0.020290496 0.2716847 0.22622825
0.0025753265 0.15165317 0.20169625 0.545703 0.08310738 -0.23551224 0.13835227 -0.1978133
-0.088429496 0.013753057 0.26594234 -0.032857254 0.18987831 0.083871566 0.31528816 0.023792874
0.24816349 -0.2367969 0.29463068 -0.03845 -0.09292144 0.29975656 -0.036141846 -0.1739557
-0.32474378 -0.043725673 0.10204386 0.052830685 0.23133618 -0.5210261 -0.09877383 -0.3013932
-0.00965936 0.08773562 0.3452207 -0.018953923 0.2897219 0.15412048 0.07326379 0.02601142
0.1421999 0.37076098 -0.012725482 0.03242627 0.0032458452 -0.38961384 0.37105706 0.09979151
0.1618207 -0.15606026 -0.10844596 -0.40378568 0.06864214 0.15117235 0.40959153 0.0987616
-0.3516329 -0.1725821 -0.08527474 -0.2684429 -0.13798954 0.10253231 -0.41009504 -0.16821718

network_body._body_endoder.seq_layers.2.bias f4 [128]
00000000: 94ff 133b 0d44 4a3c 0ca1 4b3b 4e58 cc3a
00000010: 5e21 b2bb 43ff 7e3b 3586 57bb 24a1 983c
00000020: a3fc 403b 557e 4e3b 0edc 253b 0298 d53b
00000030: 4793 503c ce05 a0bb 236c ca3a 3fa6 ec3b
00000040: 854d 1ebb 7650 88bb 640e df3b 6880 6a3a
00000050: 2a65 e3ba 59f2 6f3a 5c5b edb8 d8e0 de3b
00000060: cc8b 573b 0e48 663b e07f 0c3c 848a 97ba
00000070: 0443 ccbb f7f0 2d3c d975 873b f04f 67bc
00000080: e21b f93b 86d1 39bb d8de 273c be73 31ba
00000090: 615a 3abb dc79 903b ee34 3c3c c593 27bb
000000a0: 4bf1 813a 8735 8fbb 4a44 7f3b a515 04bb
000000b0: 924b c6bb 729d 4839 0ea2 25ba 9220 a23a
000000c0: d67d 453a f8e0 a13b 47d3 3abc 6192 a23b
000000d0: f18e 6339 4b66 0ebc 97fd 9cbc 5dd5 813c
000000e0: 3df2 b53a 51f7 933b 3237 b3ba 8072 4e3b
000000f0: 0e0e 663c e760 58bb 2a34 483c 51b7 3c3c
00000100: 6c16 26bc 9dd0 87bb fac0 7f3b ef3e 1e3c
00000110: 948a ddbb e9ac 45bc bcb2 4d3b d978 363c
00000120: b62b f8bb 2daf 853b 26f6 a8bb c817 d23b
00000130: 6cb6 2bbb 195b 1c3b 5db3 123c 18f7 2b3c
00000140: 306c 67bc 6402 e83a a18a 8ebb 0ca3 d2bb
00000150: 41cf 073c abae b83b 4e89 8dbc d9d2 90bb
00000160: 23b7 b037 071e f6bb 0f12 30bc 4baf b7bb
00000170: b2b4 b9b9 bee8 c63a ff51 06bc a305 9a3b
00000180: 2a78 8a3b 1aed 73bb 7455 bcba fc2f 0d3c
00000190: a00b 50bc 9af5 7c3b 246a 573b 653b 4d3c
000001a0: 1da5 f2ba 8b61 b93b fe9f 843b 43f7 033b
000001b0: 43c1 483a cbb5 c5bb 65c7 613b 1bdb c5bb
000001c0: f855 633b 3051 5c3b 4f7d 1f3c 69e0 eeb9
000001d0: ec8e 3039 e40c 753c 992f 193b 96be 493b
000001e0: a0e8 2b3c b58b 823b a5dd 423b 608b 8eb9
000001f0: 4858 683b ef8e e3bb 4fb6 de3b e1df d9bb
0.0022582756 0.012345326 0.0031071333 0.0015590282 -0.0054361066 0.0038909472 -0.003288639 0.018631525
0.0029447458 0.0031508405 0.0025308165 0.006518365 0.012730426 -0.0048835045 0.0015443604 0.0072219665
-0.0024155092 -0.0041599823 0.0068071354 0.00089455256 -0.0017348875 0.0009153239 -0.00011318058 0.006801706
0.0032889722 0.0035138163 0.00857541 -0.0011561667 -0.006233575 0.0106165325 0.0041339216 -0.01411818
0.007602201 -0.0028353645 0.010246001 -0.0006769261 -0.0028435218 0.004409058 0.011487229 -0.0025570255
0.000991383 -0.0043703946 0.0038950616 -0.0020154503 -0.006051489 0.0001913214 -0.00063183985 0.0012369326
0.00075337046 0.0049401484 -0.0114029115 0.0049612974 0.00021701657 -0.008691381 -0.01916389 0.01584881
0.0013881397 0.0045155664 -0.0013673066 0.0031501353 0.014041437 -0.0033016743 0.012219468 0.011518315
-0.010137182 -0.0041447417 0.0039024935 0.009658559 -0.0067609046 -0.012065151 0.0031387052 0.011137211
-0.00757357 0.0040797205 -0.0051562963 0.0064115264 -0.0026201261 0.002385801 0.008953896 0.010495923
-0.014124915 0.0017700908 -0.004350022 -0.006428128 0.008289159 0.0056360564 -0.017277386 -0.0044196662
2.1066115e-05 -0.0075109038 -0.010746493 -0.0056056133 -0.00035420578 0.0015175564 -0.00819826 0.004700379
0.0042257505 -0.003722018 -0.0014368729 0.008617397 -0.012698084 0.0038598538 0.0032869661 0.012526368
-0.0018512342 0.00565738 0.004047393 0.0020136393 0.0007658193 -0.0060336343 0.0034451124 -0.0060380823
0.0034688693 0.0033617727 0.009734466 -0.00045562096 0.0001683791 0.014956687 0.0023374318 0.0030783764
0.010492474 0.0039839395 0.0029734161 -0.00027188193 0.003545301 -0.0069445292 0.006796635 -0.006649003

network_body._body_endoder.seq_layers.2.weight f4 [128, 128]
00000000: f3e0 1b3d df13 80bc 9c01 4abd 12c3 9e3d
00000010: faf6 e7bd 4185 2a3d 3044 8f3c 5842 9c3d
00000020: fdaa debc 77b4 c63d 6611 c23d d65c 6ebe
00000030: 118e df3d f982 c43c 79a0 933d f82c ba3c
00000040: 3747 8c3c 8455 d83d 94be 5abc 9a34 233d
00000050: 4dfe cf3d 13b9 21bd 6531 903d 842f 7dbd
00000060: 3eef f03d fa63 9abd 8478 0bbe e293 1b3d
00000070: dc3e 8bbe 4043 023e 65ec acbc ebf3 23bc
00000080: dcd9 b13d 6a40 6f3e f830 c7bd 73d1 c8bc
00000090: a266 763c 2744 073e 2290 87bc bb10 223c
000000a0: 39e5 f33d 8c94 4c3c 969b 303d e202 323d
000000b0: 5bbf 44bb 2299 89bb 9f53 0abd 2446 d73d
000000c0: d40e 69bd 86a2 8d3d c97a 33be bf6b ccbd
000000d0: ac65 123e 44e3 dbbd ea9f ebbd cae9 993d
000000e0: cafa 18be c888 39bd a6f8 4a3c 1b4d 293e
000000f0: f597 4fbc 81cd 213d 2bd3 d7bd f8c1 05bd
00000100: 3f44 0fbd 69ba 1dbe 58c6 623c 3f84 223e
00000110: 2aed 7ebe 1114 963d f9c7 bfbd 85a1 0e3e
00000120: dcd6 7dbc 4051 243e e65e af3d eb4e e23d
00000130: ba35 01bc 89ab 963d 9f94 a9bd 1e08 0f3c
00000140: ecae 4abc 2ba3 d43d 4aab 12bc bdee 143e
00000150: 77f0 153e 7f62 5abd 33c2 82bd c378 8ebd
00000160: 08c2 073d c03a e63d 49e5 19be f3e1 d0bc
00000170: 801a 7a3d aa59 ec3c 2f65 d1bd 5dcd 5dbc
00000180: f5a7 94bd e7fc 983d cb44 1c3d 0b0d 9dbd
00000190: d027 8a3d b9c1 ebbd 5387 92bd 40ac 183e
000001a0: 55aa a1bd 8f70 90bd 233b 22bd ece7 32bd
000001b0: 461c 90bb 33a6 ba3d 742f 50bc e7ab b03d
000001c0: 962d e03d a28d a4bb 4218 463e e270 0abe
000001d0: fe48 e7bd 326f f1bb 64ee adba bfa1 af3c
000001e0: 273a 6b3c 0b91 793c 8884 2fbd bc12 8a3d
000001f0: 9819 28bd ba6b 6f3d 1b99 b23d 8f43 a7bd
00000200: 9f70 613d 7604 bb3d 88c4 773d 0ffe 3e3d
00000210: 02f9 34be 012d 9d3d e452 76bd c252 22bd
00000220: 9458 c23d 4754 eb3d 3c4b f43d ac29 a5bc
00000230: 1029 1f3d 9f86 93bd cc6c 76bd 7196 0e3e
00000240: 6f73 81bd 2cc6 673d 785a 4b3d 5bfa eebb
00000250: 8e83 06bd 8468 d53d 8198 f1bd 5f57 893c
00000260: e753 9a3d 5eae 3c3e 6551 49bd eb8a edbd
00000270: 4fb7 de3d 7a33 5d3d 303f 233e 9fc0 ab3c
00000280: 6c50 5bbe 0f7d 8ebd a7ea acbd 4175 453d
00000290: bc7b 95bd 68c9 233c 83d7 0a3e 8d55 ccbd
000002a0: d2c2 4b3d 4708 edbc 6b5e febc 5ce5 e63d
000002b0: 1223 debd cd46 993c 9b9b a2bc dde9 09bd
000002c0: e7a2 923b 8069 63bd 6d79 df3c 3fd8 bd3d
000002d0: affe f53d 4b00 153d c324 143d 08de 94bc
000002e0: 6156 d2bd 9b0b f3bc 0ee0 70bd f381 49bd
000002f0: 98d3 0c3c 348f f73c 46fe 3e3d 050e 313d
00000300: 01a2 123e 06c9 0b3e 0cd7 063e 2e1a 11be
00000310: fc26 01be fd2d 30bd 04da 17bd 253d b03d
00000320: f2c0 debd 0565 ea3d d72f 3fbd 8bb1 b5bc
00000330: a0e6 213d 0558 19bc b8cd 8a3c ec90 063e
00000340: ec90 ac3d a39f f43b 5fd4 083d a7b4 7fbd
00000350: 8b1d aebd 1abc de3c 115c 88bd 9dbe 91bd
00000360: 8b14 b13d 393f 61bd e8b2 99bd cfe2 76bd
00000370: 41dd 0dbe 3b3b 0bbc 5e64 23bc 87a0 2f3c
00000380: c0ea 573d 6c49 e53d 904c 1a3d 2385 5b3d
00000390: ff29 06be 545d 803c 7552 dabd f637 b33d
000003a0: a715 323d bb7c 6bbd a4a1 113d 79a9 93bd
000003b0: a37c 8f3c 030c 6c3d 7416 393c 4eaa 8ebd
000003c0: e41d 9bbd e363 a7bd 0be8 dabd 8865 c2bb
000003d0: bd59 80bd 0eda 403a ee85 d43d 9d63 4c3d
000003e0: 406a 943d 736d 3bbd 65cb 1bbe b9c8 a03d
000003f0: 819b 0b3e 51e5 a1bb d853 00bc c65d ec3d
0.038056325 -0.015634475 -0.04931794 0.077520505 -0.11326404 0.041630987 0.017488569 0.076298416
-0.027181143 0.0970239 0.09475975 -0.23277602 0.10915769 0.023988234 0.07208342 0.02272652
0.017123802 0.10563186 -0.013351101 0.039845087 0.10155926 -0.03948314 0.07040671 -0.061812893
0.11764382 -0.075386 -0.13620192 0.03798283 -0.27196395 0.12720966 -0.021108815 -0.010006885
0.086841315 0.23364416 -0.09726137 -0.024513936 0.015039118 0.13209592 -0.01654822 0.009891684
0.11908955 0.012486588 0.04311713 0.04345978 -0.0030021283 -0.004199163 -0.033771154 0.10511425
-0.056898907 0.069157645 -0.17527308 -0.099814884 0.14296597 -0.10736707 -0.115051106 0.07515295
-0.14939418 -0.04529646 0.012388384 0.1653332 -0.012670507 0.039502624 -0.10538324 -0.032655686
-0.034977194 -0.15403141 0.013841234 0.1587076 -0.24895158 0.07328046 -0.09364314 0.13928802
-0.015493121 0.1604662 0.08563022 0.11050209 -0.007886345 0.073569365 -0.082803 0.008729963
-0.012370806 0.10382684 -0.008951971 0.14544196 0.14642511 -0.05331659 -0.06384697 -0.06956627
0.033144027 0.112416744 -0.15028872 -0.025498366 0.06106043 0.028851349 -0.10224377 -0.013537732
-0.07258598 0.07470112 0.038151544 -0.076685034 0.06745875 -0.11511559 -0.07154717 0.14909458
-0.078938164 -0.07052719 -0.03960718 -0.04367821 -0.0043979017 0.09113731 -0.012706626 0.08626538
0.10946195 -0.0050217668 0.19345191 -0.13519624 -0.11293219 -0.007367992 -0.0013269898 0.021439431
0.014357126 0.015232335 -0.042851 0.067418545 -0.041040033 0.058452345 0.08720609 -0.08167183
0.055039044 0.0913171 0.06049016 0.046629008 -0.17673114 0.076745994 -0.060137644 -0.039629705
0.09489551 0.11490684 0.11928412 -0.020161472 0.03885752 -0.07203411 -0.06016235 0.13924576
-0.06320845 0.056585476 0.049646825 -0.0072930283 -0.032840304 0.104203254 -0.11796666 0.016765295
0.07535534 0.18425891 -0.04914989 -0.11598762 0.10874807 0.05400417 0.15942073 0.020965872
-0.21417397 -0.06957447 -0.08443194 0.048207525 -0.07298991 0.009996749 0.13558774 -0.09977255
0.049746342 -0.028934611 -0.031050881 0.112742156 -0.10846533 0.018710518 -0.01984959 -0.033670295
0.004474986 -0.055520535 0.02727958 0.09269761 0.12011468 0.036377233 0.03616787 -0.018172279
-0.10270382 -0.02966862 -0.058807425 -0.049196195 0.00859537 0.030219652 0.046629213 0.04322626
0.14319612 0.13650903 0.13167971 -0.14170143 -0.12612528 -0.043012608 -0.03707315 0.086054124
-0.10876645 0.11445049 -0.046676483 -0.022179386 0.03952658 -0.009359364 0.016943797 0.13141221
0.08426079 0.0074653192 0.033405658 -0.062428143 -0.085017286 0.027189303 -0.06658185 -0.07116435
0.086464964 -0.054991934 -0.07504827 -0.060274895 -0.13853933 -0.008498008 -0.00997266 0.010719425
0.05271411 0.11195645 0.037670672 0.053593766 -0.13101958 0.015669502 -0.10660259 0.08750908
0.04347768 -0.057492 0.035554543 -0.07210059 0.017515486 0.057628643 0.011296857 -0.06966077
-0.075740606 -0.08173349 -0.1068879 -0.0059325136 -0.06267116 0.00073567114 0.103771076 0.049899686
0.07246828 -0.045758676 -0.15214308 0.07850785 0.13633539 -0.0049406667 -0.00783249 0.11541323

network_body._body_endoder.seq_layers.4.bias f4 [128]
00000000: 1b42 21bc a5e7 4a3c 0af4 3e3c d886 30bb
00000010: c1ff a83a aa10 8d3a f165 d23b 2088 523c
00000020: 72a6 60ba 89a2 813b 6c2e 6ebc 42d0 003c
00000030: c552 9f3b d39c 6a3b 297b ff3b a23a 3d3c
00000040: f8b9 a4b6 faaa 103a 1278 7fb9 971a 1fbc
00000050: cf52 dc3b 3dc5 fd3a 1051 ad3b fb30 293b
00000060: 96c8 a63a 41eb 4c3c bd77 cf3a a3f0 7e3c
00000070: 043e 20bb af84 943b 3f7f 9f3b 8b39 a6bb
00000080: 590e 55ba 3c7c 24bc 39e8 b13b b2e1 53ba
00000090: b6d3 dcbb 155b 253a 9906 033c cb78 ec3b
000000a0: ed76 f738 8d8c 2fbc 49c5 4fbb c3c8 49bb
000000b0: 378e 45ba e52e 043c ed14 033c c785 b33a
000000c0: 0d0d e43a 327b 7a3c 4d23 763b 9923 3a3c
000000d0: 2c0d 21bb 3056 0aba ed1f 6cbb 313c 293c
000000e0: 6a11 fa3b 8007 be3b 32d8 803b 2afe f0ba
000000f0: 87fe 7a3b 12d5 b53a 104e fabb e94e e9ba
00000100: 0909 2bbb 58ad 21ba 42de d4b9 7c0e b43b
00000110: 027f a93b 3de9 cf3b 488b 85ba 3399 f2bb
00000120: 7913 a8bb 9469 a9bb 996c 923b af5f 363c
00000130: 70f8 74b9 1c78 a3bb 6217 b53b 3125 e3bb
00000140: 5176 c7bb 5ff0 4ebb 8833 46bb c84d 2d3c
00000150: 9adb 2f3c b2f9 85ba 9942 ed3b 3eab 0c3c
00000160: 315b 0bbb 4afd 16bb c442 8f3b 4b44 573c
00000170: 6055 533b 2e04 373c d3f9 8cbb e7b1 ff3b
00000180: ab7e 68bb 801b 063b 8e35 7438 ed8a 14bc
00000190: e7f7 933b dda8 f33a b5f7 623b 5645 ec3b
000001a0: 4d3b 6f3b 711a a63b e4eb 2e3c a602 a5ba
000001b0: b34b 9a3b 7fa9 31bc 084e 5a3c aca5 2eba
000001c0: 705e 81bc b89b a1bb b3b6 60bc ed0e 3abb
000001d0: 6d71 1fba 8db5 933b ecf2 c13b 8224 973b
000001e0: 1122 9ebb 134d 373c 5070 7b3a 2994 fb3b
000001f0: d383 2c3a 3e49 4e3b fd49 af3b 8c84 74ba
-0.009842421 0.01238433 0.011654863 -0.0026935842 0.0012893603 0.0010762413 0.006420844 0.012849838
-0.0008569724 0.0039561433 -0.014537435 0.0078621525 0.004862162 0.003579904 0.0077966643 0.011549624
-4.9092305e-06 0.00055186416 -0.00024363425 -0.009710929 0.0067237387 0.001936115 0.0052892044 0.0025816548
0.0012724574 0.012507261 0.0015828531 0.015560302 -0.0024451027 0.0045324187 0.004867464 -0.0050727776
-0.0008127443 -0.010039385 0.0054292944 -0.00080826425 -0.006739105 0.0006307823 0.0079971785 0.007216548
0.000118000295 -0.010714662 -0.0031703284 -0.003078983 -0.0007536145 0.008067821 0.008000595 0.0013696485
0.0017398909 0.015288161 0.0037557662 0.011361026 -0.0024574501 -0.0005277125 -0.0036029771 0.010329292
0.0076314704 0.005799234 0.0039320225 -0.0018386294 0.0038298683 0.0013872704 -0.0076387003 -0.0017800006
-0.0026097915 -0.0006167493 -0.00040601386 0.0054948907 0.005172611 0.006344943 -0.0010188604 -0.0074035167
-0.0051292744 -0.0051700566 0.0044685123 0.011131211 -0.00023362204 -0.0049886834 0.005526469 -0.006931924
-0.0060871025 -0.0031576378 -0.0030243117 0.0105776265 0.010733509 -0.001022151 0.007240605 0.008585749
-0.002126407 -0.0023039156 0.0043719728 0.013138841 0.0032246932 0.01117043 -0.0043022423 0.00780319
-0.003547589 0.0020463169 5.822401e-05 -0.009066326 0.0045156362 0.0018589754 0.0034632508 0.007210414
0.0036503852 0.00506907 0.010676358 -0.001258929 0.004708731 -0.010843634 0.013324268 -0.000666226
-0.015792102 -0.004931893 -0.013715434 -0.0028390244 -0.00060822704 0.0045077265 0.005918851 0.0046125064
-0.0048258384 0.0111878095 0.0009591626 0.007677574 0.00065809226 0.0031476761 0.0053493963 -0.00093276124
