results/SeekerAgent/SeekerAgent/SeekerAgent-39666.pt (torch, 876479 bytes, 48 tensors)

network_body._body_endoder.seq_layers.0.weight f4 [128, 18]
-0.063267566 -0.2639042 0.073116295 -0.086056605 -0.35601267 0.017307904 0.29813683 0.12111225
-0.12857443 0.06939557 -0.029192774 -0.2541895 -0.052973825 -0.08248694 0.29517984 -0.6171327
-0.059873547 0.28110754 -0.4912703 0.5147188 0.018984765 0.13150664 -0.3659442 0.3378873
0.11635344 0.029573807 0.11852465 0.11974533 0.05063016 0.025433116 0.0885747 0.08169509
-0.112065166 0.33941594 -0.3008953 -0.25830704 0.021235432 -0.010835621 -0.23345524 0.09275544
0.32727656 -0.19813319 -0.1980402 -0.2046945 -0.017661108 -0.022911131 0.06420298 0.00020830552
-0.10162274 -0.25971383 -0.10595722 0.4791692 -0.12590641 0.05641117 0.041203253 -0.49243715
0.31136438 -0.14476609 -0.4537982 0.04159763 -0.07348543 -0.012470718 0.11738124 -0.10237139
-0.38061547 -0.02737627 0.05179753 0.4109686 -0.15437476 0.18987697 -0.15514088 -0.24243893
-0.0676496 -0.018633958 0.27196094 0.049505264 0.13805227 -0.19624424 0.27062607 -0.014454387
-0.25622612 0.42573577 -0.35229003 -0.046944503 0.181553 -0.28322124 0.071502425 -0.036607135
0.10139441 -0.19168507 0.30710912 -0.20893112 -0.045805167 0.033383943 0.27644598 -0.21778621
0.06516416 0.22322506 0.08774542 -0.1414242 -0.14321943 -0.2731848 0.0833356 -0.3813471
0.15207021 0.08862199 -0.08936064 0.033026367 -0.10867985 -0.30001166 -0.19146533 0.30961233
0.07008897 0.24052434 0.123842254 -0.49873024 -0.04512308 -0.04635624 0.2340985 -0.04614249
0.31395322 -0.07240978 0.043279056 -0.12598667 -0.2966555 -0.19468601 -0.10700836 -0.043719627
-0.027238866 0.16686766 0.0010007174 0.3256239 -0.14120293 -0.08027578 -0.2143693 0.34495947
0.17650807 -0.18648072 0.18272536 0.18725522 -0.040362168 -0.21667764 -0.1871599 -0.037213307
-0.22027467 0.24622345 -0.057301093 0.17908417 -0.23037519 0.30134073 0.057179645 0.14433275
-0.2232728 -0.36427557 -0.18610516 -0.27413252 -0.07507099 0.022708647 0.059226133 -0.12812869
0.49914417 0.22712232 -0.17410722 0.09937315 -0.20317018 0.32313395 -0.1680294 -0.01051102
0.02087558 0.08474255 -0.14096834 0.2673786 -0.24989589 0.09967154 0.1666461 0.005217512
-0.10220902 0.22239225 0.17897448 -0.23237437 0.28696522 0.19386958 0.04461219 -0.19348009
0.01631818 -0.28519508 0.6087323 0.3572295 0.043591805 0.3204846 0.14178875 0.31704682
-0.22546287 0.31565177 -0.1984763 -0.08401259 -0.36973912 0.16197963 0.11300762 -0.20206359
-0.20998819 -0.30074447 0.09861101 0.02897256 -0.086571634 0.4332123 0.03588895 -0.11302503
0.13618726 -0.31062117 0.13410237 -0.14854014 -0.09923125 0.035078797 -0.20276652 0.09835454
-0.22790818 0.20278406 -0.291351 -0.095980585 -0.3704057 0.15923415 -0.10470075 0.40996477
0.0506044 0.2795308 0.09258749 0.048459683 -0.11109321 0.04011949 0.07143568 0.0006029934
0.28868377 0.11574256 0.0019524831 -0.16647792 -0.17035264 -0.28419173 0.056701053 -0.1961132
-0.4723964 -0.23320712 -0.04952643 -0.38773763 0.0014170302 0.085846014 0.08083969 0.24382024
0.012015162 0.13437957 0.1934852 0.5489909 0.27811718 -0.12992775 0.17131196 -0.2624612
00000000: 6d92 81bd 741e 87be ffbd 953d 723e b0bd
00000010: 4b47 b6be 4ec9 8d3c 64a5 983e b309 f83d
00000020: 04a9 03be 441f 8e3d af25 efbc 2025 82be
00000030: 15fb 58bd eaee a8bd d021 973e 69fc 1dbf
00000040: f73d 75bd 54ed 8f3e c887 fbbe 9cc4 033f
00000050: f085 9b3c ada9 063e 0a5d bbbe 90ff ac3e
00000060: b64a ee3d c544 f23c 0dbd f23d 0a3d f53d
00000070: 9261 4f3d 1c59 d03c a766 b53d c14f a73d
00000080: 6c82 e5bd edc7 ad3e f30e 9abe d240 84be
00000090: eef5 ad3c e387 31bc e40e 6fbe 90f6 bd3d
000000a0: cb90 a73e 6de3 4abe 0dcb 4abe 6f9b 51be
000000b0: 07ae 90bc 20b0 bbbc da7c 833d 966c 5a39
000000c0: 951f d0bd 36f9 84be 1900 d9bd aa55 f53e
000000d0: 9ced 00be 660f 673d bec4 283d b920 fcbe
000000e0: 276b 9f3e 903d 14be 3d58 e8be 4762 2a3d
000000f0: 877f 96bd fb51 4cbc 9365 f03d 17a8 d1bd
00000100: 08e0 c2be 3344 e0bc a629 543d 7a6a d23e
00000110: 6b14 1ebe 1c6f 423e 40dd 1ebe e941 78be
00000120: e08b 8abd 3ea6 98bc 773e 8b3e 08c6 4a3d
00000130: 935d 0d3e 40f4 48be 808f 8a3e 18d2 6cbc
00000140: 1230 83be 0afa d93e 5c5f b4be e148 40bd
00000150: 08e9 393e 6002 91be dd6f 923d 5df1 15bd
00000160: dfa7 cf3d 1749 44be 683d 9d3e 0af2 55be
00000170: 339e 3bbd 9abd 083d 548a 8d3e 5903 5fbe
00000180: ca74 853d 1c95 643e dfb3 b33d 81d1 10be
00000190: 1da8 12be e1de 8bbe dbab aa3d ed3f c3be
000001a0: 4bb8 1b3e 727f b53d b602 b7bd a846 073d
000001b0: 8b93 debd 219b 99be 7d0f 44be 8285 9e3e
000001c0: ce8a 8f3d 034c 763e 02a1 fd3d 9259 ffbe
000001d0: fbd2 38bd 0ae0 3dbd 84b7 6f3e e8ff 3cbd
000001e0: 7abe a03e 944b 94bd 6145 313d a602 01be
000001f0: 3be3 97be c55b 47be 3327 dbbd 5a13 33bd
00000200: 0b24 dfbc 5bdf 2a3e 812a 833a 2db8 a63e
00000210: 8097 10be a167 a4bd a083 5bbe 879e b03e
00000220: 88be 343e cdf4 3ebe 5b1c 3b3e d5bf 3f3e
00000230: cd52 25bd bee0 5dbe d8a6 3fbe fb6c 18bd
00000240: af8f 61be 0022 7c3e 8db4 6abd d761 373e
00000250: 79e7 6bbe 5549 9a3e 3435 6a3d f7cb 133e
00000260: a0a1 64be 5482 babe 5a92 3ebe 195b 8cbe
00000270: d2be 99bd 7c07 ba3c 1a97 723d 2b34 03be
00000280: d38f ff3e c192 683e 2a49 32be 2684 cb3d
00000290: d80b 50be d071 a53e e60f 2cbe 6a36 2cbc
000002a0: 4403 ab3c 818d ad3d 015a 10be d9e5 883e
000002b0: b5e4 7fbe 9820 cc3d 46a5 2a3e aaf7 aa3b
000002c0: f652 d1bd cbba 633e 1645 373e 8cf3 6dbe
000002d0: 1bed 923e bf85 463e 46bb 363d a51f 46be
000002e0: b4ad 853c 1705 92be e1d5 1b3f c9e6 b63e
000002f0: 528d 323d 8f16 a43e 1231 113e f653 a23e
00000300: bddf 66be 1c9d a13e 5f3d 4bbe cb0e acbd
00000310: 724e bdbe fddd 253e 8a70 e73d c2e9 4ebe
00000320: 2507 57be 2efb 99be 92f4 c93d dd57 ed3c
00000330: 784c b1bd 01ce dd3e 4b00 133d ab79 e7bd
00000340: ac74 0b3e bd09 9fbe 2252 093e e81a 18be
00000350: c139 cbbd c9ae 0f3d 07a2 4fbe 1b6e c93d
00000360: c360 69be a0a6 4f3e f52b 95be 7891 c4bd
00000370: d1a5 bdbe 470e 233e 596d d6bd e7e6 d13e
00000380: 8f46 4f3d a91e 8f3e 839e bd3d a97d 463d
00000390: d684 e3bd 5654 243d df4c 923d 3412 1e3a
000003a0: 5cce 933e 6f0a ed3d 76ea ff3a 3079 2abe
000003b0: ec70 2ebe 9481 91be 5d3f 683d e6d1 48be
000003c0: f1dd f1be d9cd 6ebe 3adc 4abd 8c85 c6be
000003d0: a5bb b93a 09d0 af3d 488f a53d 03ac 793e
000003e0: 3edb 443c cc9a 093e fc20 463e ab8a 0c3f
000003f0: 6065 8e3e c80b 05be 676c 2f3e 5061 86be

network_body._body_endoder.seq_layers.0.bias f4 [128]
0.01344689 -0.000624792 0.006396906 -0.0012214399 -0.00647144 0.00066378847 -0.012917176 -0.017089933
0.00535583 0.0016100561 -0.0036777607 -0.00747799 -0.0034411778 0.006450786 0.0032006928 0.01761233
-0.0034725938 -0.0019112353 -0.0054519386 -0.010430135 -0.0061694575 -0.00038531527 0.00024606587 0.005508601
-0.0011319512 -0.0038828992 0.009003404 0.0011184658 0.005670113 -0.0025790548 -0.0052039926 0.009420081
-0.0039180075 0.012446324 0.0060630357 0.017293071 0.008088328 0.0011342501 0.009674648 0.017702704
-0.0039053336 -0.007697401 -0.011966136 -0.012210454 -0.00820477 -0.005700727 7.882858e-05 -0.0009498048
0.027018085 0.005056382 0.03362935 0.009430181 -0.009279857 0.01243405 -0.008824915 -0.0037055481
0.0058108787 -0.005362506 0.041332725 -0.00584394 -0.0032112107 0.011048642 0.021298993 0.0057158233
-0.013198977 0.022114957 -0.013809053 0.02590337 0.0039918497 0.005297528 0.004275796 0.001528484
0.0031166498 0.012363338 0.011304512 -0.004621204 -0.00064376 -0.000814502 0.003291688 -0.0002223174
-0.0062023904 -0.0010455342 0.012492262 -0.0069576083 0.00460116 -0.009905262 -0.004865559 0.008128708
-0.0042214887 0.0064812624 0.022777114 0.011929719 -0.00227753 0.002433355 -0.0056800093 -0.0071021076
0.006863451 -0.023303034 0.0061843046 -0.010296562 0.00025778616 0.008832379 0.01044423 -0.00013896906
0.0094209695 -0.003905745 0.0004345139 -0.005212 -0.0043429085 0.009422737 0.025285741 0.010774573
0.016244784 0.01732938 0.0009156368 -0.0033880372 0.017733429 -0.0141523 0.025761928 0.009967435
0.008578124 -0.020895535 -0.0046088607 -0.0024187611 0.0032353133 -0.009411943 0.0064500733 0.01608798
00000000: 5850 5c3c 15c9 23ba 239d d13b b918 a0ba
00000010: 600e d4bb 1702 2e3a 90a2 53bc 3000 8cbc
00000020: f57f af3b 8508 d33a 9606 71bb ed09 f5bb
00000030: 6285 61bb 1d61 d33b b7c2 513b bc47 903c
00000040: 7594 63bb 6a82 faba 2da6 b2bb 28e3 2abc
00000050: 2929 cabb 2404 cab9 6702 8139 7f81 b43b
00000060: fb5d 94ba 3d78 7ebb 0383 133c 7c99 923a
00000070: 5bcc b93b 5c05 29bb 4186 aabb af56 1a3c
00000080: a162 80bb abeb 4b3c 6eac c63b 33aa 8d3c
00000090: e884 043c 1eab 943a 6a82 1e3c 4305 913c
000000a0: a0f0 7fbb 7b3a fcbb 9d0d 44bc 5b0e 48bc
000000b0: 4d6d 06bc 2acd babb c650 a538 52fc 78ba
000000c0: 0855 dd3c 02b0 a53b eebe 093d 0c81 1a3c
000000d0: 8b0a 18bc 30b8 4b3c 6096 10bc c8d8 72bb
000000e0: 2f69 be3b f6b7 afbb 814c 293d 867e bfbb
000000f0: 2d73 52bb 5d05 353c 3a7b ae3c cd4b bb3b
00000100: 8640 58bc 6d2a b53c 5e3f 62bc 4e33 d43c
00000110: 10ce 823b e396 ad3b fa1b 8c3b 6a57 c83a
00000120: b540 4c3b 998f 4a3c 8f36 393c 786d 97bb
00000130: 01c2 28ba 4e84 55ba 5cb9 573b df1d 69b9
00000140: 6c3d cbbb 4e0a 89ba 58ac 4c3c a6fc e3bb
00000150: 54c5 963b ae49 22bc 446f 9fbb 462e 053c
00000160: 6a54 8abb c560 d43b 1297 ba3c de74 433c
00000170: 9d42 15bb ec78 1f3b 5f1f babb ccb8 e8bb
00000180: cde6 e03b 01e6 bebc b5a5 ca3b e9b2 28bc
00000190: 7927 8739 afb5 103c 471e 2b3c 39b8 11b9
000001a0: 695a 1a3c 87f7 7fbb 78cf e339 6dc9 aabb
000001b0: f54e 8ebb d361 1a3c 0b24 cf3c d687 303c
000001c0: c813 853c 58f6 8d3c 5807 703a d509 5ebb
000001d0: b245 913c 0cdf 67bc ae0a d33c 744e 233c
000001e0: 438b 0c3c 1d2d abbc ed05 97bb 1484 1ebb
000001f0: 8d07 543b 8d34 1abc 235b d33b f0ca 833c

network_body._body_endoder.seq_layers.2.weight f4 [128, 128]
-0.008675158 0.07617303 -0.002653297 0.0018785495 0.15538308 -0.13958591 0.056070477 -0.011527339
-0.12528099 0.03354433 -0.059495367 -0.06752522 0.12997158 -0.043797407 0.041603193 0.01476775
0.045822598 -0.005182463 -0.054804157 0.09026804 -0.041342493 -0.029469622 0.023194212 0.00184593
0.18481186 0.017194029 0.0028583596 0.10876711 -0.027971398 0.10258795 0.100899845 0.07457793
0.03472596 -0.15862042 0.10485517 0.026119528 -0.14820868 -0.075769216 -0.032698 -0.009265395
0.028269885 -0.15747161 0.1895518 0.041394133 0.030766988 -0.011142109 0.03488122 -0.123486735
-0.038831618 0.06149814 -0.057068 0.121592134 0.107487336 -0.024405995 0.1144387 0.12829529
-0.022331966 -0.07973201 0.11310311 -0.00917706 0.11526157 0.054555185 -0.016431862 0.008868262
0.19155666 -0.043926004 0.12535737 -0.18868932 0.07590043 0.13209711 0.08429319 -0.038013488
-0.09725751 -0.027706843 -0.080664545 0.042097762 -0.075275384 0.032180473 -0.04843776 -0.12449428
0.07100328 0.039402153 -0.03715222 -0.1090772 -0.059389476 -0.0811006 0.058644067 -0.055124395
0.05750315 0.08780554 -0.009857738 0.08759027 -0.108432315 0.063342765 0.13138102 -0.05447768
0.111858465 -0.05975322 -0.07089321 -0.0002705758 0.0520151 -0.024642674 0.02481728 0.038760185
0.0428383 0.08911279 -0.045163013 0.03208202 -0.107558064 -0.10149565 0.1347288 0.0020927098
0.007650841 0.07082563 0.042330567 -0.021241892 -0.19049942 -0.18352854 0.0590056 0.0304423
-0.009769081 -0.2305367 0.075219564 -0.048926122 0.08913663 0.033959135 -0.030228283 -0.050620764
0.03461243 0.055791814 0.14326651 0.11941474 -0.068371505 -0.031167531 0.055616423 0.07036632
0.0063591953 0.11397525 -0.072005734 0.017129375 0.07838716 -0.063251235 0.028228901 0.05007836
-0.13710536 -0.0834377 0.027976675 -0.093631536 0.06324953 -0.051991105 0.04944642 -0.08237692
0.11337412 0.06474338 -0.097686544 0.003509286 -0.031938817 0.02874688 -0.0009992425 -0.064662665
-0.014945746 -0.017153628 0.0798321 0.22655366 0.09635102 0.0046398942 0.02493428 -0.028302725
0.09084868 0.013789306 0.046030052 -0.0065635694 0.07656683 0.10887634 -0.012240028 -0.0343645
0.009393777 -0.20949307 -0.04436987 -0.070267394 0.03771477 0.14152539 0.050950356 0.033323716
-0.060770795 -0.1979108 0.16296874 0.12069282 -0.040146958 0.14418319 -0.075247854 -0.049431328
-0.009378604 0.20521961 0.10212338 -0.047087505 0.14592177 -0.001932965 -0.04766055 0.03062422
-0.2407923 -0.018872606 -0.0565007 0.025110558 0.15007831 -0.054428756 -0.08853747 0.018415514
0.05519362 0.02798007 -0.014418524 0.15880279 -0.04360102 0.004794389 0.047072206 -0.15917346
-0.006576143 0.0008677738 -0.02225401 -0.024740731 0.0012703629 -0.08724239 -0.105847545 0.09905217
0.12903897 -0.0065157176 -0.24258265 0.0092282 0.022064056 -0.27332762 -0.044814806 -0.071024686
0.071863644 -0.049118455 0.120422006 -0.09265197 -0.006836222 -0.15667555 0.048397984 0.028955989
0.095606 0.04802901 -0.04834908 0.10470557 0.2163423 0.12651701 -0.07467414 -0.053751297
-0.17725459 -0.023051698 0.10326151 0.03205204 0.0037205047 0.13007583 0.032470558 -0.17715153
00000000: 4022 0ebc 9b00 9c3d f0e2 2dbb a939 f63a
00000010: be1c 1f3e 9cef 0ebe 28aa 653d 2add 3cbc
00000020: a949 00be c865 093d 6ab1 73bd aa4a 8abd
00000030: 4517 053e e964 33bd 1c68 2a3d 6ff4 713c
00000040: 7ab0 3b3d a7d1 a9bb 537a 60bd 73de b83d
00000050: bf56 29bd 476a f1bc ca01 be3c 22f3 f13a
00000060: 523f 3d3e 7eda 8c3c 5153 3b3b 4ac1 de3d
00000070: 4624 e5bc a219 d23d 94a4 ce3d 50bc 983d
00000080: cf3c 0e3d 646d 22be 4fbe d63d 9ff8 d53c
00000090: 04c4 17be e42c 9bbd 57ee 05bd e2cd 17bc
000000a0: 3f96 e73c 3d40 21be de19 423e e58c 293d
000000b0: 0d0b fc3c 648d 36bc 9cdf 0e3d 9de6 fcbd
000000c0: e70d 1fbd 79e5 7b3d 23c0 69bd 4c05 f93d
000000d0: 5222 dc3d 15ef c7bc d65e ea3d d75f 033e
000000e0: 87f1 b6bc 894a a3bd 9aa2 e73d 615b 16bc
000000f0: 420e ec3d 4275 5f3d 1d9c 86bc 304c 113c
00000100: 6e27 443e c1eb 33bd af5d 003e c637 41be
00000110: af71 9b3d 7744 073e e8a1 ac3d 08b4 1bbd
00000120: f22e c7bd 76f9 e2bc 7433 a5bd b46e 2c3d
00000130: fb29 9abd accf 033d ac66 46bd dbf6 febd
00000140: 2b6a 913d 2764 213d ed2c 18bd de63 dfbd
00000150: 6142 73bd 1218 a6bd c334 703d 1eca 61bd
00000160: 6c88 6b3d 64d3 b33d 5a82 21bc 8762 b33d
00000170: c311 debd dab9 813d bf88 063e fd23 5fbd
00000180: 0d16 e53d cbbf 74bd 7630 91bd 12dc 8db9
00000190: c90d 553d 6fdf c9bc 9c4d cb3c 00c3 1e3d
000001a0: 3777 2f3d c480 b63d dafc 38bd 7068 033d
000001b0: 6747 dcbd f4dc cfbd 59f6 093e d825 093b
000001c0: e8b3 fa3b 070d 913d d162 2d3d 7a03 aebc
000001d0: 4812 43be e8ee 3bbe dbaf 713d 2162 f93c
000001e0: 7f0e 20bc d011 6cbe b70c 9a3d c266 48bd
000001f0: 448d b63d bc18 0b3d 4ea1 f7bc b857 4fbd
00000200: c3c5 0d3d f585 643d 75b4 123e b78f f43d
00000210: 5c06 8cbd 0d53 ffbc 0cce 633d 381c 903d
00000220: cc60 d03b db6b e93d be77 93bd e752 8c3c
00000230: 7389 a03d dd89 81bd 4c40 e73c f71e 4d3d
00000240: 5965 0cbe 63e1 aabd 572f e53c e4c1 bfbd
00000250: f888 813d a0f4 54bd 5488 4a3d 3bb5 a8bd
00000260: b130 e83d 2d98 843d e20f c8bd 0dfc 653b
00000270: 47d2 02bd 947e eb3c 04f9 82ba dc6d 84bd
00000280: 01df 74bc c485 8cbc 037f a33d affd 673e
00000290: af53 c53d 410a 983b fa42 cc3c 1edb e7bc
000002a0: df0e ba3d 8bec 613c 028a 3c3d 3613 d7bb
000002b0: 12cf 9c3d 8ffa de3d 668a 48bc cac1 0cbd
000002c0: 5be8 193c 5a85 56be 2ebd 35bd 5ae8 8fbd
000002d0: cd7a 1a3d 08ec 103e 52b1 503d 737e 083d
000002e0: ccea 78bd 21a9 4abe 47e1 263e cc2d f73d
000002f0: 2371 24bd c2a4 133e 8c1b 9abd 8178 4abd
00000300: b7a8 19bc 1725 523e 1026 d13d d4de 40bd
00000310: 846c 153e 8b5b fdba b537 43bd a5df fa3c
00000320: 4292 76be b99a 9abc 476d 67bd a8b4 cd3c
00000330: 21ae 193e b0f0 5ebd 2253 b5bd 22dc 963c
00000340: b512 623d 7636 e53c ac3b 6cbc 339d 223e
00000350: fc96 32bd 401a 9d3b c9ce 403d 5efe 22be
00000360: b07c d7bb 507b 633a 0b4e b6bc 13ad cabc
00000370: 4e82 a63a 23ac b2bd 99c6 d8bd dddb ca3d
00000380: cb22 043e cd81 d5bb 9667 78be e031 173c
00000390: aebf b43c 99f1 8bbe bb8f 37bd 6475 91bd
000003a0: 3f2d 933d 6f30 49bd d09f f63d 51c0 bdbd
000003b0: 6302 e0bb 8e6f 20be f73c 463d 1c35 ed3c
000003c0: 14cd c33d 11ba 443d af09 46bd e06f d63d
000003d0: d688 5d3e ad8d 013e c1ee 98bd 522a 5cbd
000003e0: 3a82 35be ead6 bcbc c57a d33d 0049 033d
000003f0: b6d3 733b 9932 053e d9ff 043d 3667 35be

network_body._body_endoder.seq_layers.2.bias f4 [128]
-0.0008315086 -0.007467976 -0.0058791265 0.0016675394 -0.011247201 -0.0008562778 -0.0014521214 0.0061077303
0.010165704 0.009798171 -0.00020895986 0.021390257 -0.0019861218 0.0059613436 -0.0031564985 -0.0063462816
-0.0033036612 0.0052965167 0.0008874761 -0.0062638377 0.006434987 0.009744189 0.010338341 0.004056678
0.003621535 -0.00301092 -0.0109303 -0.0004988458 0.007823857 -0.002254786 -0.0041820263 0.0013486699
0.01191701 0.016944284 -0.003698785 0.0019099833 -0.0026527944 -0.012523123 0.011405701 0.022975331
0.0148779405 -0.009004464 -0.0032614507 -0.006414473 0.01738108 -0.003356154 0.00038756814 -0.008821179
-0.020965429 -0.012095865 0.033211537 0.0057532857 0.0028200608 0.009209748 0.0025204853 -0.0017103226
0.010987117 0.0012728465 0.0054513016 0.006003082 -0.0004404316 0.0061738947 0.011966419 -0.014745915
-0.001605745 0.0073631746 0.013123193 -0.0036771917 0.019880105 0.0047238735 0.0038129115 -0.012605989
0.003428764 0.009721015 -0.0007200931 -0.0015972903 0.00013071971 -0.0075849723 -0.0018338482 0.027509272
-0.00039495007 0.011135139 0.0022096632 0.009352218 0.00060434605 0.012376552 -0.004317587 0.0023493054
0.009267277 0.005224459 0.008150172 0.004894733 0.0007783173 -0.009869869 -0.007855982 -0.0141364625
-0.006840579 -0.004231313 0.013321082 -0.0023643253 0.004573484 0.0084758345 -0.00881795 0.0004676724
0.0037802055 0.012851088 0.0062180995 -0.0034949512 0.0051527354 0.009038147 -0.008066536 -0.0013921773
-0.01773683 0.0015717865 -0.016719643 0.008058849 0.0074392147 0.011793323 -0.0007827885 0.0059785317
0.013516698 0.0008341145 -0.0024155264 -0.0063189794 -0.0060173688 -0.015445725 0.00036436942 -0.006513498
00000000: 99f9 59ba ecb5 f4bb b0a5 c0bb 5691 da3a
00000010: 2e46 38bc d577 60ba 1c55 beba 5b23 c83b
00000020: 0e8e 263c 8288 203c 3c1c 5bb9 9f3a af3c
00000030: 9829 02bb 6057 c33b 42dd 4ebb 78f4 cfbb
00000040: 3d82 58bb 678e ad3b 83a5 683a e140 cdbb
00000050: 95dc d23b 17a6 1f3c 2562 293c e2ed 843b
00000060: 4657 6d3b db52 45bb 0015 33bc fac4 02ba
00000070: a22f 003c 08c5 13bb 6109 89bb dac5 b03a
00000080: 903f 433c bdce 8a3c 5167 72bb 6858 fa3a
00000090: 81da 2dbb c92d 4dbc fade 3a3c c336 bc3c
000000a0: 9bc2 733c 7687 13bc 10be 55bb 8030 d2bb
000000b0: c462 8e3c ecf2 5bbb 8432 cb39 b586 10bc
000000c0: b1bf abbc bc2d 46bc d208 083d 0f86 bc3b
000000d0: c5d0 383b 7ce4 163c ba2e 253b e72c e0ba
000000e0: 4f03 343c a4d5 a63a d5a0 b23b 80b5 c43b
000000f0: bbe9 e6b9 624e ca3b cd0e 443c da98 71bc
00000100: dd77 d2ba c946 f13b a902 573c 0afd 70bb
00000110: 9adb a23c b9ca 9a3b 0ae2 793b 5a89 4ebc
00000120: 1db5 603b e444 1f3c a1c4 3cba 2b5c d1ba
00000130: ce11 0939 5c8b f8bb bc5d f0ba 205b e13c
00000140: 4d11 cfb9 2870 363c ffcf 103b 0c3a 193c
00000150: fa6c 1e3a 06c7 4a3c 8b7a 8dbb cef6 193b
00000160: c7d5 173c f031 ab3b 4d88 053c ff63 a03b
00000170: fd07 4c3a 3bb5 21bc 60b6 00bc 9f9c 67bc
00000180: f026 e0bb d3a6 8abb ab40 5a3c ccf2 1abb
00000190: 2add 953b 3ade 0a3c 2a79 10bc ed31 f539
000001a0: 53bd 773b 5f8d 523c 33c1 cb3b 8d0b 65bb
000001b0: 47d8 a83b bc14 143c 8129 04bc b879 b6ba
000001c0: d44c 91bc 6704 ce3a a2f7 88bc 4309 043c
000001d0: a8c4 f33b c838 413c 0c34 4dba 8fe7 c33b
000001e0: 2475 5d3c 7aa8 5a3a cf4d 1ebb 710f cfbb
000001f0: 592d c5bb 1110 7dbc d608 bf39 2e6f d5bb

network_body._body_endoder.seq_layers.4.weight f4 [128, 128]
-0.008623954 0.019698408 -0.12906465 -0.037645556 -0.05919431 0.037111547 -0.1641827 0.007971639
-0.073765896 -0.07622289 -0.012062939 -0.055742793 0.09487699 0.023971986 -0.03529944 -0.20730877
0.0554541 0.027492668 0.09855065 -0.062347792 -0.12079746 0.07843322 -0.12056205 0.04727826
0.078665435 0.0823602 -0.0046253833 -0.10699837 0.0884421 -0.20059092 -0.21886957 0.02443121
-0.050482295 -9.3684335e-05 -0.122344516 0.012066775 -0.030084006 -0.108449034 -0.06470947 0.02589437
-0.085070856 -0.14285204 -0.06135252 0.089873865 0.0064912215 0.07333041 -0.07237616 -0.06855048
-0.04287259 0.06973077 -0.03741704 0.023912372 0.0014171718 -0.12541282 0.08042848 -0.05717094
0.10226871 0.06818406 0.07313101 0.17431569 -0.05208086 -0.026440928 -0.073474556 0.043331273
0.049304735 0.115647376 -0.009654953 -0.20412827 0.092731975 -0.08814388 -0.03692279 -0.22345021
0.08154259 -0.10826945 -0.05501328 0.10496574 0.09005533 0.023359604 0.04311917 -0.14736195
0.066167824 -0.25231308 -0.079751454 -0.081975035 -0.047191594 -0.04271363 0.04227639 -0.028250562
0.23070395 -0.09076383 -0.017079573 0.09025616 0.009482712 -0.1786698 -0.07299582 -0.047411483
-0.12780462 -0.011543746 0.13459429 0.0050024497 -0.031241737 0.19095235 0.011026667 -0.02563574
0.092907496 -0.025121668 0.10367341 0.017121444 0.11061687 -0.014847614 -0.24891081 -0.022421658
-0.087045945 -0.03182578 -0.122169845 0.086877145 -0.06824369 0.0050078533 0.0699695 0.030760422
-0.07421491 -0.031678118 -0.0058263773 0.061737992 -0.18822086 -0.025836794 -0.09405191 -0.1118124
-0.037217416 -0.09150293 -0.04260442 0.0025733379 -0.04618597 -0.18243094 -0.15544511 -0.07117499
0.046916675 -0.0151065 -0.11427413 0.08240288 0.02595156 -0.055240765 -0.006355723 0.022255486
0.103650436 -0.051102586 -0.026612181 0.09490129 -0.018911418 0.2944207 0.06560069 -0.15040784
-0.032530718 0.061950285 -0.045430165 0.02909763 0.064836554 -0.0621551 -0.13188192 0.1352537
0.14736295 0.11502589 0.07393457 0.036280118 0.014178536 -0.1679409 0.18701476 -0.043027468
0.040242814 0.079895705 0.01613008 -0.023942875 0.04103378 -0.03734946 -0.07721087 0.09746146
0.091042064 -0.1172525 0.0010780605 0.06820535 -0.005300547 0.085021764 0.117130674 -0.029260792
-0.044976596 -0.11425406 -0.1742945 0.11035209 0.0065489146 0.057735644 0.046610177 -0.025244405
-0.0043699825 0.062188823 0.016669441 -0.06270774 0.07451575 0.015523713 -0.02799584 0.012081008
-0.084863134 0.111250885 0.13926138 -0.18814218 -0.061509702 -0.041920923 0.10809721 0.16650061
-0.21981163 0.09323778 0.10399124 -0.0060104565 0.051459827 -0.14899766 -0.299475 -0.011061683
-0.022689326 0.10677995 0.010293337 0.04517595 0.018851101 -0.06710863 -0.05512928 0.06316865
-0.06541382 -0.004266631 0.0370763 -0.1090202 -0.017489092 0.0063598086 -0.04911075 -0.046487276
-0.07590786 0.113673426 -0.09732686 -0.023324335 0.016360765 0.1523029 -0.13044484 -0.0399751
0.017355697 0.051044576 0.040285803 0.11033655 -0.10362925 0.068015024 0.19477181 -0.021185746
0.058419224 -0.2402889 -0.12384019 -0.109828815 -0.14971317 -0.012434753 -0.0014498536 0.06453085
00000000: 7c4b 0dbc 8e5e a13c 8629 04be 3a32 1abd
00000010: bc75 72bd 4702 183d 821f 28be 7a9b 023c
00000020: 9312 97bd bf1a 9cbd a2a3 45bc 8e52 64bd
00000030: de4e c23d e660 c43c 2596 10bd c048 54be
00000040: d723 633d 4e38 e13c ecd4 c93d 6660 7fbd
00000050: a964 f7bd 99a1 a03d 3ce9 f6bd d9a6 413d
00000060: 581b a13d 77ac a83d 8790 97bb f621 dbbd
00000070: 2221 b53d b567 4dbe 581f 60be f623 c83c
00000080: 86c6 4ebd 6578 c4b8 c38f fabd b9b3 453c
00000090: bc72 f6bc 871a debd 6686 84bd 6e20 d43c
000000a0: a139 aebd ce47 12be c84c 7bbd ca0f b83d
000000b0: 50b4 d43b 412e 963d f439 94bd 3264 8cbd
000000c0: 2b9b 2fbd 02cf 8e3d 9c42 19bd e1e3 c33c
000000d0: 65c0 b93a 386c 00be b0b7 a43d 132c 6abd
000000e0: 4272 d13d 16a4 8b3d b6c5 953d d07f 323e
000000f0: bd52 55bd a59a d8bc d479 96bd 227c 313d
00000100: c3f3 493d 88d8 ec3d cf2f 1ebc 0007 51be
00000110: 43ea bd3d c784 b4bd 5a3c 17bd 22d0 64be
00000120: cdff a63d 60bc ddbd 9b55 61bd 47f8 d63d
00000130: ee6e b83d a45c bf3c ba9d 303d 0de6 16be
00000140: ff82 873d 2e2f 81be bb54 a3bd 87e2 a7bd
00000150: f94b 41bd 7df4 2ebd 022a 2d3d b96d e7bc
00000160: a83d 6c3e 63e2 b9bd 76ea 8bbc 39d8 b83d
00000170: 605d 1b3c 37f5 36be d57e 95bd 8b32 42bd
00000180: 37df 02be fb21 3dbc 16d3 093e 97eb a33b
00000190: acee ffbc 0389 433e 32a9 343c 0b02 d2bc
000001a0: 4946 be3d f5cb cdbc ba52 d43d 4542 8c3c
000001b0: 198b e23d 6843 73bc 7ae2 7ebe a0ad b7bc
000001c0: 2545 b2bd c05b 02bd 2f34 fabd a5ec b13d
000001d0: 59c3 8bbd eb18 a43b 2b4c 8f3d 48fd fb3c
000001e0: fdfd 97bd eac0 01bd 32eb bebb fae0 7c3d
000001f0: f8bc 40be afa7 d3bc 4a9e c0bd e6fd e4bd
00000200: 4a71 18bd e365 bbbd f981 2ebd 72a5 283b
00000210: 802d 3dbd 2dcf 3abe 012d 1fbe 31c4 91bd
00000220: b32b 403d 4181 77bc 8e08 eabd d7c2 a83d
00000230: 5e98 d43c 2444 62bd ab43 d0bb 2351 b63c
00000240: ae46 d43d f250 51bd ca01 dabc 9c5b c23d
00000250: 1eec 9abc 4fbe 963e a859 863d 8304 1abe
00000260: ee3e 05bd 95bf 7d3d fb14 3abd 275e ee3c
00000270: 07c9 843d 5996 7ebd 0e0c 07be f27f 0a3e
00000280: 50e6 163e b292 eb3d 026b 973d 769a 143d
00000290: 174d 683c b3f8 2bbe cc80 3f3e 923d 30bd
000002a0: a6d5 243d 5ca0 a33d 3b23 843c d923 c4bc
000002b0: 0913 283d bffb 18bd bc20 9ebd e099 c73d
000002c0: 4374 ba3d 1422 f0bd b54d 8d3a 3faf 8b3d
000002d0: 36b0 adbb e41f ae3d 35e2 ef3d 54b4 efbc
000002e0: 6139 38bd 08fe e9bd 427a 32be 4700 e23d
000002f0: 4798 d63b 367c 6c3d 50ea 3e3d 5bcd cebc
00000300: 1232 8fbb b5b9 7e3d 5a8e 883c ea6c 80bd
00000310: b79b 983d 2c57 7e3c 8857 e5bc 6cef 453c
00000320: b9cc adbd 81d7 e33d 899a 0e3e 58a8 40be
00000330: 99f1 7bbd 46b5 2bbd 1262 dd3d 237f 2a3e
00000340: 4d16 61be 73f3 be3d 5cf9 d43d 5df3 c4bb
00000350: 8ac7 523d d892 18be ca54 99be 103c 35bc
00000360: f7de b9bc 72af da3d 62a5 283c 6b0a 393d
00000370: a06d 9a3c 4070 89bd 3dcf 61bd 915e 813d
00000380: aef7 85bd 18cf 8bbb 51dd 173d fc45 dfbd
00000390: 4945 8fbc f165 d03b 5b28 49bd 7169 3ebd
000003a0: 9575 9bbd 9dcd e83d 4e53 c7bd ad12 bfbc
000003b0: 0307 863c 4bf5 1b3e 5593 05be eebc 23bd
000003c0: 892d 8e3c 1e14 513d ba02 253d 21f8 e13d
000003d0: 923b d4bd 764b 8b3d 4372 473e bb8d adbc
000003e0: ff48 6f3d 4b0e 76be ed9f fdbd eeed e0bd
000003f0: 694e 19be 22bb 4bbc 0409 beba c028 843d

network_body._body_endoder.seq_layers.4.bias f4 [128]
0.008358394 0.013219781 -0.004565484 0.0066956403 -0.006830812 0.011454887 0.00031148942 -0.007346516
-0.0026566344 -0.012321571 -0.0076910807 0.015918458 -0.005934092 0.0058924146 0.015303192 -0.012922611
0.0077860113 -0.011799288 -0.011360296 0.0059929704 0.00911488 0.0030389205 0.0092940545 -0.007775727
-0.00438852 -0.011271393 -0.008433397 0.007365103 -0.008409238 -0.0048142965 -0.008947265 -0.0010332457
-0.009120441 -0.00078096177 -0.016413132 0.0040873317 0.022243334 3.3902557e-05 0.003499995 -0.012131108
-0.008958162 -0.001962713 -0.00952549 -0.0070199394 0.0046522156 0.019103527 -0.020351866 -0.0016599117
-0.010880772 0.0007483624 0.015001429 0.0036749856 0.009850849 0.016176844 -0.024020158 -0.01262073
-0.008576889 -0.00045777328 0.01314691 0.0037473468 -0.00034835408 -0.011295279 -0.010773924 0.012889085
-0.005840143 -0.009543944 -0.013193845 0.010779647 0.015683742 0.0039945035 -0.0062831924 0.0043094563
-0.0051490567 0.012201034 -0.005611912 -0.0187995 0.0018292071 0.0071064895 0.016006745 0.007637542
-0.0070356214 0.011428959 -0.009383184 0.012875326 0.0068274243 -0.011108161 0.014196707 -0.011144376
-0.0005182731 -0.0097013945 0.020191602 -0.010722096 0.01297088 0.005539587 -0.011072396 -0.010575338
-0.0009054105 0.0036748117 -0.012681114 -0.0073604984 -0.0057308706 0.006823453 0.0016865898 0.01003629
-0.0052486476 0.0010797293 0.020146364 -0.007492204 0.0021452466 0.015968164 -0.008336063 0.010701453
-0.0069561675 -0.012903726 -0.0017205381 -0.012292262 -0.010349311 0.0065413318 0.015946131 0.010885999
-0.008472347 -0.01608641 0.010756421 0.0067651835 0.009941864 -0.008347335 -0.010034768 0.011629609
00000000: a5f1 083c c897 583c 0e9a 95bb 1a67 db3b
00000010: 01d5 dfbb 47ad 3b3c 674f a339 0bbb f0bb
00000020: ee1a 2ebb 6ae0 49bc 7605 fcbb 6d67 823c
00000030: c672 c2bb 2815 c13b 3dba 7a3c 5cb9 53bc
00000040: cc21 ff3b cd51 41bc 8920 3abc ae60 c43b
00000050: 9456 153c a028 473b 1746 183c 87cb febb
00000060: 93cd 8fbb a6ab 38bc 3b2c 0abc f656 f13b
00000070: e7c6 09bc 3fc1 9dbb 8d97 12bc f96d 87ba
00000080: e76d 15bc 75b9 4cba d574 86bc 06ef 853b
00000090: a737 b63c 9832 0e38 2c60 653b 8ec1 46bc
000000a0: 41c5 12bc dca0 00bb cd10 1cbc 8507 e6bb
000000b0: 9d71 983b 007f 9c3c f5b8 a6bc 6591 d9ba
000000c0: 4445 32bc c02d 443a 8ec8 753c 07d8 703b
000000d0: 7565 213c 4d85 843c ecc5 c4bc 2ec7 4ebc
000000e0: 1486 0cbc 4a01 f0b9 2366 573c 0c96 753b
000000f0: 4ba3 b6b9 d50f 39bc 1d85 30bc be2c 533c
00000100: ac5e bfbb 345e 1cbc ff2a 58bc 1e9d 303c
00000110: 317b 803c 53e4 823b 3de3 cdbb 5736 8d3b
00000120: 6bb9 a8bb d9e6 473c 21e4 b7bb 6901 9abc
00000130: 01c2 ef3a 8edd e83b 9420 833c 5944 fa3b
00000140: 128b e6bb 8740 3b3c edbb 19bc 08f3 523c
00000150: 96b8 df3b 01ff 35bc 4e99 683c e796 36bc
00000160: b8dc 07ba 99f2 1ebc dc68 a53c bbab 2fbc
00000170: d083 543c 6c85 b53b ff68 35bc 2f44 2dbc
00000180: 1259 6dba 1cd5 703b 72c4 4fbc 5630 f1bb
00000190: 07ca bbbb 4697 df3b 9010 dd3a 406f 243c
000001a0: d9fc abbb b485 8d3a fd09 a53c 2a81 f5bb
000001b0: 4497 0c3b abcf 823c fb93 08bc 2655 2f3c
000001c0: 90f0 e3bb 266a 53bc ae83 e1ba 7c65 49bc
000001d0: 2890 29bc ab58 d63b 76a1 823c 305b 323c
000001e0: 99cf 0abc a6c7 83bc b33b 303c 79ae dd3b
000001f0: 33e3 223c 43c3 08bc de68 24bc 1e8a 3e3c

action_model._continuous_distribution.log_sigma f4 [1, 2]
0.017717136 -0.0017507124
00000000: 8723 913c 2978 e5ba

action_model._continuous_distribution.mu.weight f4 [2, 128]
-0.047516804 0.00465168 0.02107714 -0.010080856 0.0108483825 -0.004999195 0.0022980308 -0.024931315
0.022846058 -0.013528849 0.033015102 -0.00588495 0.026577568 -0.01892473 0.0074039344 0.005315765
-0.031499885 0.0070005157 0.014110829 -0.023123497 0.022875434 0.014641317 0.03907856 0.008575734
0.018937742 0.011686252 0.00846017 -0.040980775 -0.020673173 -0.02225462 0.013224251 -0.01116573
0.01426388 -0.024447052 -0.0114413155 -0.03613826 0.005316945 0.010472508 -0.01784793 -0.014029173
0.00176606 -0.015825693 -0.00011667215 0.043511085 0.02838897 0.012963427 -0.008561763 0.056724235
0.024525095 -0.01757406 0.0130592175 -0.03347804 -0.020757332 -0.0032976288 -0.007985593 0.008207044
-0.029619856 -0.029508233 -0.0152445845 -0.015498882 0.031634264 0.01349992 0.005059164 -0.011737754
0.030152606 0.0052147466 0.009045048 -0.008484065 -0.024841666 -0.01375532 0.018022494 -0.038504194
0.028931247 -0.004739891 0.014126502 0.00020561676 -0.023034964 -0.0145337945 -0.010574513 -0.032544266
0.008392201 0.008833611 0.01906552 -0.004366098 -0.01679424 0.002143914 0.0005030379 0.007851804
-0.02556665 0.01088534 0.0050261533 -0.0029206523 -0.010896079 0.01823052 0.022184711 -0.007370072
0.017352229 0.041195445 0.0008300016 0.0044334405 0.03531856 0.022171766 -0.02126404 0.0065180566
0.036309585 0.019195346 0.007404514 0.011719195 -0.045989223 -0.020951767 0.02895914 0.003712018
0.017824667 0.0070153465 0.025836932 -0.008052605 -0.0014028315 0.011194448 0.0051936917 -0.015125775
0.0031045724 -0.010439184 0.018833464 -0.031087708 0.023145543 -0.0104927365 -0.027154066 -0.01763727
0.03041523 0.051430743 -0.0066277795 0.014563862 -0.0067873113 0.04972403 -0.016065178 -0.026310394
-0.0011948721 -0.04910466 -0.00985546 0.042366713 -0.01443424 -0.024598122 0.018124532 -0.034333777
0.019586375 -0.028634608 -0.024689307 0.009272713 0.020466132 0.016385932 0.037763704 -0.019886952
-0.030633258 -0.05153682 -0.04268098 0.019925779 -0.021177918 -0.0132271275 -0.031596452 0.0032259056
-0.05927831 -0.009739993 -0.034372814 0.0050937976 0.0060291067 0.0076928632 0.005882513 -0.02425378
-0.025225352 -0.010923251 -0.05196396 -0.05219325 0.018610017 0.033580948 -0.026965678 0.000932761
-0.05322724 -0.0047758645 0.03736824 -0.0023943735 0.026926769 0.03176024 -0.0034918524 -0.033490002
-0.015300708 -0.015296169 0.020455858 0.010127025 -0.0036883883 -0.03564145 -0.03875423 0.015092962
-0.014319389 -0.048640292 -0.038012523 0.034652933 0.034343768 0.01750733 -0.014411952 0.0036333434
-0.02460569 0.036936313 -0.030779148 -0.019049989 -0.006273339 0.012529486 0.039226912 0.025103966
-0.018816072 0.010370406 -0.027727444 0.036027066 0.016894193 -0.02540044 0.011082785 -0.028093847
-0.02511563 -0.044407655 0.030248724 -0.053608563 0.040535547 0.026448036 -0.06526605 -0.011310754
0.003365216 0.021146081 -0.017080398 -0.029843293 -0.0342847 0.035824057 -0.0016786283 0.038715135
-0.008675633 -0.0067421976 0.040554147 -0.0103587955 -0.008764802 0.03648185 -0.03563662 0.03784925
-0.027526645 -0.04351924 0.0042821923 -0.0425731 -0.042201 0.009932853 0.020906465 0.024571143
-0.004212294 -0.0375335 0.04546978 0.008744968 0.012680832 -0.024828408 -0.05940345 0.034981724
00000000: fba0 42bd 1f6d 983b f7a9 ac3c 2d2a 25bc
00000010: 6abd 313c 4ad0 a3bb 8f9a 163b c23c ccbc
00000020: a827 bb3c 1ba8 5dbc d83a 073d 8ad6 c0bb
00000030: 33b9 d93c 0908 9bbc b49c f23b de2f ae3b
00000040: 0606 01bd 9564 e53b 1b31 673c 7d6d bdbc
00000050: 4365 bb3c 22e2 6f3c d710 203d 3c81 0c3c
00000060: 5323 9b3c b277 3f3c 869c 0a3c 75db 27bd
00000070: c95a a9bc 524f b6bc 87aa 583c 77f0 36bc
00000080: 0db3 693c 2f45 c8bc 5b74 3bbc b605 14bd
00000090: c439 ae3b e294 2b3c d235 92bc 9eda 65bc
000000a0: 247b e73a e2a4 81bc e2ad f4b8 ae38 323d
000000b0: fc8f e83c 8e64 543c a346 0cbc ac57 683d
000000c0: dae8 c83c 7af7 8fbc 54f6 553c 4520 09bd
000000d0: 480b aabc 081d 58bb 01d6 02bc d676 063c
000000e0: 57a5 f2bc 40bb f1bc 6cc4 79bc 06ef 7dbc
000000f0: ee92 013d c52e 5d3c 58c7 a53b b54f 40bc
00000100: 9902 f73c 77e0 aa3b ae31 143c bf00 0bbc
00000110: c080 cbbc fe5d 61bc e9a3 933c 93b6 1dbd
00000120: 3901 ed3c 1651 9bbb d872 673c d49a 5739
00000130: d2b3 bcbc 271f 6ebc b940 2dbc 234d 05bd
00000140: 717f 093c daba 103c 4b2f 9c3c 7c11 8fbb
00000150: 1394 89bc e980 0c3b 4dde 033a daa4 003c
00000160: 2771 d1bc 6d58 323c 6eb2 a43b 6a68 3fbb
00000170: 7885 32bc 2c58 953c b6bc b53c a580 f1bb
00000180: 4326 8e3c 8ebc 283d 7794 593a 6546 913b
00000190: 32aa 103d 90a1 b53c ed31 aebc 6c95 d53b
000001a0: 5cb9 143d 8f3f 9d3c 91a1 f23b de01 403c
000001b0: 325f 3cbd 0aa3 abbc b83b ed3c 5445 733b
000001c0: 0905 923c fee0 e53b f9a7 d33c 13ef 03bc
000001d0: 37df b7ba eb68 373c d82f aa3b 19d2 77bc
000001e0: 1576 4b3b 1c09 2bbc a348 9a3c a6ab febc
000001f0: b99b bd3c bae9 2bbc 3472 debc 097c 90bc
00000200: 5c29 f93c 0ba9 523d d82d d9bb 449d 6e3c
00000210: 1868 debb 6dab 4b3d 1f9b 83bc e588 d7bc
00000220: 419d 9cba f821 49bd cc78 21bc b888 2d3d
00000230: 977d 6cbc 0082 c9bc e679 943c 93a1 0cbd
00000240: 9b73 a03c 2093 eabc 3b41 cabc 94ec 173c
00000250: 97a8 a73c ca3b 863c 1dae 1a3d f6e9 a2bc
00000260: 99f2 fabc 4618 53bd 40d2 2ebd 633b a33c
00000270: 507d adbc 98b6 58bc 486b 01bd b769 533b
00000280: d0cd 72bd 7e94 1fbc 82ca 0cbd dfe9 a63b
00000290: d08f c53b 6a14 fc3b 18c2 c03b ddaf c6bc
000002a0: 66a5 cebc 6ff7 32bc 29d8 54bd 97c8 55bd
000002b0: 0974 983c 2d8c 093d 20e7 dcbc 8884 743a
000002c0: ce04 5abd db7e 9cbb 710f 193d ecea 1cbb
000002d0: 8795 dc3c 0717 023d 90d7 64bb d02c 09bd
000002e0: d2af 7abc c89c 7abc 0b93 a73c d2eb 253c
000002f0: e3b8 71bb c5fc 11bd c1bc 1ebd 7948 773c
00000300: df9b 6abc 0b3b 47bd 05b3 1bbd 3cf0 0d3d
00000310: 0dac 0c3d 886b 8f3c 1c20 6cbc 631d 6e3b
00000320: df91 c9bc 884a 173d 8d24 fcbc b90e 9cbc
00000330: 9590 cdbb 7948 4d3c 66ac 203d d5a6 cd3c
00000340: 2a24 9abc a3e8 293c aa24 e3bc 1e91 133d
00000350: b165 8a3c 9514 d0bc 9294 353c 1125 e6bc
00000360: 4bbf cdbc cde4 35bd 2ccc f73c a794 5bbd
00000370: 9a08 263d 8da9 d83c 35aa 85bd be50 39bc
00000380: f58a 5c3b 8c3a ad3c 31ec 8bbc ec79 f4bc
00000390: 1d6e 0cbd 3fbc 123d 6b05 dcba c393 1e3d
000003a0: 3e24 0ebc a7ed dcbb 1b1c 263d f0b7 29bc
000003b0: 3e9a 0fbc fe6d 153d b4f7 11bd d107 1b3d
000003c0: 8f7f e1bc 3b41 32bd a251 8c3b 2261 2ebd
000003d0: f5da 2cbd 68bd 223c 0944 ab3c 6c49 c93c
000003e0: 4807 8abb babc 19bd 853e 3a3d 0e47 0f3c
000003f0: 44c3 4f3c f264 cbbc 0851 73bd ff48 0f3d

action_model._continuous_distribution.mu.bias f4 [2]
-0.0042605638 0.013989639
00000000: 339c 8bbb cc34 653c

exp_avg f4 [128, 18]
-1.4367382e-31 -1.7372007e-05 -1.1474703e-31 -1.2862633e-05 -1.456921e-31 1.2140073e-05 -2.2780037e-31 -1.0674093e-05
-7.713238e-32 1.2610553e-05 -8.7218595e-32 -3.0688389e-06 -5.161553e-32 4.0956915e-05 -1.8003787e-31 -1.5279174e-05
1.9986188e-36 8.223545e-06 -1.7973413e-31 0.00012994709 -1.5470023e-31 0.00015671633 -1.819286e-31 -2.1714786e-07
-2.5058077e-31 0.00015175302 2.0657643e-32 -3.7162397e-05 -9.2689146e-32 0.00013086473 5.2469395e-32 -5.5738918e-05
-3.1733707e-31 0.00032772144 9.933945e-37 0.00015477877 -2.3377395e-31 -5.612428e-05 -2.6619295e-31 -7.711863e-05
-2.0338737e-31 1.1263696e-05 -3.2485677e-31 -7.6753626e-05 1.4874362e-31 1.4414755e-05 -3.538551e-31 -7.203825e-05
3.5100458e-32 4.0408668e-05 -3.7613454e-31 -0.000114394796 -2.1854054e-36 -2.4770803e-05 -2.4354095e-32 -1.6557937e-05
-4.056012e-33 -2.0732376e-05 -3.387975e-32 1.7144162e-06 3.3839773e-32 -1.8282139e-05 -5.7887695e-32 -3.451383e-07
6.211906e-32 -1.6618184e-05 -4.860623e-32 6.6993302e-06 7.3178455e-32 -3.4124292e-05 1.6580174e-36 -1.3108627e-05
2.4570912e-31 2.1176555e-05 2.52057e-31 2.787298e-05 2.308733e-31 -9.957618e-06 3.3239172e-31 2.3421846e-05
-4.3076405e-32 -1.0280549e-05 1.9999123e-31 1.5738688e-05 -2.9777705e-32 -2.6041072e-05 3.7726443e-31 3.596904e-05
-1.1201567e-36 6.272903e-07 3.0370258e-31 -2.721331e-05 3.2394384e-31 -3.7945003e-05 2.6687443e-31 -1.26965615e-05
4.400703e-31 -4.663494e-05 -2.7892654e-31 -1.1460215e-05 5.034744e-31 -5.273608e-05 -1.3389254e-31 -1.6884711e-05
6.2847307e-31 -8.513525e-05 -1.8477928e-36 -5.0040817e-05 1.0680569e-31 3.1577703e-05 1.4419681e-31 4.3319356e-05
8.932073e-32 -1.6465593e-06 1.8764686e-31 5.0221097e-05 -2.2194387e-31 -1.5361895e-05 2.402967e-31 4.9611393e-05
-1.0423033e-31 -1.782336e-05 3.2655757e-31 9.7992466e-05 -1.5948235e-36 4.4987355e-05 -1.0561129e-31 3.7108584e-05
-1.1411414e-31 3.784239e-05 -9.8548033e-32 5.4828342e-06 -1.4140806e-31 4.68336e-05 6.160568e-32 -2.0666193e-05
-1.1618993e-31 3.89237e-05 4.1907057e-33 -2.6996475e-05 -1.8248405e-31 9.182156e-05 7.047661e-38 5.402272e-05
2.3441701e-31 4.2866446e-05 2.5536865e-31 3.7830225e-05 2.114089e-31 -2.2024711e-05 3.2106983e-31 5.927491e-06
-1.0743618e-31 -5.4638176e-06 3.6362035e-31 -9.096181e-06 -5.629485e-32 -5.6607005e-05 3.8914411e-31 -9.215011e-06
4.0902572e-36 -3.9336162e-05 -1.9332124e-31 6.284961e-05 -1.6479487e-31 9.367236e-05 -1.9696536e-31 -5.979105e-06
-2.7095704e-31 9.2242735e-05 -2.8912894e-32 -1.8989465e-05 -6.158416e-32 8.3732346e-05 8.170049e-33 -2.2492195e-05
-2.8344834e-31 0.0001900765 3.674559e-37 7.6997916e-05 -5.298763e-31 -4.6765523e-05 -6.9385153e-31 -6.157313e-05
-3.8812889e-31 1.6930517e-05 -8.176096e-31 -6.954488e-05 9.961101e-31 4.590885e-05 -1.3016406e-30 -5.1475454e-05
3.2795907e-31 6.360616e-05 -1.360667e-30 -0.00014873319 3.568943e-36 -5.418928e-05 9.6369037e-32 -8.0550335e-06
1.292463e-31 -1.1345328e-05 7.2284574e-32 -9.91413e-06 2.326266e-31 -1.408036e-05 -2.46562e-31 -6.553403e-06
3.4015842e-31 -1.6037002e-05 -1.104644e-31 -1.4278882e-05 3.7905865e-31 -2.7442306e-05 1.0242039e-36 -2.1081414e-05
2.8487873e-32 6.0083876e-05 5.407744e-32 7.31667e-05 9.647577e-33 -2.8374863e-05 7.522629e-32 4.9147176e-05
-1.0258217e-31 -2.8045699e-05 1.2374733e-31 2.552596e-05 -4.4352166e-32 -7.96823e-05 1.2686029e-31 7.556555e-05
5.763206e-37 -7.2653443e-06 -2.889707e-32 -7.139714e-05 -3.8746322e-32 -9.579332e-05 -2.5467244e-32 1.0120806e-05
-4.716351e-32 -0.000117102856 -1.0734913e-32 4.903836e-05 -4.0240398e-32 -0.000111242356 -2.7458857e-33 8.3722385e-05
-2.4891293e-32 -0.00020440666 -5.274603e-37 -7.5456126e-05 1.692876e-31 -2.4334606e-05 1.6330596e-31 -3.262978e-05
00000000: d17f 3a8c 1aba 91b7 3ef3 148c 97cc 57b7
00000010: 811e 3d8c 37ad 4b37 d4d9 938c e114 33b7
00000020: 423f c88b ea91 5337 b36e e28b 40f2 4db6
00000030: 6700 868b 27c9 2b38 d8b3 698c c72b 80b7
00000040: 1006 2a04 dbf7 0937 e94e 698c 6842 0839
00000050: f8cf 488c 3854 2439 2628 6c8c 2629 69b4
00000060: dfa2 a28c e41f 1f39 6f85 d60a d2de 1bb8
00000070: 81a2 f08b bc38 0939 e537 880b 35c9 69b8
00000080: aaf6 cd8c 07d2 ab39 6f04 a903 1c4c 2239
00000090: 5cba 978c fd66 6bb8 e4c4 ac8c c0ba a1b8
000000a0: 8601 848c 35f9 3c37 17d8 d28c caf6 a0b8
000000b0: 8c14 410c e7d6 7137 43aa e58c 3e13 97b8
000000c0: 8340 360b 7a7c 2938 1220 f48c 3de7 efb8
000000d0: eae9 3984 e5ca cfb7 4ae8 fc8a e6e5 8ab7
000000e0: eb7a a889 70ea adb7 eae9 2f8b e41a e635
000000f0: c6b4 2f0b 985c 99b7 f948 968b 724b b9b4
00000100: 3245 a10b 4767 8bb7 c360 7c8b cfca e036
00000110: 6dfb bd0b ae20 0fb8 6c0c 0d04 20ed 5bb7
00000120: 6e79 9f0c 4ea4 b137 2798 a30c c5d0 e937
00000130: 68d8 950c a50f 27b7 0cbc d70c 087a c437
00000140: 5daa 5f8b 9f7a 2cb7 3ecd 810c 9306 8437
00000150: 5c9d 1a8b c772 dab7 cedb f40c 76dd 1638
00000160: b595 be83 1063 2835 3f1d c50c 2348 e4b7
00000170: 6740 d20c 2327 1fb8 1f36 ad0c 5103 55b7
00000180: 9ccf 0e0d e399 43b8 9f08 b58c 4045 40b7
00000190: 0463 230d ef30 5db8 6ecd 2d8c a4a3 8db7
000001a0: 80f3 4b0d a48a b2b8 5d31 1d84 ebe2 51b8
000001b0: 47a4 0a0c 4d72 0438 9c2d 3b0c ceb1 3538
000001c0: cfe3 e70b 59ff dcb5 5d94 730c 7ea4 5238
000001d0: c00c 908c 6bdd 80b7 23f6 9b0c d415 5038
000001e0: 784c 078c 6083 95b7 aff2 d30c 4e81 cd38
000001f0: 2eac 0784 ceb0 3c38 5f17 098c 0aa5 1b38
00000200: ed20 148c f5b8 1e38 67d8 ff8b 30f9 b736
00000210: e38e 378c 326f 4438 ffef 9f0b 505c adb7
00000220: bad2 168c 0142 2338 3a13 ae09 7d76 e2b7
00000230: bae0 6c8c 5390 c038 07db bf01 7496 6238
00000240: 3525 980c 7fcb 3338 65be a50c e5ab 1e38
00000250: 5436 890c b5c1 b8b7 e062 d00c c3e4 c636
00000260: cb75 0b8c d655 b7b6 cb00 ec0c cd9b 18b7
00000270: 5826 928b 4f6d 6db8 a891 fc0c 2c9a 1ab7
00000280: f5fa ad04 e2fc 24b8 00f2 7a8c 21ce 8338
00000290: 7dea 558c f771 c438 f8ac 7f8c 1fa0 c8b6
000002a0: 76dc af8c 7172 c138 d41f 168b 914b 9fb7
000002b0: b2e1 9f8b 7699 af38 6eaf 290a 9fad bcb7
000002c0: eff7 b78c 464f 4739 d913 fa02 f179 a138
000002d0: 67f4 2b8d 1926 44b8 ee2a 618d d320 81b8
000002e0: f9e8 fb8c 0206 8e37 2daa 848d a0d8 91b8
000002f0: cba0 a10d 418e 4038 0934 d38d 59e7 57b8
00000300: 8cdb d40c 4c64 8538 e5c7 dc8d 43f5 1bb9
00000310: 59ce 9704 4c49 63b8 3630 fa0b 1b24 07b7
00000320: 73c5 270c d057 3eb7 57a9 bb0b dd54 26b7
00000330: b9fb 960c b03a 6cb7 2407 a08c 4ee5 dbb6
00000340: 83c6 dc0c 3387 86b7 1864 0f8c 558f 6fb7
00000350: ec05 f60c e733 e6b7 5f42 ae03 fed7 b0b7
00000360: e1ea 130b 9202 7c38 a064 8c0b 1371 9938
00000370: 515f 480a 8e06 eeb7 724c c30b 6123 4e38
00000380: c628 058c ae43 ebb7 1ba2 200c 9520 d637
00000390: 244a 668b 1c1b a7b8 90ac 240c f278 9e38
000003a0: 9b1c 4403 d5c8 f3b6 cb0a 168b 0cbb 95b8
000003b0: b22e 498b a6e4 c8b8 c63b 048b 88cc 2937
000003c0: 0fe3 748b 1e95 f5b8 96f4 5e8a 8aae 4d38
000003d0: aaf0 508b c94a e9b8 881e 6489 1d94 af38
000003e0: 343e 018b ff55 56b9 467c 3383 333e 9eb8
000003f0: 74bf 5b0c 2b22 ccb7 b7fb 530c f6db 08b8

exp_avg_sq f4 [128, 18]
1.5218786e-09 9.04539e-09 1.880588e-09 9.699322e-09 8.436735e-10 9.7414095e-09 2.3439968e-09 9.648664e-09
3.5765518e-10 9.797902e-09 2.1811537e-09 8.491692e-09 3.2924574e-10 1.0668122e-08 2.9356813e-09 8.18525e-09
4.4654302e-10 1.3466255e-08 9.538174e-09 1.05183304e-07 1.06317675e-08 9.7629155e-08 6.8797505e-09 9.75281e-08
1.16561445e-08 7.859644e-08 2.0332402e-09 7.923402e-08 1.1030959e-08 8.085797e-08 2.14335e-09 7.964179e-08
1.8806745e-08 9.311139e-08 1.3183681e-09 7.754615e-08 4.0602117e-09 1.591283e-08 4.8127173e-09 1.7983732e-08
3.5468042e-09 1.3507929e-08 5.8280527e-09 1.5182174e-08 2.9451988e-10 1.0501663e-08 5.7076632e-09 1.8614516e-08
3.9643794e-10 1.0073052e-08 1.4558656e-08 2.5837547e-08 9.675993e-10 1.1692541e-08 5.5625277e-10 3.378653e-09
8.7915086e-10 4.3438173e-09 2.8285216e-10 3.6225833e-09 9.314463e-10 4.0952273e-09 2.4600322e-10 2.8730165e-09
8.315479e-10 4.5629647e-09 3.820411e-10 3.119013e-09 3.033629e-09 6.1318532e-09 5.0349747e-10 3.0244067e-09
5.73236e-09 1.4849809e-08 6.6565544e-09 1.5858872e-08 4.5109885e-09 1.3472832e-08 7.0402812e-09 1.4190837e-08
1.450819e-09 1.1636353e-08 6.322452e-09 1.4847703e-08 1.453658e-09 9.607141e-09 1.0711466e-08 1.7568183e-08
9.883492e-10 8.508028e-09 1.496649e-08 2.1014277e-08 1.6204579e-08 2.3822944e-08 1.2241471e-08 1.7233623e-08
1.773662e-08 2.3114621e-08 1.7706191e-09 1.030736e-08 1.6399106e-08 2.372285e-08 1.7819921e-09 9.222533e-09
2.3833952e-08 2.89146e-08 1.1230218e-09 8.1055855e-09 3.0296894e-09 1.26335085e-08 3.6974805e-09 1.3760708e-08
2.9860492e-09 1.35203875e-08 4.1886885e-09 1.0604445e-08 1.4207158e-09 1.0703629e-08 3.8805186e-09 1.1709318e-08
1.4888494e-09 1.0231195e-08 4.883973e-09 1.2423305e-08 3.2601266e-10 9.165549e-09 8.6715846e-10 4.7711435e-09
9.747134e-10 4.0804764e-09 8.098106e-10 5.260444e-09 1.0124629e-09 3.1979919e-09 3.2271838e-10 4.98886e-09
9.240243e-10 3.4341745e-09 3.392549e-10 5.6601888e-09 8.610848e-10 3.5434138e-09 8.61653e-11 6.1941092e-09
2.8295186e-09 3.980989e-08 3.638715e-09 4.397926e-08 2.1581612e-09 3.8796536e-08 4.4345647e-09 3.6305305e-08
5.183146e-10 2.9268016e-08 4.187042e-09 3.53769e-08 9.86556e-10 3.018478e-08 8.882692e-09 3.7855425e-08
2.383338e-09 3.4913285e-08 8.433475e-09 4.627024e-08 9.899283e-09 5.056966e-08 6.6928862e-09 4.1397264e-08
1.1244787e-08 4.3091866e-08 2.5341444e-09 3.3576505e-08 1.0623156e-08 4.7006303e-08 3.003428e-09 3.270464e-08
2.7211787e-08 5.971004e-08 4.363898e-09 3.2107963e-08 6.953549e-08 1.3230226e-07 7.945669e-08 1.4540069e-07
5.396e-08 1.1830123e-07 8.830006e-08 1.501149e-07 9.408617e-09 8.799778e-08 8.2434795e-08 1.5017609e-07
9.051892e-09 8.44836e-08 9.33454e-08 1.5147613e-07 2.5896667e-09 6.909157e-08 2.9843013e-09 1.5187315e-08
3.4339032e-09 1.7191349e-08 3.1251586e-09 1.6696946e-08 4.800547e-09 1.984603e-08 1.2773126e-09 1.282493e-08
4.5438324e-09 1.764805e-08 1.4208363e-09 1.2783372e-08 7.524658e-09 2.0560973e-08 1.6423576e-09 1.57408e-08
1.7973556e-10 2.7387816e-08 2.6769248e-10 2.7060661e-08 1.9489133e-10 2.7532446e-08 3.4546294e-10 2.5028884e-08
1.3216045e-10 2.5970673e-08 3.4516623e-10 2.5790417e-08 1.4181566e-10 2.7005921e-08 7.455278e-10 2.4847933e-08
3.3868122e-10 2.9166339e-08 2.8208172e-11 1.5731976e-08 4.0746524e-11 1.3820102e-08 1.3159229e-10 1.6333793e-08
6.092689e-11 1.2271819e-08 1.1629512e-10 1.8521245e-08 1.15483255e-10 1.5666126e-08 1.8939475e-10 2.6543866e-08
1.0415934e-09 1.752897e-08 4.1865e-10 3.3087822e-08 2.3904085e-09 5.2134994e-09 2.6668727e-09 5.616673e-09
00000000: 582a d130 0c66 1b32 a73b 0131 12a2 2632
00000010: 3fe8 6730 2c5b 2732 0714 2131 46c3 2532
00000020: 7e9f c42f a153 2832 43e3 1531 dbe2 1132
00000030: 3801 b52f e646 3732 0dbd 4931 1c9f 0c32
00000040: 587d f52f 3759 6732 55dd 2332 22e1 e133
00000050: 02a7 3632 32a8 d133 ed62 ec31 a470 d133
00000060: 4440 4832 dac8 a833 24b9 0b31 5d27 aa33
00000070: ac82 3d32 24a4 ad33 364a 1331 8907 ab33
00000080: 788c a132 87f4 c733 f431 b530 7287 a633
00000090: 0082 8b31 afb0 8832 1c5d a531 a57a 9a32
000000a0: 0abc 7331 8010 6832 1840 c831 f469 8232
000000b0: fde9 a12f cd6a 3432 231d c431 c1e5 9f32
000000c0: aef1 d92f c00d 2d32 a51d 7a32 5ef1 dd32
000000d0: 60fc 8430 57e0 4832 cfe6 1830 e42d 6831
000000e0: bea8 7130 9f40 9531 e77f 9b2f 29f1 7831
000000f0: 5a04 8030 00b6 8c31 e03d 872f a46e 4531
00000100: fb92 6430 43c8 9c31 8107 d22f 4256 5631
00000110: 2a78 5031 5ab0 d231 7c66 0a30 edd5 4f31
00000120: 5ff6 c431 271e 7f32 acb7 e431 073a 8832
00000130: 13ff 9a31 2476 6732 f8e6 f131 f6cb 7332
00000140: 2866 c730 39e9 4732 e03c d931 e314 7f32
00000150: 0bca c730 a70c 2532 8705 3832 d8e8 9632
00000160: 72d6 8730 b42a 1232 a98f 8032 e282 b432
00000170: 3f32 8b32 35a3 cc32 8f4e 5232 2309 9432
00000180: 3d5b 9832 978d c632 1f5a f330 4014 3132
00000190: 04de 8c32 19c7 cb32 46ea f430 2171 1e32
000001a0: 6abb cc32 e15f f832 d158 9a30 be40 0b32
000001b0: dc32 5031 c20a 5932 c416 7e31 3c68 6c32
000001c0: 2233 4d31 4b47 6832 18ec 8f31 d82e 3632
000001d0: fe42 c330 0fe3 3732 6755 8531 202a 4932
000001e0: 3ba0 cc30 45c5 2f32 e1cf a731 466e 5532
000001f0: 343a b32f 8376 1d32 da5c 6e30 6cef a331
00000200: aef6 8530 4034 8c31 5b99 5e30 5bbf b431
00000210: df26 8b30 abc3 5b31 936a b12f 7a6a ab31
00000220: 6efe 7d30 a3fe 6b31 e281 ba2f 8c7b c231
00000230: 75b1 6c30 6580 7331 c07a bd2e f6d3 d431
00000240: 6b71 4231 70fb 2a33 f40c 7a31 b5e3 3c33
00000250: c64e 1431 3ea1 2633 d85e 9831 1bee 1b33
00000260: 2679 0e30 0c69 fb32 9cdd 8f31 50f1 1733
00000270: 5a97 8730 84a4 0133 7e9a 1832 7b96 2233
00000280: 20c8 2331 90f3 1533 d1e2 1032 abba 4633
00000290: 8211 2a32 ee31 5933 40f7 e531 c6cc 3133
000002a0: 192f 4132 0214 3933 2425 2e31 c235 1033
000002b0: 2281 3632 fae3 4933 dd64 4e31 2277 0c33
000002c0: 5abf e932 f139 8033 41f1 9531 14e7 0933
000002d0: 8a53 9533 f80e 0e34 c7a1 aa33 701f 1c34
000002e0: a6c1 6733 ca0c fe33 799f bd33 452f 2134
000002f0: 89a3 2132 4bf9 bc33 0207 b133 1740 2134
00000300: a482 1b32 5a6d b533 2d75 c833 71a5 2234
00000310: e6f5 3131 7e5f 9433 6214 4d31 4275 8232
00000320: ddf9 6b31 2dac 9332 5fc2 5631 f96c 8f32
00000330: 0ff2 a431 e279 aa32 718d af30 a354 5c32
00000340: f91f 9c31 7998 9732 3c47 c330 dd9d 5b32
00000350: cc45 0132 0f9e b032 52b9 e130 6336 8732
00000360: 109f 452f 7242 eb32 5e2a 932f 0673 e832
00000370: 0849 562f 7d80 ec32 96eb bd2f 19ff d632
00000380: dc4f 112f 1d16 df32 d4c1 bd2f ba89 dd32
00000390: 8fed 1b2f a6fa e732 dbed 4c30 2f71 d532
000003a0: 2531 ba2f 7589 fa32 281f f82d fb22 8732
000003b0: 8234 332e 746d 6d32 f0af 102f 644e 8c32
000003c0: cafa 852e 08d4 5232 55bc ff2e a618 9f32
000003d0: 4bf3 fd2e 2d92 8632 e23d 502f 9402 e432
000003e0: cf27 8f30 9d92 9632 c027 e62f 721c 0e33
000003f0: 8344 2431 6d22 b331 1f44 3731 c7fc c031
