results/SeekerAgent/SeekerAgent/SeekerAgent-316222.onnx (onnx, 344226 bytes, 12 tensors)

101 f4 [1, 256, 128]
000000 aa 06 5d be 75 ef 23 3c 04 63 3c 3e fa 3c 8a bd
       -0.21584573 0.0100058215 0.18397146 -0.067499116
000010 13 2e 2f be 0b 71 14 be ff ec 4d be 1d 69 9f 3d
       -0.1710742 -0.14496247 -0.20109938 0.07783721
000020 e9 f8 e8 bd 73 da 11 3c eb 7a d1 bd 39 94 4b 3e
       -0.11375601 0.00890218 -0.10228523 0.19880761
000030 e4 7f dc 3d 47 24 bf 3d 54 e9 30 3e f1 c9 1b bd
       0.10766581 0.09333091 0.17276508 -0.038034383
000040 dc b0 fd 3d a3 bb ec 3d 1f 98 97 bd 74 90 3a 3e
       0.12387249 0.11559226 -0.07402062 0.18219167
000050 ef c5 2c bc b2 6c a1 bd 80 45 7a b9 a4 e8 8f 3d
       -0.010545238 -0.0788206 -0.00023867749 0.070267946
000060 86 d0 89 bd 46 fb 6c 3e 95 5a 09 3e 88 83 d5 bd
       -0.06729226 0.23142728 0.1341346 -0.10425478
000070 86 fc 11 bd b7 48 12 bd b8 f8 21 3d 9e c9 1e be
       -0.035641216 -0.035713878 0.039543837 -0.15506598
000080 ea b1 d0 bd 8e 1b 2a 3d f9 e0 15 3e 9e 33 53 3e
       -0.101901844 0.041530184 0.14636602 0.20625159
000090 ef 2d 42 3c 54 b3 29 3e 8f 36 8c bd bf 26 a2 3d
       0.011851772 0.16572315 -0.06846344 0.079175465
0000a0 d1 d8 46 3e a0 ff ea bc c3 0a d5 bd 5d 8a 06 bd
       0.19418646 -0.028686345 -0.10402443 -0.032846797
0000b0 e5 b6 bf bd 03 e2 1a 3e ae 8b 64 3c 8f 79 20 3e
       -0.09361056 0.15125279 0.013949318 0.15671371
0000c0 dc 2b 31 3e 9e aa 40 3d eb e3 a9 3d 99 4f f5 3d
       0.17301887 0.047037713 0.08295425 0.11978073
0000d0 9e cb a7 bd 0a 94 87 3d ca 15 8a bd 4f af 15 be
       -0.08193134 0.06620033 -0.06742437 -0.14617656
0000e0 b6 61 69 bc 73 6e ae bd 66 0c 32 3e 91 46 17 3d
       -0.0142444875 -0.0851716 0.17387542 0.03693253
0000f0 04 4b 0c 3c 52 7c d6 3d 00 7f c0 bd cf aa 97 3d
       0.008562807 0.10472931 -0.09399223 0.07405626
000100 46 cf f7 bd c1 fe 81 bd b0 c3 f3 bd 55 01 9d bc
       -0.12100081 -0.063474186 -0.11902559 -0.019165674
000110 51 67 e0 3d 91 35 28 bd 6c d9 11 be 72 f7 bb bd
       0.10957206 -0.04106671 -0.14243096 -0.09178056
000120 4b 91 0e 3c 6c 86 f7 3d 0d 13 2c 3e c7 bc 44 3e
       0.008701633 0.12086186 0.16804142 0.19212638
000130 ae a6 e9 3b 63 48 55 bd 62 96 10 be 14 67 26 3e
       0.0071304655 -0.052070986 -0.14119866 0.16250259
000140 86 26 94 bc 9c d8 96 3d 44 8b 45 3e f0 f5 9d bb
       -0.018084776 0.07365534 0.19291407 -0.004820578
000150 d0 11 84 bb ed c0 53 3d a6 86 d1 bd 40 4b 0e bc
       -0.0040304437 0.05169766 -0.1023076 -0.008684933
000160 38 76 b2 3c 1a cc 46 bd 80 19 ac bc 95 b9 02 3e
       0.021784887 -0.04853449 -0.021008253 0.12766106
000170 17 2d 14 bd 33 91 02 3e 71 9c 07 bd 9f af 23 3e
       -0.036175814 0.12750702 -0.03310818 0.15984963
000180 49 e9 d7 bd 06 6e bb 3d 43 77 cb 3c 4e 21 44 be
       -0.105425425 0.09151845 0.024837142 -0.1915333
000190 13 f1 88 3d 01 bf 5f bd 95 22 06 3d 1a 01 50 bb
       0.06686606 -0.054625515 0.032747824 -0.0031738938
0001a0 8a 89 34 be 95 15 b2 3d c0 80 16 3e 96 f8 9d bd
       -0.17630592 0.08695523 0.14697552 -0.0771343
0001b0 51 ef 3f 3e cc 10 c0 bd 14 53 1d 3e 86 60 6b 3d
       0.18743636 -0.09378204 0.15363723 0.0574651
0001c0 40 c4 0b 3e 18 36 4c 3c 13 d8 17 bb 97 55 46 be
       0.13649082 0.012464069 -0.0023169562 -0.19368587
0001d0 5a 9c a3 bd 2b b9 3c 3e f8 7d 66 bc 1d 17 90 bd
       -0.07988806 0.18430011 -0.014068119 -0.070356585
0001e0 af ea 66 3e 4d 7f d6 bd cc 65 da bd d0 56 d2 bd
       0.22550462 -0.104734994 -0.106639475 -0.102704644
0001f0 4d 80 b8 3d 9f 41 7b 3d 57 4b aa bd f6 d0 21 bd
       0.090088464 0.061341878 -0.08315151 -0.03950592
000200 71 0c be bd 37 19 97 bd e7 22 12 be 02 5e 44 3e
       -0.09279717 -0.07377856 -0.14271127 0.19176486
000210 b5 a6 4b bd 88 16 dc 3d 91 ee 7c bd e1 ee 25 3d
       -0.04971953 0.10746485 -0.061750952 0.040511016
000220 c9 9c bb 3d 2a bd 65 bd 1a 53 b8 3c f8 97 1f be
       0.09160764 -0.056088604 0.022500563 -0.15585315
000230 d6 bf 09 3e 17 4f a7 3d 2e 6f f7 bd b9 60 34 3e
       0.13452086 0.08169382 -0.12081753 0.17615022
000240 cc f5 2d bd 20 fb 14 3d 46 eb 05 be 60 22 e4 bc
       -0.04247074 0.036372304 -0.13078031 -0.027848423
000250 54 83 f6 bd c5 c9 68 bd 27 71 10 3c e6 13 8f 3d
       -0.120367676 -0.056833047 0.00881604 0.06986217
000260 fc dc 26 be a6 9e ff bd b3 7d 89 bd 0f 67 a8 bd
       -0.16295236 -0.12481432 -0.06713428 -0.08222782
000270 42 64 8e bb 6b 57 40 3c 31 35 dc 3b 36 42 92 3c
       -0.0043454478 0.011739592 0.006720208 0.017853837
000280 a2 c9 45 3d dc 1c 08 3e e8 a8 15 3e 43 fc 06 3c
       0.048287995 0.13292259 0.14615214 0.008238855
000290 6c 73 9b bd a6 a7 f0 3d c8 91 33 bd f5 ad 1d bd
       -0.07590374 0.117507264 -0.0438402 -0.038495976
0002a0 69 8f 9c bc 8b 5d e7 3d 60 46 1c bd 44 19 c4 bd
       -0.019111352 0.11297139 -0.038153052 -0.095751315
0002b0 78 e0 11 be 20 49 67 bc ef a0 14 be 61 03 26 3e
       -0.14245784 -0.014116555 -0.14514516 0.16212226
0002c0 40 f4 44 be 93 67 4a 3d ba 2b 36 3e 23 27 a7 3d
       -0.19233799 0.049415182 0.17790118 0.081617616
0002d0 f9 85 ad bc 66 d1 a2 3c 3c 50 1e be 0d 20 ca 3d
       -0.021182047 0.01987524 -0.15460294 0.098693945
0002e0 d3 2c e2 bd ac 40 f3 bd 37 ab 0d 3e 8e b4 5a bd
       -0.11043706 -0.118775696 0.13834845 -0.053394847
0002f0 4a 6b ea 3d 27 43 80 3c d7 d3 18 be 34 b1 d2 3a
       0.11446245 0.01565702 -0.1492456 0.0016074539
000300 a4 fd a5 bd 9b 70 c0 3d 35 67 b9 bd f8 4d ac bd
       -0.08105019 0.09396478 -0.09052888 -0.08413309
000310 99 84 36 3e 4b 32 2e bd d5 4d f9 bd 98 f0 dd bd
       0.1782402 -0.04252843 -0.121730484 -0.10836905
000320 71 f0 91 3d eb da 9d 3d 89 c3 07 3e a2 52 bd 3d
       0.07125939 0.07707771 0.13258184 0.092442766
000330 05 d5 ca 3d 31 4b fb 3c b9 a3 3c bd bd 61 25 3d
       0.099039115 0.030675502 -0.046054576 0.040376414
000340 19 e2 19 be a6 2f 68 3d 88 20 83 bd 86 36 1b 3e
       -0.15027656 0.056686066 -0.06402689 0.15157518
000350 23 74 43 3e c5 e6 24 3e ff ce 96 3d 09 80 61 bd
       0.19087271 0.16103657 0.073637 -0.055053744
000360 a8 41 bc 3d 50 29 bf 3d f2 ce fe ba 1b 89 07 be
       0.091922104 0.093340516 -0.0019440337 -0.13235895
000370 18 59 bb bb 33 3f bd 3d 54 48 0e bc e1 19 46 3d
       -0.005717408 0.0924057 -0.008684237 0.048364524
000380 75 d4 e4 bd 37 cf 11 3e 46 cd f5 3d 77 0a 9c 3d
       -0.111733355 0.14239202 0.120020434 0.076191835
000390 bf 8c d0 bd 0e 0e 29 bd c8 53 4f bd 1c 75 0c 3e
       -0.10183095 -0.04127317 -0.05061701 0.13716549
0003a0 58 c1 23 be 08 30 95 bc 35 0f 78 bd 13 51 51 3d
       -0.15991724 -0.01821138 -0.060561378 0.05110271
0003b0 ca 4e 9c bd 9a 2c dc 3c 49 ce 34 3e 68 c2 68 3c
       -0.07632215 0.026876736 0.17656817 0.014206506
0003c0 84 32 03 3e d9 c7 02 be 27 eb 25 be fb cc 06 3e
       0.12812239 -0.12771548 -0.16202985 0.13164131
0003d0 91 79 d3 bd 54 78 26 be 66 f0 b3 3c 00 53 14 3e
       -0.10325921 -0.16256839 0.021965217 0.14484787
0003e0 12 8f 15 3e 8c be 41 3e c0 98 a0 bc 94 68 cc 3d
       0.14605358 0.18920344 -0.019604087 0.09980884
0003f0 96 5a e8 3d 75 ba 86 bd c0 bc cf 3d fe ad 0d 3e
       0.11345403 -0.065785326 0.10143423 0.13835904

102 f4 [1, 256, 64]
000000 fe fd 54 3d 3c e7 e8 3d 74 97 49 be 04 31 2b be
       0.05200004 0.113722295 -0.19686681 -0.16717917
000010 ae c1 f1 bc 1c a6 0d be a6 7c cc bd f0 26 d1 3d
       -0.029511299 -0.13832897 -0.09984712 0.10212505
000020 15 af 7e 3e c6 ff 16 be ee 5e ce bd 71 6b c3 bd
       0.24871476 -0.14746007 -0.100767 -0.09541977
000030 6c 2f 55 be 0e e3 b0 3d b8 85 5d 3e 99 a0 2b 3c
       -0.20818871 0.08637057 0.21633041 0.010475301
000040 5e 2a 48 3e 73 61 88 3d 51 99 27 3e 78 bf a8 bd
       0.19547412 0.06659212 0.1636708 -0.08239645
000050 36 bc d8 3d d1 bb 3a 3e 50 75 10 be f1 c6 c2 bc
       0.105827734 0.18235709 -0.14107251 -0.023776503
000060 7e b3 74 3c 40 9e b3 3d e0 68 09 be 89 31 10 3d
       0.014935372 0.08770418 -0.13418913 0.03520349
000070 64 63 29 be ec 79 08 be b8 51 59 3d a7 9f 23 be
       -0.16541821 -0.1332776 0.05305645 -0.15978871
000080 66 04 06 be dc 2d 54 3e 73 c0 30 3e 41 ac b0 bd
       -0.13087615 0.20720619 0.17260914 -0.08626605
000090 2f 5a be 3d 79 81 5d bc 06 57 5f be 28 73 ba bd
       0.09294545 -0.013519638 -0.2181054 -0.091039956
0000a0 c5 3c 33 be 57 50 38 3e 34 66 4d bc 48 7a 45 be
       -0.1750365 0.17999397 -0.012536574 -0.19284928
0000b0 5a 10 a2 bc ce 66 b9 bd 9a ad d1 bd 73 c2 45 3d
       -0.019783188 -0.090528116 -0.1023819 0.048281144
0000c0 7e 2e 21 be 27 3b 48 bd 58 0c 20 be bb 89 20 3e
       -0.15740392 -0.048884537 -0.15629709 0.1567754
0000d0 c0 5d 18 3e 81 9d 92 bd 60 c5 2a be f6 a6 0a bd
       0.14879513 -0.07158948 -0.16676855 -0.033850633
0000e0 3f ba b2 3c 13 48 34 3e 96 a2 83 bd b2 aa 31 bc
       0.021817325 0.17605619 -0.06427495 -0.01084392
0000f0 27 fa 3e bd b5 40 3f be 7f b2 69 3d 60 a3 d0 3d
       -0.046625283 -0.18677028 0.057054993 0.10187411
000100 ec 8b 64 3e 13 9e 0d 3e f9 30 43 be c3 83 c9 bd
       0.22319001 0.13829832 -0.1906165 -0.09839585
000110 85 62 0b be 50 1b 8d be f0 4d ca bc 67 31 ce 3d
       -0.13611801 -0.275599 -0.024695367 0.100680165
000120 91 d4 2b be 6e 5f 45 bd 45 13 90 bc 5a ae 2d 3e
       -0.16780306 -0.048186712 -0.017587313 0.16961041
000130 1e 54 d4 bd 61 de 47 be be ad f0 bc 82 00 11 be
       -0.103676066 -0.19518425 -0.029379722 -0.1416035
000140 32 1a 5f 3e cb eb b2 3d c3 9c e9 3d ff 57 14 be
       0.21787336 0.0873638 0.11406853 -0.14486693
000150 e4 d4 57 be da 11 82 be df d2 69 be 5e bd 2c 3e
       -0.21077305 -0.25404245 -0.22834347 0.16869113
000160 77 9e 20 be 67 80 cf bd 68 14 83 3c f1 73 e5 bc
       -0.1568545 -0.10131913 0.016000941 -0.028009387
000170 23 3b 37 3d a2 36 03 3e 73 18 f4 3c d1 d1 64 3e
       0.04473413 0.1281381 0.029796815 0.22345664
000180 5c 75 c4 bd 6c 0c 3f 3e e7 10 c4 3c 3a 49 11 be
       -0.09592697 0.18657082 0.02393384 -0.1418809
000190 96 3b 2f bd 9c f2 26 be 17 20 3f be c6 06 09 3d
       -0.042781435 -0.16303486 -0.18664585 0.033453725
0001a0 73 08 5b 3d 67 2f d8 3d 26 1a f7 bd 12 68 cc bc
       0.053474855 0.10555916 -0.12065534 -0.024951968
0001b0 cb 59 cf bd a3 36 b5 3c 34 73 4a be ea b5 62 3e
       -0.101245485 0.02212078 -0.19770509 0.22139707
0001c0 98 92 03 3e aa 14 0e be 82 95 72 be 4b cc 4b be
       0.1284889 -0.1387507 -0.23689845 -0.1990215
0001d0 5f fe 46 3e 19 2d bc 3d 6a 28 1c 3e 15 14 c3 bc
       0.19432972 0.09188289 0.15249792 -0.023813287
0001e0 8c 3e 2f 3e f2 98 6c 3d b8 cc 91 bd df b5 1a 3e
       0.17113703 0.057763048 -0.07119125 0.15108441
0001f0 ce 12 65 3e 56 1e ec 3c 76 f9 e5 3d b6 2f 4b 3d
       0.22370455 0.028823059 0.112292215 0.049606048
000200 1a 0e 0e 3e eb 29 50 3c b0 12 66 bd 4f 25 91 be
       0.13872567 0.0127053065 -0.056170166 -0.28348777
000210 bd 19 6a be 7b 62 3d be 06 c6 0a 3e b1 e2 3e 3e
       -0.22861381 -0.18494599 0.13552102 0.18641163
000220 51 af a7 3d f7 21 c6 3a fd 35 6b be 2f 43 35 bc
       0.08187736 0.0015116323 -0.22969814 -0.011063381
000230 25 32 0c be 11 99 d7 3d 0b b2 0a be 47 6a bc bb
       -0.13691004 0.10527242 -0.1354448 -0.005749974
000240 53 2b 51 bd 98 0e b9 3d 1b 99 1e bd c6 02 f0 3d
       -0.051066708 0.09035987 -0.03872023 0.11719279
000250 47 85 41 be ce b9 21 3d 02 cc b1 bd 3d 8b 7f 3d
       -0.18898498 0.039483838 -0.086814895 0.062388647
000260 94 e7 2d be e6 88 71 be 5d 46 c2 bb 49 3a f5 bd
       -0.16982871 -0.23587379 -0.005928798 -0.11974008
000270 33 65 4b be 3d 0f 14 3e 54 62 72 bc 47 23 f6 bd
       -0.19862823 0.14458938 -0.014793951 -0.12018447
000280 dd 2c 83 be ec b5 59 3e bb c6 be 3a b2 f9 64 bd
       -0.25620165 0.21260804 0.0014555076 -0.05590219
000290 4e 40 dc bd 0c 95 6d ba 86 3f 94 bd b3 d8 01 be
       -0.10754453 -0.0009063042 -0.07238679 -0.1268032
0002a0 d6 6d f2 bd fc 6b b4 3d a2 fc 53 3d d7 ed 50 3e
       -0.11837356 0.08809659 0.0517546 0.20403229
0002b0 32 16 70 be d5 4a 27 be f4 0a 31 bd 8b 04 44 bd
       -0.23445967 -0.1633714 -0.043223336 -0.047855895
0002c0 5c 84 15 3d 37 8e 07 3d f2 2e 1e 3c 10 1b be 3d
       0.03650318 0.03309461 0.009654747 0.092825055
0002d0 91 a4 46 3e a5 0b 0f be 0f 29 79 bd 28 e3 99 3d
       0.19398715 -0.13969286 -0.060830172 0.0751403
0002e0 e6 7e b4 bd ab 4c 86 be 16 5f 67 be 98 23 40 be
       -0.088132665 -0.26230368 -0.22594866 -0.18763578
0002f0 ef 2c 3c bd d1 d9 92 3d 3b 8e f1 3d 14 31 dd bd
       -0.04594129 0.071704514 0.117947064 -0.108003765
000300 8b fe b8 bd 3f 7f 79 bd d5 57 31 3e ec d6 41 be
       -0.09032925 -0.060912367 0.17318662 -0.18929642
000310 f0 bb 83 bd e2 95 bf bd dd b4 30 be be 8c 18 3e
       -0.064323306 -0.0935476 -0.17256494 0.14897439
000320 28 75 ed bd 2d f5 92 bd 93 40 ec 3d 07 2d ac 3d
       -0.115946114 -0.0717567 0.11535754 0.08407026
000330 8a 9d 29 3e 8b 11 3d 3e 15 46 ed bd fe df a8 3c
       0.16564003 0.18463723 -0.11585633 0.02061462
000340 68 e1 be bd 70 bd 07 3d 78 a9 f6 3c 36 cf 85 3d
       -0.093203366 0.033139646 0.030110106 0.06533663
000350 5f a2 3a 3e 16 06 d6 bd 1d 2b 49 bd f9 a1 5d 3e
       0.18226002 -0.104503796 -0.04911338 0.21643819
000360 98 5f e0 bd c6 16 66 3d 09 5f e5 bd 68 e5 ad bc
       -0.10955733 0.056174062 -0.11199767 -0.021227553
000370 5a 59 1b be e1 a0 00 be 74 05 82 bd 06 97 49 bc
       -0.15170804 -0.1256137 -0.06348696 -0.012304073
000380 6d 8b e0 3b ab 8a 66 be 4d 65 31 3e 00 15 aa bd
       0.0068525583 -0.22513835 0.173238 -0.08304787
000390 ae 53 7b 3d 0c 6d 96 bc 40 c1 e4 bd 69 4d 40 be
       0.0613591 -0.018362544 -0.11169672 -0.1877953
0003a0 7a ce a5 bc 4f 4b 69 3e 1c 82 49 3b 64 08 e8 3d
       -0.020240057 0.22782634 0.0030747717 0.113297254
0003b0 38 f2 b0 bd b2 ff e3 39 91 13 4e 3e 2b a6 14 bd
       -0.086399496 0.00043487322 0.20124651 -0.036291283
0003c0 3a bb 1a be ef 7e 54 3e 77 87 de bd 0e 1b 1b bd
       -0.15110484 0.20751546 -0.108656816 -0.0378676
0003d0 c9 32 8c 3c 44 bc dc 3d 52 e7 0b 3e fb 2c 09 be
       0.01711406 0.10778096 0.1366246 -0.13396065
0003e0 c3 74 c7 3d 67 da 63 3e a9 84 43 be fd d0 3a be
       0.097390674 0.22251283 -0.19093575 -0.18243785
0003f0 fa 15 1e be c8 8b 32 3d 99 d9 a8 bd 42 92 fc bd
       -0.15438071 0.043590337 -0.082446285 -0.12332584

103 f4 [1, 512]
000000 60 07 38 3d 47 f5 a6 3c b1 20 14 bd 24 74 18 3c
       0.04492891 0.02038063 -0.03616399 0.009305034
000010 33 f7 fb bb 45 18 7a 3c bd ba c0 3c 5b 82 81 3d
       -0.0076893806 0.015264575 0.023526544 0.063236915
000020 7f e2 76 3d 27 48 a2 3d 4d 41 9f bc 9e ff 22 3d
       0.060274597 0.07923918 -0.019440318 0.039794557
000030 8b d4 4e 3d 0e ba f7 3c ea ee 86 3c 8e bb 45 3d
       0.050495666 0.030240085 0.016471345 0.04827457
000040 fe df 76 3c 74 b7 5a 3d 25 75 f3 3c dd a2 94 3b
       0.015068052 0.05339761 0.029718945 0.0045360164
000050 e1 4a ee 3c 4b 9c 44 bd ef d0 72 3d 9e 5f 49 3d
       0.02908844 -0.048000615 0.059281286 0.049163453
000060 d7 fd 09 3d 00 f8 f9 b9 06 7b 64 3c 17 06 82 3c
       0.033689346 -0.00047677755 0.013945347 0.015872044
000070 42 dd d7 bc 3f 81 07 3d ab 3b bf 3c 3a 2a 17 bc
       -0.026350621 0.033082243 0.023343882 -0.009226376
000080 16 18 dd bc 81 49 61 bc 46 20 61 3d 35 32 49 3c
       -0.026989024 -0.013750435 0.05496242 0.012280037
000090 a3 b2 8e 3b 6c 1a 2e 3d 29 32 3d 3d a4 a9 44 3d
       0.0043547913 0.042505667 0.046190415 0.048013344
0000a0 b8 20 da 3c 6f 92 3e 3c 1e 03 a4 3c 77 13 e7 39
       0.02662693 0.011631592 0.020021018 0.00044074256
0000b0 c3 15 32 bb e4 2c 30 bc cc bd 04 3c 8f 27 31 bc
       -0.0027173616 -0.01075289 0.008101892 -0.010812654
0000c0 cb f9 29 3d 82 e4 be 3d 70 d9 4e bc 6d 8a c2 3d
       0.041497987 0.09320928 -0.012625083 0.09499059
0000d0 86 de 1c 3d dc 60 e1 3c ff 1e 02 3d 6e 18 31 3b
       0.038298152 0.027512006 0.03176784 0.0027022618
0000e0 38 59 fa 3c 49 e2 9a 3c bb af 1f ba 02 cc 46 3c
       0.030560121 0.01890673 -0.00060915545 0.0121336
0000f0 b5 0f 38 3c 21 6f 92 3b 69 21 44 bb 05 f7 53 3d
       0.011234214 0.004468814 -0.002992714 0.051749248
000100 36 44 3d 3d 09 b9 0c 3d 7e c3 04 3d 8a eb 19 3c
       0.04620763 0.03435615 0.032413 0.009394536
000110 06 96 08 3d 47 d1 90 3c ab 3a 83 bb 34 13 1d 3d
       0.0333462 0.017677916 -0.0040047965 0.03834839
000120 96 3a 13 3c f7 0b 7b 3d 76 2e 42 bb 5f d2 93 3d
       0.008986136 0.061290707 -0.0029629744 0.072178595
000130 79 48 7b bb 30 9d 85 3c b1 5a 86 3c 08 ff 31 3d
       -0.0038342758 0.016310304 0.016400667 0.043456107
000140 91 88 4d 3c a5 a5 14 3d 17 f2 40 3d e8 b4 06 bd
       0.012544767 0.036290783 0.047105875 -0.03288737
000150 8a 93 d7 3c 31 57 97 3c f6 4e a5 3d c1 76 9b 3c
       0.02631547 0.018474193 0.08071701 0.018977525
000160 4c 9d b7 3c 9e cf f0 3b 40 2a 86 3c de 7a b5 bb
       0.022413872 0.0073489686 0.016377568 -0.0055383286
000170 cf d8 cc bc fc 2c 7b 3c 27 b2 62 3c 03 61 ef 3b
       -0.025005726 0.015330549 0.01383642 0.007305266
000180 1a 39 d5 bb e3 f6 be 3c 36 c0 1b 3d e4 ba b6 3c
       -0.006507051 0.023311084 0.038025104 0.022305913
000190 27 cc 0a 3a 7e 94 8b 3d 12 7f 09 bc 63 05 42 3d
       0.00052947033 0.06815432 -0.008392112 0.04736842
0001a0 3c 57 29 3d f0 4a df 3b 19 8f 77 3c 98 33 a5 3b
       0.04134296 0.006814353 0.015109801 0.005041551
0001b0 e5 f5 86 bc 22 7c f4 ba 76 c6 dc 3c b7 f0 6a bc
       -0.016474674 -0.0018652717 0.026950102 -0.014339617
0001c0 5f f7 96 3c ed cf 7d 3d 85 d7 03 3d c3 b1 45 3d
       0.018428503 0.06196587 0.032187957 0.04826523
0001d0 56 1c 1f 3d 2b e2 9f 3c fb 17 91 3c 63 82 0e bd
       0.038845383 0.019517025 0.01771163 -0.034792315
0001e0 e3 b9 09 3d bb 32 e4 bc ae 47 0e 3c ff 2e ea 3c
       0.03362454 -0.027856221 0.008684082 0.028586863
0001f0 da a7 28 bc 2e c4 e6 3c ea fa e9 39 84 f2 a5 3c
       -0.010293925 0.028169718 0.0004462817 0.020257242
000200 cd 9e 85 3f 45 2b 81 3f 11 8d 78 3f e5 bf 7c 3f
       1.0439087 1.009133 0.9709025 0.9873031
000210 8b da 84 3f 4d 48 82 3f 18 8d 83 3f 8f f4 80 3f
       1.0379194 1.0178314 1.0277433 1.0074633
000220 8f 76 84 3f 16 34 81 3f 86 f8 7b 3f 9d 29 83 3f
       1.0348681 1.009402 0.9842609 1.0247074
000230 18 70 7e 3f 82 1b 7a 3f 50 7e 82 3f 97 cb 80 3f
       0.9938979 0.97698224 1.0194798 1.0062131
000240 90 6b 82 3f c9 21 83 3f d4 78 7f 3f 4f e5 81 3f
       1.0189075 1.0244685 0.99793744 1.0148104
000250 1e 7c 81 3f 3c 3a 84 3f 3d 98 80 3f 8a de 7f 3f
       1.0116003 1.0330272 1.004646 0.9994894
000260 04 30 83 3f c4 9d 80 3f 70 6b 87 3f 5d 6d 81 3f
       1.0249028 1.0048146 1.0579662 1.01115
000270 0a 1e 83 3f ab 35 81 3f 5d 34 7f 3f ef a6 7a 3f
       1.0243542 1.0094503 0.99689275 0.9791097
000280 84 1a 80 3f 91 55 79 3f 09 42 78 3f 08 1b 82 3f
       1.0008092 0.9739619 0.9697576 1.0164499
000290 98 3e 80 3f 3f ef 85 3f 24 26 77 3f 58 c1 80 3f
       1.0019102 1.0463637 0.9654257 1.0059004
0002a0 3a 9e 88 3f 6e 4e 80 3f 56 84 82 3f 1d 8a 7b 3f
       1.0673287 1.0023935 1.0196636 0.9825762
0002b0 44 9c 7d 3f c6 25 80 3f 36 3d 7a 3f 31 8e 83 3f
       0.9906657 1.0011528 0.9774965 1.0277768
0002c0 30 22 83 3f 51 56 7e 3f 97 76 7f 3f 2e 66 7b 3f
       1.0244808 0.9935046 0.9979033 0.9820279
0002d0 54 41 80 3f 7b 08 83 3f 96 9f 7f 3f 93 81 72 3f
       1.0019937 1.0236963 0.99852884 0.94728965
0002e0 93 d1 84 3f 6f 76 84 3f c6 1b 82 3f 3d 81 81 3f
       1.0376457 1.0348643 1.0164726 1.0117565
0002f0 3b ea 80 3f 81 da 85 3f 63 af 80 3f dd 05 77 3f
       1.0071481 1.0457307 1.0053524 0.9649332
000300 0b 2e 82 3c 69 2b 0c 3b 14 a2 2e 3c 8f da bd 3c
       0.015891096 0.002138818 0.01065876 0.023175506
000310 c9 93 7f 3b a9 24 7b bc 43 7d 14 3d e7 fb 3d 3c
       0.0038998 -0.015328565 0.03625227 0.011595703
000320 62 f2 aa 3c 16 95 d7 3c 2b b5 57 3c 36 da 4a bc
       0.02086753 0.026316207 0.013165752 -0.012381127
000330 a2 4a bc bc ed 05 d6 bb a7 d8 4e bc e2 07 c2 3c
       -0.022984806 -0.006531468 -0.012624896 0.0236854
000340 13 03 d3 bb 63 3a 1b 3b c1 f1 92 bc 10 07 56 bb
       -0.0064395755 0.0023685924 -0.017937543 -0.0032658018
000350 cc ce 4b bb b5 c6 de bc 38 b1 a1 3c e9 9c 04 bd
       -0.0031098602 -0.02719436 0.019737825 -0.032376204
000360 fa 61 1e bb c7 c3 23 bc a6 ec a1 bc 8d a1 03 bc
       -0.0024167285 -0.009995407 -0.019766163 -0.008034122
000370 8d 93 17 3c e4 cd 22 3c 95 8d 51 bb 2c 44 b9 3a
       0.009251487 0.009936783 -0.0031975259 0.0014134697
000380 88 02 b6 3c a0 28 6f 3c b3 a3 fa 3c a1 af 97 3b
       0.022218004 0.014597088 0.030595636 0.004629091
000390 48 d0 1b bc 16 2c d9 bb 3e 72 9d 3b c4 52 d1 3a
       -0.009510107 -0.00662757 0.0048048785 0.0015970101
0003a0 e4 64 a5 bc 81 65 4d 3c 2e 29 40 bc 64 af 87 bc
       -0.02018971 0.012536407 -0.011728568 -0.016563125
0003b0 5a 83 f8 3c 0f 15 90 3c c8 4e e9 3b 03 c4 06 3c
       0.03033607 0.017588167 0.007119987 0.008225444
0003c0 1d 91 6f bc 4b f2 54 bc 5e 73 64 bc e3 81 90 3c
       -0.014622 -0.01299722 -0.013943521 0.01764006
0003d0 33 50 49 bc 8f ad 36 bc 40 87 2f 3c 2c df 3a 3c
       -0.012287187 -0.011149778 0.010713398 0.011405747
0003e0 47 ef db 3c a5 db 3d 3c 97 c6 7b ba d7 81 33 3a
       0.026847495 0.011588012 -0.00096044823 0.0006847656
0003f0 00 94 33 bb a2 c4 80 3c 07 16 99 bb a5 f7 51 3c
       -0.0027401447 0.015718762 -0.0046718153 0.012815391

action_model._continuous_distribution.log_sigma f4 [1, 2]
000000 bc 9f 39 be a4 0d 16 bd
       -0.1812734 -0.036634102

action_model._continuous_distribution.mu.bias f4 [2]
000000 4f 6c 83 bc aa 7f 98 bc
       -0.016042856 -0.018615562

action_model._continuous_distribution.mu.weight f4 [2, 64]
000000 25 65 96 3d 36 89 c4 3d 5d f6 7a 3d e0 17 d7 bd
       0.073435105 0.095964834 0.061270107 -0.10502601
000010 f2 5f cf bd 3a 00 83 bd 79 9a 9c 3d f8 b5 8c 3d
       -0.10125722 -0.063965276 0.07646651 0.06870645
000020 f3 f0 9f bd ed 3a 7c 3d f8 ba ee bd 45 52 34 bd
       -0.07809629 0.061579634 -0.11656755 -0.04402377
000030 f8 9e ca 3d 52 10 ff 3c a6 aa af bd 1f 61 c1 3d
       0.09893602 0.031135712 -0.085774705 0.094423525
000040 9c a9 61 3d ec c6 9c bd 5c 82 fb bd e6 da e0 3c
       0.055093393 -0.07655129 -0.122807235 0.027448129
000050 49 42 8d 3d 8b 83 90 bd c7 f4 c3 3d 5b e7 65 3a
       0.068974085 -0.0705634 0.09568172 0.00087701314
000060 40 d9 17 bd 62 fd 3e bd f0 cb fe 3b fb ae 1b be
       -0.03707242 -0.046628363 0.007775776 -0.15203469
000070 68 70 da bc 11 15 66 3d c2 aa c6 bd 98 c6 43 3c
       -0.026664928 0.056172434 -0.09700538 0.011949204
000080 65 e8 b6 bd 5c 6f 03 3c 73 e2 f6 3d 4b dc fa 3d
       -0.089310445 0.008022156 0.120549105 0.12249049
000090 a5 76 6a bd 7c 2c 72 bd d7 e6 b7 3d 9b dc 93 bd
       -0.057242054 -0.059124455 0.08979576 -0.072198115
0000a0 09 8b 1f 3d 1c f3 f8 bd dd 21 30 bd 39 1d a0 3d
       0.038950954 -0.121557444 -0.043001045 0.07818074
0000b0 79 e4 2a 3d 5d 20 f1 bc 90 02 ff bc 0a 50 8d 3d
       0.041721795 -0.029434377 -0.031129152 0.06900032
0000c0 59 b7 99 bc 3f 54 16 bd 2d f1 68 3d 02 1a 4b bd
       -0.018764185 -0.036701437 0.05687063 -0.04958535
0000d0 c1 8a 77 bd 24 61 df bc 55 ae e6 3c c6 d9 c2 bd
       -0.06043506 -0.027268 0.0281593 -0.09514193
0000e0 34 f7 de 3d 7c a0 0e be 3a 8b 03 bc 10 5c 29 bc
       0.10886994 -0.13928407 -0.0080288 -0.010336891
0000f0 7b fb 64 bb 33 8b b0 3d d0 60 38 bc 60 d4 05 3e
       -0.0034939933 0.086203 -0.011253551 0.13069296
000100 41 5a 86 bd 26 ac 43 bd ba 57 7c bd 09 82 9c 3d
       -0.06560183 -0.047771595 -0.0616071 0.0764199
000110 14 dd 85 3d 1f 3c c2 bd 1e c0 fe bc 47 12 a1 bd
       0.06536308 -0.094841234 -0.031097468 -0.07864814
000120 25 29 09 bd 71 3b a6 bd 5e 4c d7 bc a7 8d b9 3d
       -0.033486504 -0.08116806 -0.026281532 0.09060221
000130 93 50 7f 3c 04 4d e4 3d c7 66 03 bd 1f f5 77 bd
       0.015583175 0.11147502 -0.032080438 -0.0605365
000140 59 74 b5 bc 0d 81 b2 bd 27 fe 66 3c bf f3 dc bc
       -0.022150205 -0.08716021 0.014098681 -0.026971696
000150 2b 3b 89 3d dc 69 b6 bd 94 ee c1 bd 74 8e d5 3d
       0.067007385 -0.0890691 -0.09469333 0.104275614
000160 82 b0 07 3d d1 82 23 3d 6c 38 91 3d 96 df 0e 3d
       0.033127315 0.039919678 0.0709084 0.034881197
000170 ff 2e b1 bc 3f 93 81 bd b0 4e 97 bb 39 26 96 bd
       -0.021628855 -0.06326913 -0.0046175346 -0.07331509
000180 51 4e 9e 3c 6d 1a c9 bd 30 57 b6 3d 18 a1 de 3b
       0.019324454 -0.098194934 0.089033484 0.006794106
000190 7e fa d2 3b 09 3d 01 3e 48 6f 82 bc 44 05 c0 bd
       0.0064385524 0.1262094 -0.015922204 -0.09376004
0001a0 bf c6 c8 3d 08 25 ff bd 2a ad a9 3c 76 80 2e bb
       0.09803533 -0.12458235 0.020712454 -0.0026626862
0001b0 84 b9 58 bd f0 2a 5c 3d 3c f9 88 bd 86 b3 4b 3d
       -0.052911296 0.053751886 -0.06688163 0.049731754
0001c0 cc 65 07 3d a4 62 a1 3d db 10 60 3d 36 f3 d3 bd
       0.033056065 0.07880142 0.054703575 -0.10349123
0001d0 9f a9 8e 3d 00 37 8f 3d b6 f8 de bc 11 10 d3 3c
       0.069659464 0.06992912 -0.027218204 0.025764497
0001e0 05 1b 2b bd 32 00 86 3b 67 16 06 bd 31 93 3a 3c
       -0.041773815 0.0040893788 -0.03273621 0.011387632
0001f0 4c df 21 3d 0d 16 58 3c c9 b8 4e bd ff cf 3a 3d
       0.039519593 0.013188851 -0.050469194 0.045608517

network_body._body_endoder.seq_layers.0.bias f4 [128]
000000 91 83 97 3c c3 5f 5c bc b7 7d c7 3b 6b c2 04 3d
       0.018495353 -0.013450566 0.0060879844 0.032411974
000010 7c 10 aa bc 83 7b 2d bb f6 d8 83 3c e6 12 c6 bc
       -0.020759813 -0.0026471324 0.016094666 -0.024178933
000020 71 4e bf 3a 99 0d b5 3c 27 2d 40 bc c2 94 5a bc
       0.0014595521 0.02210121 -0.011729515 -0.013341131
000030 24 3f c4 3c b1 50 0b 3d 88 63 3a 3d 74 78 56 bc
       0.023955889 0.0340125 0.045505077 -0.013090242
000040 2b 33 8f 3d 50 a3 11 3d 4f 18 51 bc ad 5a 9d bc
       0.069921814 0.035556138 -0.012762143 -0.019208277
000050 86 71 0b bd af 36 58 3c 3c 2c 85 3c 85 2a 7e bc
       -0.03404381 0.013196631 0.016256444 -0.015513067
000060 93 a8 d3 3c 6a a6 1c 3c 9c b6 b9 3c cd 35 b7 3c
       0.025837218 0.009561161 0.022670083 0.022364521
000070 a4 b9 ef 3b 61 7f ab 3c e6 af fd bc 83 74 3d bd
       0.0073158313 0.020934762 -0.030967664 -0.046253692
000080 65 77 35 bc fb 58 fb bb d3 37 4f 3d 03 a9 e8 3b
       -0.011075829 -0.0076705194 0.050590347 0.007100226
000090 65 42 cc 3c e9 8e 37 3d 86 20 47 3b 5e 7b 73 3d
       0.024934003 0.044814024 0.0030384376 0.059443824
0000a0 f3 c9 a5 bc 32 b2 1d 3d 3a 56 9f 3d c1 24 ec bc
       -0.020237898 0.03850002 0.07780118 -0.02882612
0000b0 ba a3 35 3d ef 31 ff 3b 94 d7 d8 bb fb 52 1d 3c
       0.044345595 0.007787935 -0.006617496 0.009602304
0000c0 9e a2 bd 3c 8a 7e 1a 3b a3 a2 cf 3b 73 83 25 ba
       0.023148831 0.0023573958 0.0063365265 -0.0006313838
0000d0 4c 4f 47 bb 11 28 85 bc 2c 54 3f bc 50 b6 0d bc
       -0.0030412255 -0.016254457 -0.011677783 -0.008649424
0000e0 97 e0 70 3c f4 9a cf 39 04 2a 10 3d dd 76 ff 3c
       0.014701984 0.00039597566 0.03519632 0.031184608
0000f0 03 e2 f0 bb 83 88 4d 3d 01 85 3e bc 14 76 71 bb
       -0.0073511614 0.050179016 -0.01162839 -0.0036844062
000100 fc a5 a4 bc 70 1d 09 bc 01 9b 25 3b e6 d0 35 3d
       -0.020098679 -0.008368835 0.0025269391 0.044388674
000110 83 2b 47 3c 7f ed 67 bc 4a ed ac 3c 42 df 9d bc
       0.01215637 -0.014155745 0.021109242 -0.019271497
000120 ed b3 a6 3c 15 18 2a 3d 6d 6d fc 3b 6e a6 27 bd
       0.020349467 0.041526873 0.0077034743 -0.040930204
000130 39 fe 05 bd 56 1e b6 3c ac 59 51 3b d8 71 77 bc
       -0.03271315 0.022231262 0.0031944318 -0.015102826
000140 4b 88 83 3c 7d 68 5f 3d c8 70 99 bc 3e d3 3b 3d
       0.0160562 0.054543007 -0.018730536 0.045855753
000150 64 dc 86 3d f1 2d b0 bc 25 7f 05 bd a5 01 76 3d
       0.06585005 -0.021506282 -0.032591958 0.060060162
000160 39 48 8f 3c cd 5a 67 3d fa 6d f3 3c 60 c0 8c 3c
       0.017490493 0.05648308 0.029715527 0.017181575
000170 9b 50 0f bd 67 0a 90 bc 8e 40 78 3c ea bc ab bb
       -0.03498898 -0.017583085 0.01515211 -0.005241026
000180 2e 39 66 bb ee 9d 2a 3b cd b8 fd bc d6 c9 11 38
       -0.0035129297 0.0026034075 -0.030971909 3.475867e-05
000190 b8 91 c7 3c 5a 00 db bc 3e 31 04 3c bb 65 9c bb
       0.024361476 -0.026733566 0.008068381 -0.0047728694
0001a0 0f d2 54 3c 56 ee 34 3d 8b fe 89 bc c7 b5 f1 3b
       0.012989535 0.044172607 -0.016845008 0.007376406
0001b0 74 cb 33 bc 29 27 8f 3d 8b d6 67 3d 16 7e 20 3c
       -0.0109738 0.06989891 0.05660109 0.009795686
0001c0 2a 4b 9b bb 60 70 1b 3d c5 4c 0d 3d d9 a5 97 3c
       -0.004739185 0.037948966 0.03449704 0.0185117
0001d0 7f 59 88 3c 85 2b 83 3d 5a 1b d3 ba e2 6d b2 bb
       0.016644238 0.06404785 -0.0016106174 -0.005445228
0001e0 d0 cf 8e bc 82 ed 08 bd 5e e6 96 bc a0 f0 a3 3c
       -0.017433077 -0.03342963 -0.018420395 0.0200122
0001f0 5b 6a ac 3d 74 f2 0e 3b df 95 81 3d 77 2f 61 3d
       0.08418723 0.0021811994 0.06327414 0.054976907

network_body._body_endoder.seq_layers.0.weight f4 [128, 18]
000000 b6 9a 66 3e 77 fd 1d 3d 46 4f fe bd 93 82 d6 3d
       0.22519955 0.0385718 -0.12417464 0.10474124
000010 63 77 50 3e ff 9e e0 3d 10 48 be bd d0 ac c4 bd
       0.20358042 0.10967826 -0.092910886 -0.09603274
000020 15 0c 0a be ea 65 02 bf ee 12 c7 3c 1e e1 20 3e
       -0.13481171 -0.5093676 0.024301019 0.15710875
000030 5a 32 4f be 25 8a 35 3e 9d 2b 91 bb 25 46 8b be
       -0.20234051 0.17728479 -0.004430248 -0.27201954
000040 f2 90 ea bd ba 5f 07 be 53 b3 29 bf b7 30 04 be
       -0.114534274 -0.1322011 -0.6628925 -0.12909208
000050 41 2d 77 be a5 db 00 3f 09 fc 33 be 2e c6 a7 3e
       -0.24138357 0.5033515 -0.17576613 0.32768387
000060 01 04 e5 3e b0 46 a1 be e0 7d 2b be 69 7c 81 bc
       0.44729617 -0.31499243 -0.16747236 -0.015806394
000070 83 27 7e 3d 46 ab 57 3d ad ad c1 3d ff fe 79 be
       0.0620494 0.052653573 0.09456954 -0.2441368
000080 db 94 0a 3f 18 07 b4 3e e2 51 f3 be df 9c 78 bd
       0.54133385 0.35161662 -0.4752341 -0.06069648
000090 23 9e c6 3c ec b7 c6 3e 1b ce d4 3e ba ea f2 be
       0.024245327 0.38812196 0.41563496 -0.47444707
0000a0 f1 0e c9 be 84 b1 af 3e 59 50 77 3e a7 f2 8b 3e
       -0.39269212 0.3431512 0.24151744 0.27333567
0000b0 82 ee 32 3d bd 06 0b bf bf 4c cc 3e 5a 31 27 3d
       0.04368449 -0.54307157 0.39902303 0.04081855
0000c0 89 d0 5e 3e 17 77 a7 3e 35 77 04 3e dd 47 c8 3e
       0.21759237 0.32708046 0.12936099 0.39117327
0000d0 37 e8 20 bf 71 e0 a3 be bd 88 8d 3d c2 ee d6 3d
       -0.6285433 -0.32007173 0.069108464 0.10494758
0000e0 4a 21 69 be c0 48 2d 3e 8b ef c9 3b 75 67 62 be
       -0.22766605 0.16922283 0.006162589 -0.22109778
0000f0 94 b9 ba bd 38 5b 06 bf d6 b8 bc bd 7c 91 95 3e
       -0.091174275 -0.5248294 -0.09214942 0.29212558
000100 62 c8 8c bd da 3f e5 bd 8a 47 8a 3e ff bf a1 bc
       -0.068741575 -0.11193819 0.27007705 -0.019744871
000110 d6 16 b6 3b 99 25 d4 3d fe 4c f9 3d e8 30 8d 3b
       0.0055569215 0.10358734 0.12172888 0.0043088086
000120 a2 81 70 bd 5b 78 8c 3d 91 26 49 be a7 bb ff 3d
       -0.058717377 0.068588935 -0.19643618 0.12486964
000130 ef cc 75 3e cc fe 79 3e 81 b2 31 be 0a 6c c2 3e
       0.24003957 0.24413604 -0.1735325 0.37973052
000140 09 2a e3 3e ba 9e 0f 3c 07 bb 97 3e a3 e4 28 3d
       0.44368008 0.008765871 0.29634878 0.04123367
000150 63 bb a9 3b c5 8d ea 3b 61 3b 77 3e f9 b6 97 3b
       0.005179809 0.0071580135 0.24143745 0.0046299663
000160 90 16 44 3e b6 3f e8 be 91 7d c6 bd f5 84 f1 bd
       0.19149232 -0.45361108 -0.09691919 -0.11792938
000170 32 52 f7 bc 7f 98 27 3e b3 a2 83 3d d1 fc b7 be
       -0.030190561 0.16366766 0.06427517 -0.3593507
000180 a7 0d bc be 34 e0 aa 3e 7c 2a 13 be a7 9a 86 3d
       -0.36729166 0.33374178 -0.14371675 0.06572466
000190 db c7 1a bd ef 6e 80 3d 04 4a d3 be c5 01 ee bd
       -0.037788253 0.06271159 -0.41267407 -0.11621431
0001a0 81 f5 d1 bd 5b 9d 14 3e 94 f4 ab bd 5a e3 18 be
       -0.10251904 0.14513151 -0.08396259 -0.14930478
0001b0 1f e9 8f be 2b df 53 bd a0 39 87 be 52 6a 7e 3d
       -0.28107545 -0.0517265 -0.26411152 0.062113114
0001c0 b2 9c a7 bd 45 ed bf be 14 4c de 3e 9c dd 4e 3d
       -0.08184184 -0.3748571 0.43417418 0.050504312
0001d0 54 40 70 3e f3 85 8a 3e c1 0b 38 3f 51 d1 6e bd
       0.23462039 0.2705532 0.71892935 -0.05830509
0001e0 88 86 07 be 0e 90 26 3e b0 63 5d 3d 31 a2 ef bd
       -0.13234913 0.1626589 0.054050148 -0.117008574
0001f0 55 36 b4 3e 88 cc e3 3e 2f 58 17 bf b3 e0 dc bd
       0.35197702 0.44491982 -0.5911893 -0.107850455
000200 12 29 10 be 52 42 bc 3e 55 ee a4 3d 2c 1c 54 3e
       -0.14078167 0.36769348 0.08053271 0.20713872
000210 26 4b b2 bd a8 31 64 3e 3c 86 da 3b 41 60 73 be
       -0.0870574 0.22284567 0.006668834 -0.23767187
000220 23 a0 8c be 15 6b 70 3e cb 1a b5 bd 07 d0 db 3d
       -0.27465925 0.23478349 -0.08843001 0.107330374
000230 0d a1 92 3e d0 03 f2 3e 8e df 06 bd 0c 7c 23 3e
       0.28638497 0.47268534 -0.032928042 0.15965289
000240 18 e9 e3 3e ad b8 ba be 08 e8 82 3e c4 19 e7 3e
       0.44513774 -0.3646902 0.2556765 0.45136845
000250 0b 98 b0 3e 24 64 9c bd fc 6c 0d 3f 16 49 53 be
       0.34491 -0.07636288 0.5524442 -0.20633349
000260 42 ff 1b 3e 4c c7 ef bd 7c c6 9f be 55 e4 71 3e
       0.15234092 -0.11707935 -0.3120612 0.23622258
000270 64 44 b3 3e 05 ec 91 be 31 31 ba 3e 53 0e e1 3e
       0.35013115 -0.2850038 0.36365655 0.4395624
000280 89 2c 08 bd e9 fa 89 be 98 69 b3 bb 55 3c a1 3d
       -0.033245597 -0.26949242 -0.0054752342 0.078728355
000290 9b 06 2b bd 32 07 1a 3c fa 5f 11 be 00 6e 77 be
       -0.041754346 0.00940113 -0.14196768 -0.24163055
0002a0 26 d0 15 bd 42 d3 cf bd 0a 43 2d 3d 08 b3 0d bd
       -0.03657546 -0.10147716 0.04230026 -0.034594566
0002b0 a7 9e 14 3e a1 79 0a 3e 05 cd 5c 3d d5 14 9a 3d
       0.14513646 0.1352296 0.05390646 0.07523505
0002c0 84 2a 93 bb 99 3c bf be 76 23 81 3e ab fb e4 3e
       -0.0044911522 -0.3735092 0.25222367 0.44723257
0002d0 7a 35 06 be c9 03 93 3c ed 4c 55 3d c8 c0 83 3e
       -0.13106337 0.01794614 0.052075315 0.25733018
0002e0 3c 93 48 3e 23 be 3a bd 23 94 02 be 52 51 f8 3e
       0.19587415 -0.045591485 -0.12751822 0.48499542
0002f0 34 38 8d 3e 08 a5 81 bc 3d 8d 87 3e d1 b2 6c 3e
       0.27581942 -0.015825763 0.26474944 0.23115088
000300 68 30 38 bc 61 64 18 3e 8f 01 7b 3e cf 18 10 3f
       -0.01124201 0.14882042 0.24512313 0.56287855
000310 6f 91 a0 3d 03 21 79 be 0e 37 28 3e 2d b0 2a be
       0.07840239 -0.24328999 0.16427252 -0.16668768
000320 c9 b4 6c bd 40 6a 3d 3d 75 5a 91 3e 84 d4 9e bc
       -0.057789598 0.046243906 0.28389326 -0.019388445
000330 41 9c 51 3e 56 1a ca 3d af 68 ad 3e 7e 51 16 3d
       0.20469762 0.098683044 0.3386893 0.03669881
000340 30 6a 7b 3e 26 71 6d be fa 01 95 3e d3 5c fb bc
       0.24552226 -0.23187694 0.2910307 -0.03068391
000350 42 43 3a bd 98 81 a7 3e 8f cf 24 bd ae 02 30 be
       -0.0454743 0.3271606 -0.040237006 -0.17188522
000360 2d 1b a8 be 31 de 70 bd b7 9e ba 3d 04 58 0c 3d
       -0.32833233 -0.05880565 0.09112304 0.034263626
000370 0a 72 66 3e b6 4f 05 bf c4 b5 e1 bd 8e d6 9f be
       0.2250444 -0.52074754 -0.11020997 -0.3121838
000380 99 2c 75 bc d3 9c b7 3d eb ea b3 3e e7 2f c8 bc
       -0.014964246 0.08965459 0.35140166 -0.024436904
000390 95 72 9e 3e be 1f 27 3e d3 7b 29 3d d3 8e 73 3c
       0.30946794 0.16320702 0.041377854 0.014865595
0003a0 96 bc 22 3e 8f a6 c6 3e fd b8 0a bd 9f ba 00 3d
       0.15892252 0.3879895 -0.033867825 0.031427976
0003b0 a9 1a ee bb 7e b7 ca be 0b 10 b6 3e c6 e3 de 3d
       -0.0072663617 -0.39593118 0.35559115 0.10883288
0003c0 56 f0 1d 3e df 48 1f be 84 90 ed bd 92 d7 c9 be
       0.15423712 -0.15555142 -0.1159983 -0.3942228
0003d0 20 68 d3 3d e0 92 21 3e 3a 76 db 3e 05 e5 f0 3d
       0.10322595 0.15778685 0.42863637 0.11762432
0003e0 9d 99 bd be ac d1 2a be 17 b9 38 bd 64 5a 74 be
       -0.3703126 -0.16681546 -0.04509839 -0.23862606
0003f0 aa 76 1b be ff 19 d5 3d ec ff d7 be dc f0 30 be
       -0.15181985 0.10405349 -0.4218744 -0.1727938

network_body._body_endoder.seq_layers.2.bias f4 [128]
000000 7d c6 0f 3d 90 15 ef bb 5c ba 05 3d e9 7c 93 bc
       0.035101403 -0.0072962716 0.03264843 -0.018003898
000010 d2 c8 1c bd 07 c0 a4 bb 99 78 86 bc 61 cc cb 3b
       -0.038277455 -0.0050277743 -0.016414927 0.006219432
000020 41 6a a6 3c e3 40 0d 3c c7 ff 1e 3d 61 33 43 3d
       0.020314338 0.008621427 0.038818147 0.04765642
000030 3e b0 f0 bb f0 e5 b4 bc 42 3f ed b8 dc 0e 88 3c
       -0.0073452285 -0.022082299 -0.00011312823 0.016608648
000040 2e 79 90 bb 4b e3 c0 bc 88 81 62 3c ae d9 ec 3c
       -0.004408977 -0.023545882 0.013824828 0.028912392
000050 28 61 b9 3b 9f d7 b8 3c 20 0f 0a 3d b9 80 a3 3c
       0.005657334 0.022563754 0.03370583 0.01995884
000060 8d 8e 58 3c 50 60 27 bc e0 5c 12 3d 0e af fa 3c
       0.0132175805 -0.010215834 0.035733104 0.03060105
000070 26 09 73 bc a8 d2 e0 3c 7c 00 b4 3c 23 2e a2 bc
       -0.014833724 0.027444199 0.021972887 -0.01979739
000080 a9 2e 2d 3d 1e 12 93 3c d7 c9 dd 3b 51 44 1d 3c
       0.042280827 0.017952975 0.006768446 0.009598807
000090 11 3f 65 bc f0 f6 c8 3c 4b d7 a8 bb 90 4a d8 3c
       -0.013992087 0.024531811 -0.005152618 0.026402742
0000a0 a1 0a c1 3c 4d 5d 80 3c 17 3e 5e bc 06 c7 7d 3c
       0.023564639 0.01566949 -0.013564608 0.015489345
0000b0 c0 aa 72 bc 80 f2 db b9 b2 16 8a bb 03 85 39 3c
       -0.014811218 -0.00041951612 -0.0042141313 0.011323216
0000c0 f3 60 9f 3c e9 e7 9d 3c b3 54 61 3c 59 f4 8f 3c
       0.019455409 0.019275622 0.013753104 0.017572569
0000d0 1a c0 9c bc a5 ad 7f bc 20 67 08 3b 3a 3d 1c 3b
       -0.01913457 -0.015605365 0.002081342 0.0023840205
0000e0 7a 71 2b bc e9 4b 0e bd cd 73 8e 3b 1f 0f 7d 3c
       -0.010464067 -0.034740362 0.0043473006 0.0154455
0000f0 dd 36 63 3d 95 4b a0 bc 2d 8c 27 3d 13 af 9a 3c
       0.055472244 -0.01956729 0.040905166 0.01888231
000100 2f 8d a8 3a 2b b4 88 bc 3c 0a a7 3c 1a 85 00 3b
       0.0012859459 -0.016687473 0.020390622 0.0019610585
000110 57 55 fb 3b ab 04 16 bd 92 fb ac bb 26 f9 78 3c
       0.0076700854 -0.036625545 -0.005279013 0.01519612
000120 05 bf 47 3c c3 d6 9c bb 0f 5f 59 bc 1f 35 98 3c
       0.012191539 -0.004786344 -0.013267293 0.018580018
000130 17 3e 80 bb d2 95 13 3d c5 b7 2f 3d 24 53 0b 3b
       -0.0039136517 0.03603155 0.042899866 0.0021259272
000140 8c 8d ed bc 7c 03 d3 3c ea ec 85 bc 21 0a 62 3c
       -0.028998159 0.025758497 -0.016348321 0.01379636
000150 3e 0a f8 3b 14 3a ff 3c 2d d3 87 bc dc f1 b7 3c
       0.0075695803 0.031155623 -0.016580189 0.022454195
000160 27 03 c3 bb e8 a2 b8 bc df 06 ae bc 66 d2 a1 bc
       -0.0059513035 -0.022538617 -0.02124351 -0.019753646
000170 4a ce c2 3c 79 5b 11 bc 9a 15 d9 ba b9 dc 82 bb
       0.023780007 -0.008871906 -0.0016562224 -0.0039935973
000180 72 75 84 bc b7 6b be 3c 06 22 8a bc 00 ed 76 3c
       -0.016169284 0.023244722 -0.016861927 0.015071154
000190 59 ec 9e 3b 07 b2 a3 bb 6e e3 29 bc a2 e5 c3 38
       0.004849952 -0.0049955877 -0.010369165 9.341097e-05
0001a0 77 fd aa 3b 63 09 ab bb 0b a0 54 bc c7 94 11 3d
       0.0052182036 -0.005219625 -0.01297761 0.035542276
0001b0 91 55 ed 3c 6b 5a d7 ba b7 ba e4 b9 99 d4 be bc
       0.028971465 -0.0016430145 -0.00043626662 -0.023294734
0001c0 8e ff 39 3b c1 2f 48 3b 6a b7 88 bb c1 bc d9 bb
       0.0028381082 0.0030546042 -0.0041722553 -0.0066448157
0001d0 2f 48 88 bc 11 70 ed 3b d8 f1 03 bc 43 74 34 3b
       -0.016635982 0.0072460254 -0.0080532655 0.0027535118
0001e0 63 74 c9 3a d4 3c f1 b9 ca 1a f2 3c 6b b0 97 3b
       0.0015369769 -0.00046012423 0.02955379 0.004629185
0001f0 40 f8 23 3b 90 64 c2 bc a6 4d 57 ba 1e 4f aa bc
       0.0025019795 -0.023729593 -0.00082131696 -0.02078968

network_body._body_endoder.seq_layers.2.weight f4 [128, 128]
000000 30 fc 18 3d 8b c1 b8 bc 65 59 7d bd 93 c0 a7 3d
       0.03734988 -0.022553226 -0.06185283 0.081910275
000010 7b 8d 00 be 58 38 1a 3d b3 76 85 3c 06 e3 9f 3d
       -0.1255397 0.03765139 0.016291952 0.07806973
000020 e7 8f 48 bd 24 a2 f7 3d 0d 38 b2 3d da 24 81 be
       -0.04896536 0.12091473 0.08702097 -0.25223428
000030 f2 87 0a 3e a6 24 f6 3c 36 d2 b5 3d 0a e6 53 3c
       0.13528422 0.030046772 0.08877985 0.012933264
000040 56 be 00 3d e1 29 cf 3d 62 14 9e bc a2 d8 c4 3c
       0.03143152 0.1011541 -0.019296829 0.02402908
000050 b4 01 bf 3d e3 da 5b bd c6 84 aa 3d ae 2c ab bd
       0.09326497 -0.053675544 0.08326106 -0.08358131
000060 6c 03 0f 3e 07 56 93 bd 12 24 03 be 81 ff 6e 3d
       0.13966149 -0.07194143 -0.12806728 0.058349136
000070 51 e2 89 be 7a 8d 26 3e ef 12 82 bc 54 e6 fd bc
       -0.26930478 0.16264907 -0.015878169 -0.030993618
000080 51 e0 cb 3d ff b0 64 3e 63 3c 9f bd 1a 76 0c bc
       0.09954894 0.22333144 -0.0777519 -0.0085730795
000090 87 59 c2 3c a0 ab 1f 3e 2c 08 8d bc 29 37 97 3c
       0.02372433 0.15592813 -0.01721581 0.01845892
0000a0 bf a5 cf 3d f9 88 cd 3c a5 0c 8b 3d 77 4c 1d 3d
       0.101390354 0.025089728 0.06789521 0.038403
0000b0 32 ae b7 3c 4e 01 f0 bb af 83 ef bc 33 b3 d9 3d
       0.02242193 -0.0073243743 -0.029237596 0.10629883
0000c0 84 92 88 bd cd 76 7e 3d 47 15 19 be 3a ca a4 bd
       -0.06668571 0.062125016 -0.14949523 -0.08046384
0000d0 84 7c f7 3d 03 b1 fc bd c4 b6 09 be fd c7 94 3d
       0.12084296 -0.1233845 -0.13448626 0.07264707
0000e0 75 ab 11 be 20 33 24 bd 32 f9 3e 39 08 59 42 3e
       -0.14225562 -0.04008782 0.00018212644 0.18979275
0000f0 80 7e b2 bc 90 69 3a 3d bd 85 ec bd e3 8b 79 bc
       -0.021788836 0.04551083 -0.11548946 -0.0152311055
000100 a8 81 46 bd ae a8 19 be 82 76 1f 3c c1 82 48 3e
       -0.048463494 -0.15005752 0.009732844 0.19581129
000110 0e cf 84 be 90 e5 9b 3d 2a 11 b9 bd 80 7a 1c 3e
       -0.2593922 0.07612145 -0.09036477 0.15281105
000120 e2 aa 7b bb 61 1a 28 3e 74 ef a2 3d d7 f2 d2 3d
       -0.0038401415 0.16416313 0.07955828 0.10300224
000130 86 98 56 bb 2d 6b ce 3d 5f 12 64 bd 59 6b 0b bc
       -0.003274472 0.10079036 -0.055681583 -0.00850948
000140 68 02 06 bd 74 6a 07 3e bd 04 81 bc c6 66 1d 3e
       -0.03271714 0.13224202 -0.01574933 0.15371236
000150 6e 32 19 3e 57 aa 92 bd b0 41 97 bd ce f2 6a bd
       0.14960644 -0.07161396 -0.07385576 -0.057360463
000160 30 6a 2c 3d 9c 3a 07 3e 36 72 13 be 39 9f e7 bc
       0.042093456 0.13205951 -0.14399037 -0.028274165
000170 11 38 4d 3d c9 d6 ea 3c fc 95 ea bd a4 e4 bf bc
       0.050102297 0.02866687 -0.114543885 -0.023424454
000180 f6 f2 b9 bd 83 e6 9f 3d 3a e4 d6 3c 17 7f 95 bd
       -0.09079544 0.078076385 0.026231874 -0.07299631
000190 c2 e4 a2 3d bb df b4 bd e6 da 9d bd 73 c4 05 3e
       0.07953788 -0.08831736 -0.07707767 0.1306322
0001a0 b3 4e 97 bd b0 ec 2c bd 27 06 6c bd 3f c6 f4 bc
       -0.073880576 -0.04221791 -0.057623055 -0.029879687
0001b0 1e d8 82 bc 7c 40 cd 3d de 37 df 3b b6 5f b0 3d
       -0.015972193 0.10022065 0.00681208 0.086120054
0001c0 cf 20 0d 3e 57 6a e7 3c a0 84 54 3e d9 c9 0a be
       0.13782047 0.028248949 0.20753717 -0.13553561
0001d0 01 d5 bb bd a1 4a 4d 3b 7b 97 89 b9 9a 43 99 ba
       -0.09171487 0.0031325 -0.00026243538 -0.001169312
0001e0 c7 bc 9d 3b c5 81 06 3b 07 b4 43 bd c8 ee 85 3d
       0.004813764 0.0020524126 -0.04777911 0.065396845
0001f0 c4 f4 cf bc a5 f8 9a 3d 22 c5 ab 3d ac d1 96 bd
       -0.025385268 0.075669564 0.083872095 -0.073642105
000200 76 7a 46 3d 49 3f ed 3d 4d 04 9e 3d 32 cc 14 3d
       0.04845663 0.11584336 0.07715664 0.03632755
000210 e1 5b 28 be cf 7c 9a 3d f9 85 79 bd 32 f5 ce bc
       -0.16441299 0.075433366 -0.060918782 -0.025263403
000220 7e f4 eb 3d 22 4e b6 3d dc 14 0b 3e ce aa 71 bc
       0.115212426 0.089016214 0.13582176 -0.014750196
000230 5f 9c f0 3c 2b 39 aa bd 88 21 8f bd f1 ee 0f 3e
       0.029371439 -0.08311685 -0.069888175 0.14055993
000240 a5 e8 98 bd 5f f3 6f 3d 12 4b 58 3d bb c2 ae 3b
       -0.074662484 0.058581706 0.052805968 0.0053332723
000250 b6 28 85 bc b4 68 f1 3d b6 49 0b be ec f9 8c 3c
       -0.016254764 0.11787549 -0.13602337 0.017209016
000260 87 65 29 3d c3 4e 38 3e e3 40 69 bd 20 42 ff bd
       0.04135659 0.17998795 -0.056946646 -0.12463784
000270 9e a6 d5 3d 12 74 f6 3c 66 9e 2a 3e 3c ab ab 3c
       0.1043217 0.030084644 0.16661987 0.020955674
000280 7a a7 6e be c6 50 80 bd 0b 32 cf bd 01 6f 16 3d
       -0.23306075 -0.06265406 -0.10116967 0.036726955
000290 ec 1a 75 bd 3b 0b de bc 5b 1e 01 3e cd 6e e5 bd
       -0.059840128 -0.027104964 0.12609236 -0.11202774
0002a0 92 7d 81 3d ca ff 27 bd f4 07 45 bd 1f 5c 0d 3e
       0.06322779 -0.041015424 -0.048103288 0.13804673
0002b0 58 24 1d be 76 79 e9 3b fa 56 5d bc 4c 17 ed bc
       -0.15345895 0.007125075 -0.013509506 -0.028941773
0002c0 4e 95 02 3c 26 a6 80 bc 45 fb 14 bc 6e 76 bc 3d
       0.007970167 -0.015704226 -0.00909311 0.09202276
0002d0 b9 94 04 3e c2 9c 53 3d 22 15 4c 3d 1e ff 43 bc
       0.12947358 0.051663168 0.04982484 -0.01196268
0002e0 1e 07 e7 bd 0e 67 11 bd 61 95 96 bd c2 d7 7d bd
       -0.11280654 -0.03549867 -0.073527105 -0.06197334
0002f0 b3 22 05 3d b0 00 97 3c d2 8d 52 3d 7e 6c f7 3c
       0.032503795 0.018432945 0.05140478 0.0302031
000300 9a 50 20 3e 14 17 0a 3e 81 a2 12 3e af ac 1e be
       0.15655747 0.13485366 0.14319803 -0.15495561
000310 32 1d 0f be 72 44 15 bd e8 2b db bc de 2d ab 3d
       -0.13975981 -0.036442228 -0.026754335 0.08358358
000320 bc 74 00 be 5c f6 cd 3d df 9f 40 bd e8 a2 88 bb
       -0.1254453 0.10056755 -0.047027465 -0.0041698106
000330 0f c4 1c 3d cb fa 11 bc 37 53 61 3c 24 49 13 3e
       0.038272914 -0.008909891 0.01375275 0.1438337
000340 57 6c b8 3d 64 8d 8e bc c0 29 1b 3d 23 e0 99 bd
       0.09005039 -0.017401405 0.037881613 -0.07513454
000350 ef 24 c2 bd 07 e3 2b 3d aa f3 56 bd ad dd ab bd
       -0.09479701 0.041964557 -0.05247847 -0.08391891
000360 0c b9 9a 3d 76 4b 87 bd db f7 a2 bd 8e 67 8e bd
       0.07554826 -0.0660619 -0.07957431 -0.06953345
000370 f4 df 0b be 01 5d cd bc 1f 5d e6 3a f5 a5 c9 3c
       -0.1365965 -0.025068762 0.001757536 0.024615267
000380 24 75 a0 3d 26 c9 f4 3d 53 38 3f 3d 41 43 84 3d
       0.07834843 0.119524285 0.046684574 0.0645814
000390 f1 8f 10 be 8f b4 b7 3c 49 8e d7 bd 12 84 d5 3d
       -0.1411741 0.022424964 -0.105251856 0.10425581
0003a0 78 a3 35 3d ac 1d 94 bd 36 77 4f 3d d2 b6 a0 bd
       0.04434535 -0.07232222 0.050650798 -0.0784737
0003b0 2c 79 9d 3c c0 1b 32 3d 95 72 77 3a e5 79 9b bd
       0.019222818 0.043483496 0.00094393763 -0.07591609
0003c0 89 ee a3 bd 0e ad ea bd e8 92 08 be ef 36 e2 bb
       -0.08004481 -0.11458789 -0.1333729 -0.0069035213
0003d0 34 e2 9c bd 04 fc 01 bc e4 2a ca 3d 83 b9 80 3d
       -0.07660332 -0.00793362 0.09871462 0.062853836
0003e0 c3 09 a7 3d 44 63 03 bd be 08 15 be 17 e5 93 3d
       0.08156159 -0.03207709 -0.14554116 0.0722143
0003f0 e8 ca 02 3e 19 71 25 3b 94 9c 01 bc 52 95 e1 3d
       0.12772715 0.0025244413 -0.007910866 0.11014809

network_body._body_endoder.seq_layers.4.bias f4 [128]
000000 47 fb f5 3a 31 e0 b7 bc f5 19 01 3c e3 6f 42 bc
       0.0018766903 -0.02244577 0.007879724 -0.011867496
000010 de cc 7c 3c 65 39 fc 3c a8 6f b1 3b 72 23 c4 3c
       0.0154297035 0.030789087 0.005414922 0.023942683
000020 3e af 85 3c 2f 7c 71 bc b5 a0 75 bc fd ed 82 3c
       0.016318914 -0.01473908 -0.014991929 0.015982622
000030 51 70 a9 3c 69 29 ce b8 23 6d 72 bc 3a eb d6 3b
       0.02068344 -9.830559e-05 -0.014796528 0.006558803
000040 49 e3 47 ba ec 52 2a ba 39 43 14 3a d9 52 05 3c
       -0.00076251157 -0.00064973417 0.0005655769 0.008137428
000050 12 56 94 3c 5f 38 7d 3c aa 79 42 3c f3 08 15 3c
       0.018107448 0.015455334 0.011869827 0.009096372
000060 05 b1 fe 3c 88 35 31 3c c0 16 bd bc 33 29 b4 3c
       0.031090269 0.0108159855 -0.023082137 0.021992302
000070 a3 07 94 3c 98 81 f8 3c ac ca 79 ba 3c 37 ce ba
       0.018070048 0.030335233 -0.00095287967 -0.0015733014
000080 08 bb eb bb 4f 8c 31 bc 84 c7 3d 3c 58 c4 28 bc
       -0.0071939267 -0.010836675 0.011583213 -0.010300718
000090 f2 07 60 bc 07 79 1c 3c 65 40 ed 3c 32 b8 c5 bb
       -0.013673769 0.00955034 0.02896137 -0.0060339207
0000a0 db 53 63 bc 67 4a b2 bc 5b 55 8d 3c 2d 40 63 bc
       -0.013874973 -0.021763993 0.017252615 -0.013870281
0000b0 cb 2c 5b bc 11 fd ba 3b e3 1f fd bb 9c c4 83 bc
       -0.013377379 0.0057064374 -0.0077247485 -0.016084962
0000c0 d7 e6 3f 3c d1 66 f9 3c 41 e2 a6 3c 65 47 60 3c
       0.011712751 0.030444534 0.020371558 0.013688897
0000d0 f7 76 82 3c 85 5a 23 bc 64 8f 3c 37 17 03 10 3d
       0.015925867 -0.009970312 1.1239059e-05 0.035159197
0000e0 85 ad 04 3d 41 ce fa 3a 4b cb 44 bb 00 c4 35 3c
       0.032392044 0.0019134955 -0.0030028399 0.011094093
0000f0 75 0e 8a 3c c4 82 24 bc da 52 6f 3c ad 68 dd bb
       0.016852597 -0.010040943 0.014607156 -0.006756863
000100 83 a5 15 3d 47 7b a2 3b 6e 15 c8 bc d9 10 03 3d
       0.036534797 0.0049585435 -0.024424281 0.03199849
000110 f5 b6 34 bc 84 e4 d3 3c 46 a2 9b 3c 33 b1 eb 3b
       -0.0110299485 0.0258658 0.018998276 0.0071927547
000120 d4 d7 d1 3b 13 6d 15 3c 0e 55 5c 39 b4 40 c2 3c
       0.0064039025 0.009120244 0.0002101252 0.023712493
000130 6f 69 86 3b 98 44 2a bb dd c8 37 3c 27 e4 cf 3b
       0.004101924 -0.0025980826 0.011217323 0.0063443366
000140 4b b3 92 bc bc 01 35 bd fb 2c a4 3a 89 36 f1 3b
       -0.01790776 -0.044191107 0.0012525612 0.0073612374
000150 e2 bc 03 ba 3b 2b ee b9 be 9b 6a 3b a1 04 f3 3b
       -0.0005025399 -0.00045427107 0.0035798396 0.0074163233
000160 1b 24 ae ba 58 06 08 3d 10 9a ae 3c 44 0b 82 3c
       -0.0013285907 0.033209175 0.021313697 0.015874512
000170 38 92 d7 bc 9c b6 27 3c dd d1 a2 bb d8 c6 4d 3d
       -0.02631484 0.010236409 -0.0049688653 0.05023846
000180 73 ed c8 3a ae 79 c9 bb 10 8e 51 3c 74 5e 6f 3b
       0.0015329554 -0.0061485386 0.012790218 0.0036524804
000190 4a a7 09 3c 56 da f8 3a 4c 39 4c bc 33 b3 54 bb
       0.008401701 0.0018985968 -0.0124648325 -0.0032455444
0001a0 c1 b7 af 3c 15 c4 01 3b 71 c7 b2 3b d1 61 17 3b
       0.021449925 0.0019800712 0.005455904 0.0023099075
0001b0 e5 c1 0b 3b 83 46 8a bc e5 08 f4 bb 4e 02 29 bc
       0.0021325287 -0.016879326 -0.0074473494 -0.010315491
0001c0 3a 7f 9b bc 81 fe 0b 3d b6 73 09 3c f4 cf d0 3c
       -0.018981565 0.03417826 0.008389404 0.025489785
0001d0 08 9c a9 bb 19 52 b4 3b ae e9 17 bb 89 7f df bc
       -0.005176071 0.005502951 -0.0023180055 -0.027282493
0001e0 06 1c 85 bc f0 b2 63 3c bd ca ac bc 6b d3 47 3d
       -0.016248714 0.0138976425 -0.021092767 0.04878561
0001f0 95 17 e9 bb 8a f8 92 3b ee a5 b6 3c 8c a8 06 bc
       -0.007113407 0.0044851946 0.022295918 -0.008218896
