results/SeekerAgent/SeekerAgent/SeekerAgent-6272.onnx (onnx, 145178 bytes, 9 tensors)

action_model._continuous_distribution.log_sigma f4 [1, 2]
00000000: bd20 893b 9490 cf3b
0.004184811 0.0063343737

action_model._continuous_distribution.mu.bias f4 [2]
00000000: 4f51 10bb e9c9 d63b
-0.002202112 0.0065548313

action_model._continuous_distribution.mu.weight f4 [2, 128]
00000000: 2fe1 e1bc 6ac8 9c3c df06 03bb 81bf e4bc
00000010: 82ac 923c 126b 1c3c 38e2 c33b 6e5e 0dbc
00000020: 2045 99ba dc92 8cba 0df1 22bb e13f 0c3c
00000030: aff6 3dbc 0b4f 8a3c c9fb 343c 292d 0f3d
00000040: ad63 cb3c 9a43 2f3d 8dfd fd3c 2d21 d13b
00000050: f641 1c3c eb0a e03c 4806 d53b 55bb e5bc
00000060: eafb e03b 41e0 1fbc 843c 893b 1292 903c
00000070: 299e 203b 887e 033d 71d8 6f3b f088 8bb7
00000080: 9099 3f3c 0b76 ccbb d456 863c 312a c3bc
00000090: 3e4b b23b 8ec1 e63c ec3c 4f3c 4814 273a
000000a0: ecf2 c03b 09b7 af3c f298 e83c 2b6f 83bb
000000b0: d92a f2bb 5760 8c3b 34d0 513b 29c3 cabc
000000c0: 7592 c63c 62af 82bc 92c2 f5bc d803 acbc
000000d0: 583e 843c 9910 80bb 434e 83bb 1b02 0e3d
000000e0: 2f57 f8bb db7b f7bb 3f42 473b 4196 ffbb
000000f0: 1cbd 583c 4f5c f239 a493 81bc 5f77 533b
00000100: 692c c7ba 59cd e7bc 69bd 0c3b e208 e5bc
00000110: d398 f3bc 2af5 5ebb 7e3e 5bbc 6bca 103c
00000120: 680b f5bb cbb6 b03b 0962 49bc 2748 973b
00000130: a60b 53ba 405d f73a 41ee 06bd 1852 7c3c
00000140: 12f3 83bb 2d86 8d3c 14da d33b 6f04 edba
00000150: f25b d73c 7ade 5bbb 0310 8fbc e5a9 f33b
00000160: 0ac9 a03c 8417 923a 1c52 1cbc 61d9 15bd
00000170: b42a 5bbc 5896 95bc e102 25bc b932 9c3c
00000180: 8a5a 663c 5fe7 75bc 062b 5abc e542 dbbb
00000190: 14f9 adbc 7ba6 58bc 5bcf c73b 1a79 ba3c
000001a0: 113b 49bc 3cc7 c7bb 6e4c 88bc cb6b d43c
000001b0: 25e7 3a3c ef0f 973c d4df 00bd 0368 6cbc
000001c0: 4bbb 92bc f4f3 9dbb fe6e 023d 9e5d 063d
000001d0: 022b 73bb 4f08 c3bc 42a7 50bc 0126 3ebb
000001e0: 1022 ccba 10ae 1d3c e25f 60bc 1582 b93c
000001f0: 653f 06bd 45bf 4dbc 9a4e 713c ea57 a33b
00000200: ef8d 2b3c a703 4abb 4098 2c3d 4129 14bd
00000210: 7686 103c c413 a3bc 8c7d 7a3b 4b83 e73b
00000220: 0329 17bd 275b 9fbb a801 1cbd da5f 803c
00000230: f825 963c 74e9 483c 0114 cebc 5fb5 833b
00000240: 85c0 9f3b de77 2fbc dc65 0e3c b50a 7dbb
00000250: 074d c0bc 6320 b8bc 1adc 223c 8a40 d53b
00000260: 0ea1 5d3c 2e29 963c edb6 6dbc cb4a 203c
00000270: 79b1 30bc 265d fb3c 14f9 173c 91d6 463d
00000280: 8d10 6e3c eaec c4bc 8fb9 a0bb c848 153d
00000290: c03e 073d fd6b 803c 6fc8 bb3b 1318 4c3d
000002a0: ed67 0fbc fe1e 20bb 9721 813c 5e6a 503b
000002b0: b61f a73b 79e0 b63c b1fc 0b3d 0a0a c4bb
000002c0: 96c4 b2ba 1657 20bc 8882 80bb db99 f53c
000002d0: 3a41 a33c d9a3 a43c d76d 0cbb c759 5b3b
000002e0: dac9 86bc eb84 c1bc 6ec0 183c 6945 84bc
000002f0: 03b8 82bc ee5b fc3c 9994 90bc ec7c 10bd
00000300: 32c9 85bc fe17 b03b 8df4 e7bc c60b 8c3c
00000310: e4d7 7a3c 2229 853c 7cbe 7a3b 5125 e6bc
00000320: 244d d8bc e8f5 293a df14 86bb f5de 1cbd
00000330: 3e5d ea3c af7f cdbc c078 f93b b3b5 7a3c
00000340: eba4 91bc 6667 21bd dc1b 443c 7986 5bbc
00000350: 164a e3bc 9239 cc3b 7e85 03bd 1f6a 9bbc
00000360: 0ceb 00bd 818a 13bd 4e1b d1bc 0987 ab3c
00000370: 91f8 0bbc 65f6 803c 8c3b e4bc f837 5c3c
00000380: b16b b5bc 4cb3 8d3c 468c 78bc 7283 1d3c
00000390: 7ae5 b53c 6046 17ba b24b d63c d076 ca3c
000003a0: 894c 76bc 9202 12bd 1dda fd3c 99c5 82bc
000003b0: 69cd a3bc 7a94 0dbc e4c6 1ebc 5930 f83b
000003c0: 93b5 f5bc 00a9 98bc 53f2 a5bc 4497 05bd
000003d0: bbf7 9bba f8a0 2d3d 7bc4 f9bc e017 a6bc
000003e0: 8c4f 89bc 31d1 003c e764 5b3d 70b5 043d
000003f0: ac5d a4bb 6d18 b33c 205f 69bc 5b72 d2bc
-0.027573196 0.019138534 -0.001999311 -0.027923347 0.017904524 0.009547012 0.005977895 -0.008628471
-0.0011693574 -0.001072492 -0.0024862916 0.008560152 -0.0115944585 0.016883394 0.011046358 0.034955177
0.024827803 0.04278908 0.031004691 0.0063821287 0.009537211 0.027348956 0.006500993 -0.028043428
0.006865968 -0.009758056 0.004188122 0.017647777 0.0024508333 0.03210309 0.0036597515 -1.6633858e-05
0.011694327 -0.0062396578 0.016398825 -0.02382383 0.0054410985 0.028168466 0.012648802 0.00063735666
0.0058883335 0.021449583 0.028393243 -0.004011055 -0.0073903617 0.0042839455 0.0032014968 -0.024751263
0.024239758 -0.01595277 -0.030000005 -0.020997927 0.016143009 -0.0039082286 -0.0040071323 0.034669977
-0.0075787525 -0.0075526065 0.0030404476 -0.007799894 0.013228681 0.00046226612 -0.01581747 0.0032267196
-0.001519573 -0.02829616 0.0021475202 -0.027958337 -0.029735958 -0.003402064 -0.0133815985 0.008837323
-0.0074781664 0.0053928844 -0.01229144 0.0046167555 -0.0008050747 0.0018872395 -0.03294206 0.015400432
-0.004026779 0.017275894 0.006465206 -0.0018082986 0.02628896 -0.0033549354 -0.01746369 0.0074360245
0.019627113 0.0011145924 -0.009541061 -0.03658426 -0.01337688 -0.018260166 -0.010071487 0.019067155
0.014059672 -0.015008776 -0.013315922 -0.006691324 -0.021236934 -0.013223286 0.0060977167 0.022762824
-0.012282149 -0.0060967486 -0.016638007 0.025930306 0.011407648 0.018440215 -0.03146346 -0.014429095
-0.017911574 -0.0048203412 0.03184413 0.032804124 -0.0037104492 -0.023807673 -0.01273519 -0.0029014351
-0.0015574116 0.009624019 -0.013694735 0.022645036 -0.0327753 -0.012557809 0.014728213 0.0049848454
0.010470851 -0.003082493 0.042137384 -0.036172155 0.0088211205 -0.019906886 0.0038221804 0.007065212
-0.036904346 -0.004863161 -0.038087517 0.015670706 0.018328652 0.012262691 -0.025156023 0.004019424
0.004875245 -0.010709731 0.008691277 -0.0038611118 -0.02347423 -0.02247638 0.009940172 0.006507938
0.013527168 0.018330183 -0.014508945 0.009783457 -0.0107845 0.030684065 0.009275693 0.04854447
0.014530313 -0.02403875 -0.004904933 0.036446363 0.033018827 0.015676493 0.0057306807 0.049827646
-0.008752805 -0.0024432535 0.015763087 0.003180168 0.005100216 0.022323834 0.034176532 -0.005982642
-0.001363891 -0.009786388 -0.0039218105 0.02998059 0.019928563 0.02009766 -0.0021427774 0.003347026
-0.016453672 -0.02362295 0.009323223 -0.016146379 -0.015956884 0.030805554 -0.017648982 -0.035275385
-0.016331289 0.005373954 -0.028314853 0.017095458 0.015310261 0.016254965 0.003826051 -0.028093966
-0.026403971 0.0006483481 -0.0040918435 -0.038298566 0.028608914 -0.025085298 0.0076132715 0.0153021095
-0.017778834 -0.03940525 0.011969533 -0.01339876 -0.027745288 0.006232449 -0.03210973 -0.0189715
-0.03147416 -0.03602076 -0.025525715 0.020938413 -0.00854315 0.01574249 -0.027860425 0.013441078
-0.022146078 0.01729741 -0.015170163 0.009613859 0.02220415 -0.00057706796 0.026159141 0.024714857
-0.015032896 -0.035646982 0.030987794 -0.015963363 -0.019995408 -0.008641357 -0.009690974 0.007574123
-0.029993808 -0.018635273 -0.02025715 -0.03261496 -0.0011899391 0.04238984 -0.030489197 -0.020275056
-0.016761564 0.007862375 0.053563025 0.032399595 -0.0050160494 0.021862233 -0.014243871 -0.025689295

network_body._body_endoder.seq_layers.0.bias f4 [128]
00000000: 9df8 06bc be35 05bc 5f1d f3bb d33b 01bc
00000010: e6a5 8fbb 9179 123c 223e 213a 5c41 943b
00000020: c622 c3bb 1def 733b 6976 e2ba 1350 a7bb
00000030: 7339 c13b 37e5 efbb b632 c3bb 2dd1 abbb
00000040: 3e55 b6bb 783b d23b 5f7c 99bb 9b1f 003c
00000050: 6f8a aabb 6772 d0ba be33 e63b 11c0 c53b
00000060: 08b6 82bb 8096 a03b cad7 0dbb 80ce 17ba
00000070: 9fa0 ba3b 2b38 b93b bfca 1ebb 1335 a53b
00000080: 3568 78bb 6f90 c6bb a953 bfba c629 89bb
00000090: 2333 93bb 221e 853b e32f 98bb 4dd7 0537
000000a0: c4df e83b f37b ab3b d3a7 a1bb 52a5 aabb
000000b0: cf97 94bb 5f49 6fbb 9c6c d53b ce51 32bb
000000c0: 5196 893b 8200 aa3b 627a d73b e51b 01bc
000000d0: 8231 ae3a 15b6 da3a dcca d33b 6b5f 9c3a
000000e0: 4bbb e7ba 6837 8abb dc65 2bbc 7350 143b
000000f0: 1ac3 903a 30f4 593b 8db7 e93b a7c3 51bb
00000100: 566b a3bb 990d f53b 5b5d c2ba 41ca c0ba
00000110: cd27 25bc ef04 003c b124 47bb e65e af3b
00000120: c1c2 83bb 8820 10bb ee4b d1bb 6324 cd3b
00000130: 106b 01bc f5f3 dfbb 7f9a 92ba e1d9 c23b
00000140: 8445 16bb b8e2 b13a 28f7 db3b 1531 b8bb
00000150: 69e0 b1ba 07ee e7bb eed6 02bc 85bb 06bc
00000160: 0c15 8d3b be0d 0ebb 3be1 98bb 3cab 023c
00000170: 4a6c 9e3b 6d12 cf3b f5fc 19bb 61f9 e2bb
00000180: 0a6a 1e3b 3594 f13a 2852 28bc 8dac da3b
00000190: 57e5 e83b 1720 8cba 7910 43bb a252 ecb9
000001a0: 9714 f6bb 9e20 88ba 79fc 693b 1bf6 803b
000001b0: 086d 033c a4c7 cf3b 599f 6ebb 5824 3dbb
000001c0: a211 8e3b 8121 83bb bc04 1e3b 7352 9b3b
000001d0: c60e 043c 57ec f73b 6fea dabb 9e82 d2ba
000001e0: 3285 cd3b 117d 68bb dc9f b33b 5810 11b9
000001f0: 8290 a43b 2d24 12bc b62a ab3a 5ecc 0f3a
-0.008237985 -0.008130489 -0.007419273 -0.007887798 -0.0043837903 0.0089401165 0.0006150921 0.004524393
-0.005955073 0.003722138 -0.0017277721 -0.005105981 0.005896741 -0.0073210257 -0.005956973 -0.0052434416
-0.005564361 0.0064157806 -0.0046840156 0.007820035 -0.005204491 -0.0015903235 0.007025211 0.006034859
-0.003988985 0.0049007535 -0.0021643513 -0.0005790964 0.005695417 0.0056524477 -0.0024229733 0.0050417273
-0.003790391 -0.0060596983 -0.0014597076 -0.004185888 -0.00449218 0.00406243 -0.0046443804 7.977546e-06
0.007106753 0.0052332818 -0.0049333363 -0.005207696 -0.0045346986 -0.0036512238 0.0065131914 -0.0027209404
0.0041988273 0.005188049 0.0065758685 -0.007880186 0.0013289901 0.0016686345 0.0064633917 0.0011930292
-0.0017679719 -0.0042180307 -0.010461297 0.002263096 0.0011044473 0.003325712 0.0071324767 -0.0032007487
-0.0049871607 0.0074784276 -0.0014828847 -0.0014708714 -0.01008029 0.007813676 -0.003038686 0.005351889
-0.004021019 -0.0021992046 -0.0063872254 0.006260441 -0.007899061 -0.006834502 -0.001118496 0.0059463833
-0.0022929618 0.0013571596 0.006712813 -0.0056210854 -0.0013570908 -0.0070779356 -0.007985814 -0.008223419
0.0043054875 -0.0021675671 -0.0046655214 0.007975396 0.0048346864 0.006319335 -0.0023496721 -0.006926701
0.002417209 0.001843101 -0.010273494 0.0066734017 0.0071074176 -0.0010690716 -0.0029764457 -0.00045074994
-0.0075097787 -0.0010385697 0.0035703464 0.003935588 0.008021601 0.0063409377 -0.0036410897 -0.0028860774
0.004335598 -0.0040017967 0.0024111709 0.0047400533 0.008060163 0.0075660157 -0.0066807787 -0.0016060655
0.0062719816 -0.0035474936 0.005481703 -0.00013834366 0.0050221095 -0.008919758 0.0013058993 0.000548547

network_body._body_endoder.seq_layers.0.weight f4 [128, 18]
00000000: 4ffe 833e bcba eb3c 338b dabe 60a4 01be
00000010: c60b 6f3c dce7 1cbe 56fa 6fbb 98fe 58bd
00000020: 86b4 0ebe 2e4b dabc 5d9a b1bd 9463 b8be
00000030: 93a4 4a3e 615b 73be 8554 a2bd 22d2 98bd
00000040: 4d5b 093e d6d7 0abe 2c1b 62be cf61 8f3c
00000050: dabf 8d3e 06c0 bbbd e13e 933c 3966 babe
00000060: 9315 b7be 48f8 a13e 917d 8abe 9693 20bf
00000070: c496 20be 514a 67be c89d debd 4178 9ebe
00000080: 26d8 15be 5078 c7be 81d0 533c f5aa 65be
00000090: f2ee 7fbd 548e d9be 4ae1 033d d502 8a3d
000000a0: 20d6 76be ea9f e8be e6c0 50be 563f 2c3e
000000b0: ff57 5b3d 8b77 043e 073b 053f 6956 10bf
000000c0: 0da1 76be 9a33 a43d 9506 863e e09f 6bba
000000d0: ae1b 9dbd 17f7 8bbe 0119 3cbe 2a64 89bb
000000e0: 5b59 c7bc 9801 073e 7c9f f83e cf2a 43be
000000f0: 1725 263e 87da 8fbe c9c7 27bd cee2 003e
00000100: 4ecf 253e 20f2 c8bd 9a31 883e c54f 06be
00000110: ac27 cc3c a8cc ecbe 1dbc 0b3c 0cbd 563e
00000120: 52ba b13c f484 0ebe 6b37 ea3d ce1f edbe
00000130: c8dc 713e 68a6 85be 84ed 33bc 82c4 a3be
00000140: cb47 9cbe 2f1e c7be ead3 013f fc35 a23d
00000150: 3b46 2ebe 6cd6 533e 53b7 74bd f2a9 8b3e
00000160: 7406 ae3e 8703 c43e 5ce3 2a3e 7bcd 1c3e
00000170: decd 793e 2758 463e 3e20 37be 6fdc 773e
00000180: 5e9f 8b3e 7010 f4be 5ebf 23be 7d84 66be
00000190: 70e4 463d 3779 983c 31aa 733d 05e7 01be
000001a0: cd9d 0abe ad4a 15be a270 9a3e 1296 773e
000001b0: 1b5b 493b d747 253e ead2 ddbe 5464 c0bd
000001c0: e3f3 ccbd fffd da3d 39e4 aa3e 8e9d db3e
000001d0: 3864 2f3e 8ea7 6bbd a709 783e ebbd 383e
000001e0: 3a28 653e 5a90 1ebf 4ab4 9e3d a5e3 f33d
000001f0: 0233 4abe 5ac8 a8be f0ba e53d 19cc 6cbe
00000200: 6a22 c7be b655 63bc c7af 2f3e 6b2b b1bd
00000210: d13f 93be b9f5 863d 06a7 bdbd 37ac 46be
00000220: 1ae5 293e 9b81 f43c a930 4a3e be2f 95be
00000230: 6627 f3bc becb d63e b8fd 37be f15c 4d3e
00000240: 3514 2a3f 1c4d f43e 2830 d1be f5f2 83be
00000250: c9bc e33e c328 ea3d 0c46 563d 01fe b2be
00000260: 5263 b4be 6560 95be 66c7 983d 117d 8a3e
00000270: 3ca1 5a3e 18ef 413e b718 09be 7417 a13e
00000280: 08c2 283e 6f1d 8fbd d45b 4a3d 2d47 89be
00000290: 489c 0ebe 7c7c 08bf 611f 77bd d549 66bc
000002a0: 3217 12be 7bfb 823e 5597 66bd 148b 3dbe
000002b0: d49b 183e 3529 3a3e f05b e63e 952c 36be
000002c0: 6e8f 5f3e 37eb 433e a094 7bbd e02b 953e
000002d0: 7994 6a3d c5d8 f63d 8053 cabe 9df9 95bd
000002e0: e253 3abd 2619 fa3e e9cc 533e 6682 b2bd
000002f0: d0c0 8f3e 84fe 503e 676e 28bd e737 4abe
00000300: 34a5 6e3e 3d77 a23e 88eb 943e 05cf 3dbd
00000310: 61e8 eb3d 34ec bf3e d476 c23e 126e 4b3e
00000320: 9db4 09be d7ee 093d d3d9 543d 8e64 a73e
00000330: 4dee 503e 90a5 91bd 0180 9a3e f27a fbbc
00000340: 0991 98be beeb 04be f323 0bbd a7f7 85bd
00000350: e75b ab3d c694 21be ce59 aa3d a9f5 a33d
00000360: ad78 873e 396d c63d 2f5f 02be 873e bcbe
00000370: c325 ad3d a69d 383e 5ad3 55bd aa75 8a3d
00000380: 9f2b e5bc fc69 013f 5300 63bd fbd5 18be
00000390: 8a36 51be d3f6 873e 1878 9e3d 1cbc 4d3c
000003a0: 2bca 0c3f f54a 173e 506a 03bd 31a9 15be
000003b0: b2f4 6f3e 3d29 b4be 2be1 5bbe 2e0d c1bd
000003c0: 4aa0 4cbd dd90 ef3d c558 323e d364 c53c
000003d0: 51b8 76bd e1a7 593e bbd2 dabd b2a3 30bf
000003e0: b911 abbc 9b5e 9c3e 66f2 5dbd 24bc d63c
000003f0: 2bee 263c 1376 853d 492f b43e acdd 5ebe
0.2577996 0.028775565 -0.42684326 -0.1266036 0.014590209 -0.15322822 -0.0036617718 -0.052977175
-0.13936052 -0.026647177 -0.086720206 -0.36013472 0.19789343 -0.23765327 -0.07926277 -0.07461955
0.13413735 -0.13558897 -0.22080678 0.017502693 0.27685434 -0.09167485 0.017974319 -0.36406115
-0.35758647 0.31634736 -0.27048925 -0.627252 -0.15682513 -0.22586943 -0.10869938 -0.3095112
-0.14633235 -0.3895898 0.012928129 -0.22428496 -0.062483735 -0.424914 0.032197274 0.067388214
-0.2410512 -0.45434505 -0.20386085 0.16821036 0.053550716 0.12936227 0.52043194 -0.5638185
-0.24084873 0.08017655 0.26176897 -0.0008988362 -0.07671295 -0.27336952 -0.18368913 -0.0041928487
-0.0243346 0.13184202 0.48559177 -0.19059299 0.16225086 -0.2809641 -0.040962014 0.12586519
0.16192362 -0.09811807 0.26600343 -0.13116367 0.02492126 -0.4624989 0.008528736 0.20970553
0.02169529 -0.13917905 0.114363514 -0.46313328 0.23619378 -0.2610352 -0.010981921 -0.3198586
-0.30523524 -0.38890216 0.5071398 0.07920453 -0.17018978 0.20687264 -0.059745144 0.27278095
0.33989298 0.3828394 0.16688293 0.1531276 0.24394938 0.19369565 -0.17883393 0.24205182
0.27270025 -0.4766879 -0.1599097 -0.22511478 0.0485577 0.018612487 0.05948848 -0.12685783
-0.13536759 -0.14579268 0.30164057 0.24178341 0.003072447 0.16140686 -0.43324977 -0.09394136
-0.10007455 0.10692977 0.33377245 0.42893642 0.17128074 -0.05753284 0.24222432 0.18041198
0.22378626 -0.61939013 0.07749231 0.11908654 -0.1974602 -0.32965356 0.11217296 -0.23124732
-0.38893443 -0.013875416 0.17156897 -0.086508594 -0.28759626 0.065898366 -0.09260373 -0.19401632
0.16591302 0.029846957 0.19745125 -0.29137987 -0.029681873 0.41952318 -0.1796788 0.20054986
0.66437083 0.4771508 -0.40857053 -0.257713 0.4447997 0.11433556 0.052312896 -0.34959415
-0.35232025 -0.29175106 0.07459907 0.27048543 0.21350569 0.18938863 -0.13388334 0.31463206
0.16480267 -0.06988036 0.04940398 -0.26812115 -0.13926804 -0.5331495 -0.06033266 -0.014055689
-0.14266661 0.2558249 -0.056296665 -0.18510085 0.14903194 0.18179782 0.44992018 -0.17790444
0.21832058 0.19132696 -0.061421037 0.29135036 0.0572705 0.12053064 -0.3951683 -0.073230006
-0.045490153 0.48847312 0.20683636 -0.08716278 0.28076792 0.2040959 -0.041120913 -0.19747888
0.23305207 0.31731597 0.29085946 -0.046340007 0.11518932 0.37484896 0.37981284 0.19866207
-0.13447805 0.03367504 0.051965546 0.32693905 0.20403405 -0.07111657 0.30175784 -0.030698273
-0.29798153 -0.12980554 -0.03396983 -0.065413766 0.08367138 -0.15779409 0.0831791 0.0800584
0.26459256 0.09688801 -0.12731622 -0.36766455 0.08454468 0.18028888 -0.052203514 0.06760724
-0.027974902 0.50552344 -0.05542023 -0.14925377 -0.20430961 0.265555 0.0773775 0.012557056
0.54995984 0.14774688 -0.03208381 -0.14615323 0.23433188 -0.35187712 -0.21472614 -0.09426342
-0.04995755 0.11697552 0.17416675 0.024095928 -0.06023437 0.21255447 -0.10684725 -0.6899978
-0.020882474 0.30540928 -0.054186247 0.02621276 0.01018862 0.065166615 0.35192326 -0.21764249

network_body._body_endoder.seq_layers.2.bias f4 [128]
00000000: 997a 743b e374 02bc a502 ee3b 6d9b b73a
00000010: 1edb 20bb cb09 b439 f952 20b8 8249 75ba
00000020: e8d8 eabb b585 b5bb 3e92 953b 53bd 84bb
00000030: bdfb 45bb 3b27 35bb c1e1 dbbb 4596 d93b
00000040: cacf 73bb 8483 833b 9caf f43b 6299 8eba
00000050: 9d90 cf3b f104 8abb a5e4 983a c8db 003c
00000060: c1dc b5bb c94c 2ebb a698 d3bb c213 213b
00000070: fbf6 9d3b 1a84 d3bb cdaa dd3b 05c5 5b3a
00000080: adbf d7bb bcb5 cbbb 9c6b 99bb 27e4 bfba
00000090: 2005 643b 95bb c33b 73cc e53b bcae be3b
000000a0: d52f ecbb 773d 9dbb 7c02 983b 2b50 94bb
000000b0: 69bd febb 0a96 e1bb 975e 55bb 653d 6a3b
000000c0: 1578 493b b3a2 cf3b 0d80 c63b f3ca ed3b
000000d0: b85a 4e39 bb99 a0bb 4c37 aabb 0b5e e8bb
000000e0: 1ec5 c4bb 142f 98bb d323 ce3b 09e5 f43b
000000f0: 1663 253b f820 633b 3a01 dabb 88f3 963b
00000100: 2603 1f3a be10 c53a e61d 14bb b002 b03b
00000110: b5df c13b 1fd3 d8bb 1fdb cfba 739e 433b
00000120: a082 cfbb 095b 113b c5d4 963b ce17 a2bb
00000130: 83c9 ee3b bcec dabb e959 443b c4dd e13b
00000140: cade 6fbb 2c7f 8b3a f226 e23b b756 1f3b
00000150: 73f0 a1b7 d53a 2f3a c2e9 adbb a3d2 d5bb
00000160: b3d9 02bc 25ff 13bb cd64 beb9 543a b03b
00000170: 4c81 bf3b 250a c03b 3d38 e2b8 9e64 acbb
00000180: d8b1 e63b e092 91bb 9d2d dbbb f874 f33b
00000190: 0cfa ea3b 080e d6bb f035 a6bb 42fd a33b
000001a0: 17cc d4b9 683a fabb 00d1 b2b9 aa47 c7bb
000001b0: 4f71 423b a16d e13b e32d f8ba e223 49bb
000001c0: 1ecf 323b 373b 21bb 03c4 d73b a9b5 bebb
000001d0: b0f2 7a3b bf6d e2bb c71e ef3b bcbd e8bb
000001e0: 10e7 ceba f377 e23b aefc 5a37 67a5 8339
000001f0: 6dac 4ebb b379 103b 4b31 b0bb 777e ec3b
0.003730452 -0.007962438 0.007263499 0.0014008112 -0.0024544667 0.00034339572 -3.8224247e-05 -0.0009356962
-0.0071669705 -0.0055396208 0.0045645526 -0.0040508895 -0.0030209862 -0.0027641791 -0.0067102616 0.006640228
-0.003720271 0.0040134806 0.0074672233 -0.0010879452 0.006334378 -0.004212015 0.0011664821 0.0078649
-0.0055499976 -0.002659606 -0.006457406 0.0024578427 0.004820702 -0.0064549567 0.006764746 0.0008383545
-0.006584129 -0.006216733 -0.0046820175 -0.0014640138 0.0034793094 0.0059732893 0.0070128976 0.00581917
-0.0072078505 -0.004798587 0.004638968 -0.0045261583 -0.0077740443 -0.006884341 -0.00325576 0.003574216
0.003074174 0.006336534 0.0060577453 0.0072568594 0.00019679486 -0.0049011386 -0.00519458 -0.007091289
-0.0060049435 -0.004644284 0.0062908917 0.007473592 0.0025236062 0.0034657102 -0.0066529782 0.004606668
0.0006065838 0.0015034897 -0.0022600829 0.005371414 0.0059165605 -0.0066169645 -0.001585815 0.0029849082
-0.0063327104 0.0022179505 0.004603001 -0.0049466854 0.0072872057 -0.006681053 0.0029960817 0.0068928916
-0.0036601298 0.0010642759 0.0069016153 0.002431316 -1.9304664e-05 0.0006684487 -0.005307407 -0.006525354
-0.007986474 -0.0022582498 -0.00036314726 0.005378047 0.005844271 0.0058605843 -0.00010786995 -0.005261018
0.0070402436 -0.0044425577 -0.006688787 0.0074297152 0.007170921 -0.0065324344 -0.005072348 0.005004556
-0.0004058785 -0.007636357 -0.00034106523 -0.006081541 0.0029669588 0.006879524 -0.0018934574 -0.0030691554
0.0027284096 -0.0024601945 0.0065846457 -0.0058199954 0.0038291626 -0.0069100554 0.00729737 -0.007102696
-0.0015785415 0.0069112717 1.3052644e-05 0.000251095 -0.003153588 0.0022045195 -0.00537697 0.007217224

network_body._body_endoder.seq_layers.2.weight f4 [128, 128]
00000000: 448f c5bc 1452 2b3e 2045 273c fac3 1d3e
00000010: 35bd 12bd 9153 38bd 4514 4c3e 2691 c8bd
00000020: df8c 563d ecb2 0c3c 84ca 513d 9aa6 323d
00000030: 1ccd 043e cad5 9d3e 689d d7bd ee4f 49bd
00000040: 2597 b6bc b240 273e a7aa fdbd 7f21 25bd
00000050: 7652 02be 30fb 5cbc 7eda 36bc fabf 06bd
00000060: 43c9 07bb e970 a9bd c741 4abd b788 433b
00000070: f577 03be 2027 f4bd 5d67 443d 1840 8d3d
00000080: 5320 523d 5624 2abe 7ee4 953c 32e6 93bc
00000090: ec53 033c 72ed 8d3d 01fa fcbd f77e 3a3d
000000a0: 50d4 1ebc fe14 b0bd 4657 993d dec7 37bd
000000b0: 4b80 313d 84a1 40bd 4cfe 1f3d 8a4d 3b3e
000000c0: 5ec2 033e a426 a4bc abfc 1d3d 648f ecbd
000000d0: 4b65 46bd 2428 c93c 8494 47bd 446f 713d
000000e0: a16f 00be 45df 933d ab77 0bbe 3787 33bc
000000f0: 00f0 41bd 8704 e3bd b9df 9ebd 7c82 f73c
00000100: 946f 84bd c4b2 60bd 6e60 89bd 36cc 9bbc
00000110: 0637 88bb a7f1 fcbd 89b4 65bd 3d33 49bd
00000120: 22f1 323d 7097 18bd 2afe dcbd 9ffa 233d
00000130: b8a1 033e 3624 0e3e 7611 543b a082 08be
00000140: fcd7 333e c833 d23d 00e3 113e c26a 8cbd
00000150: 64dd 3dbc f7b0 263e 9be6 4fbd d9b8 af3d
00000160: 74cc 893d a3f8 91bc e0d7 473d 92aa 8b3d
00000170: 5e4f e3bc 9e8d 363d 75b5 153e 4f33 9fbd
00000180: 4296 8b3d 8f93 153d 2c99 533b bf32 553d
00000190: 42b5 fa3d dc3d 173e 6233 0dbe d1cd 8dbd
000001a0: 09ee 1ebe e908 423d adb4 9fbd 339b 013e
000001b0: 362a 663d 6efd 63bd f156 05bd 6349 f3bd
000001c0: 6777 313e 1baa e2bd b0b8 66bd 7ddd a3bd
000001d0: 161c 8dbd ca48 30bc 7b52 013d ba88 dbbd
000001e0: 015f e0bd 8f8e 303e 325f 41bd 1a3c 72bd
000001f0: d007 9d3d 8fe2 343d 042f c23d cf98 cf3d
00000200: 8a78 b13d ff5b 42bc c3ec 7f3d 761a b73d
00000210: 900a 363d 4acd 91bd 54e7 9abd 71f5 263d
00000220: 5f41 9fbd 3e6a 88bd 468c fabd c8a6 a8bd
00000230: 717b cdbd fb8c 8c3d 8e94 2bbd 9f15 be3d
00000240: 58ff 1f3e e903 04be 0fdb b93d 2640 60be
00000250: 2c1d d0bb c4c0 003d 12b5 63bd 372f dcba
00000260: 2a21 6f3c bf13 9abd 9447 5a3d 4a68 b0bc
00000270: c5eb 6bbd 706e 5a3d 4001 a13d 7529 0b3e
00000280: 01c6 1e3d e5c3 063e 7952 463c 9c04 f03c
00000290: 380f f03d 6f06 313d 107a bdbd 4f69 e13d
000002a0: 94ef 4e3c 60a8 1abd 935d 0dbd e939 8a3d
000002b0: 2660 c8bd 01e7 35bc d67a a2bd df68 d33c
000002c0: 8cba 9d3d dd3e 963c 3158 71bd 5123 cebd
000002d0: 7ebe 89bd 036f 80bd 2416 a5bc e7ec c6bc
000002e0: 8301 9dbd b23e 023d aa13 233e e960 18bd
000002f0: b709 08be d412 60bd e120 60bd 1021 983d
00000300: 1468 a73c 0401 8ebd 4797 0a3e 5d53 96bd
00000310: 3441 ca3c 2bd9 49ba ff33 f0bd e1a3 84be
00000320: fa20 42bd 64f8 01bd dab4 0bbd 324d e13d
00000330: 0d3c ffbc 9306 843d a658 ce3d 5325 203d
00000340: 4010 edbd f6da cebd 4968 793e 8633 0abd
00000350: 9f55 76bd f5a7 5fbd 3486 a03c 8126 70be
00000360: f66e 8cbd 9127 943d d9bd a9bd 7f91 733b
00000370: 8185 023c e535 7ebd 06e2 a4bd da44 963d
00000380: e22e 4b3d 0e3b f93d 80ea 613d d0b1 b5bd
00000390: df96 393e 7139 2cbd d3b6 7fbc 3906 263e
000003a0: 2a8e 973c f286 59bd 5c5b af3d 8134 f1bb
000003b0: d1be 58bd eeba 933d 6f2d 17bd 279f a43d
000003c0: 9864 b7bd f98c 0cbc 33d5 9b3c b828 bfbd
000003d0: 8b99 dc3d bba5 893d 4de9 053e 979d 4bbe
000003e0: e46a 0ebd df2a 203e 52e5 fa3d 924a ddbc
000003f0: 4bc5 003e a17d 3a3e 7f88 f5bc fea4 7fbd
-0.024116166 0.16730529 0.010209352 0.1540679 -0.035824973 -0.04500157 0.19929607 -0.0979331
0.05238044 0.00858758 0.051218525 0.043615915 0.12968868 0.3082717 -0.1052807 -0.049148493
-0.022288868 0.16333273 -0.12386065 -0.040315147 -0.12726769 -0.013487622 -0.011160491 -0.032897927
-0.0020719327 -0.08273489 -0.049379136 0.0029836127 -0.12838729 -0.11921525 0.047950137 0.068969905
0.051300358 -0.16615424 0.01829743 -0.018054102 0.008015614 0.06930055 -0.12352372 0.04553124
-0.009694174 -0.08597754 0.07487349 -0.044868343 0.04333524 -0.047029033 0.039060876 0.18291298
0.12867114 -0.020037957 0.03857104 -0.11550787 -0.048436444 0.024555273 -0.04872562 0.058944
-0.12542583 0.0722032 -0.13619868 -0.010957531 -0.047348022 -0.11084848 -0.077575155 0.030213587
-0.06466594 -0.054857984 -0.06707846 -0.019018274 -0.00415695 -0.12350779 -0.056080375 -0.04912113
0.043686993 -0.037253797 -0.107906654 0.040033933 0.1285466 0.13881001 0.003235904 -0.1333108
0.1756286 0.10263783 0.1424675 -0.068563 -0.011588428 0.16278444 -0.050757032 0.08580179
0.067284495 -0.017818755 0.04878986 0.06819643 -0.027747806 0.04456865 0.14620002 -0.07773458
0.06815769 0.036517676 0.0032287342 0.05205035 0.122416034 0.14769691 -0.13789132 -0.06924022
-0.1552049 0.04737178 -0.07798133 0.1265686 0.0561926 -0.05566161 -0.032553617 -0.11879232
0.17330705 -0.11067601 -0.056328475 -0.0800123 -0.068901226 -0.010759542 0.0315728 -0.10719438
-0.109556206 0.17241882 -0.047209926 -0.05913935 0.07667506 0.044161376 0.09481624 0.10136568
0.08665569 -0.011862754 0.062481653 0.08940594 0.044443667 -0.07119234 -0.075636536 0.040761415
-0.077761404 -0.06660889 -0.12233786 -0.08234936 -0.1003331 0.068628274 -0.04188972 0.09281468
0.1562475 -0.12892117 0.09074985 -0.2189947 -0.006351134 0.031433836 -0.055592604 -0.0016798739
0.014595309 -0.075232975 0.05329092 -0.021534104 -0.057597894 0.053327978 0.078615665 0.13590033
0.03876305 0.13160665 0.012104624 0.029299073 0.11721653 0.043219026 -0.09251797 0.11006414
0.012630362 -0.03775823 -0.034513067 0.06749327 -0.09783964 -0.011102439 -0.07933585 0.025806842
0.077015966 0.018340522 -0.058921997 -0.1006533 -0.067257866 -0.06271174 -0.020152159 -0.024282886
-0.07666304 0.031798072 0.1592547 -0.037201796 -0.13284956 -0.054705456 -0.054718856 0.07428181
0.02043537 -0.069337875 0.1353427 -0.07340119 0.024689294 -0.0007699902 -0.117286675 -0.2590628
-0.04739473 -0.031731024 -0.03410802 0.11001052 -0.031156564 0.064465664 0.10075502 0.039098095
-0.11575365 -0.10100357 0.24356188 -0.033740543 -0.06014025 -0.054603536 0.019595243 -0.23452188
-0.068571016 0.07234109 -0.08288164 0.003716558 0.0079664 -0.062063117 -0.08050923 0.07337351
0.049605258 0.12169467 0.055155277 -0.08871806 0.18123959 -0.042046968 -0.0156075535 0.16213311
0.018500406 -0.05310721 0.08562347 -0.0073609953 -0.05291635 0.072133884 -0.036908563 0.080381684
-0.089547336 -0.008578532 0.01902256 -0.09333938 0.107714735 0.06721064 0.13077278 -0.19884335
-0.034769908 0.15641354 0.12250771 -0.027013097 0.12575261 0.18211986 -0.029972313 -0.06241321

network_body._body_endoder.seq_layers.4.bias f4 [128]
00000000: b36c 903b 5e6a 3cbb a1ed cf3b dece 72bb
00000010: f0fe 5cbb 9959 d9bb 07e0 a23b eac7 c03b
00000020: ba1e e1bb 5ace cfbb c165 dbbb e0aa 823b
00000030: 5149 c13b 3a49 493a 3917 d3bb 32c1 0cbb
00000040: efd0 29ba 59fc 86bb e775 9eba 1aa0 97bb
00000050: 687a e8bb 50bf d6bb 5976 a13b ca2a a93b
00000060: e474 a43b f5bc e73b ebf4 e9bb e69f db39
00000070: 45c6 b5bb 1eaf 573b 6fc1 e4ba 38ef e03b
00000080: 79f0 f93a 135b d3bb 4806 a8bb e332 e43b
00000090: 2869 d43b 9e3f 1f3b cfc6 afba 1fac e53b
000000a0: 8de0 8bbb 25d6 96bb 1a7d 9d3a d408 86bb
000000b0: 483e db3b 3378 c93b ac1b d43b ecb6 283b
000000c0: a8c6 5dbb d15e 72ba db6d d43a b28e d83b
000000d0: 8638 393b c0ba d73b 5f0c 44b9 6817 e1b9
000000e0: 17c1 a2bb 7df9 b2bb 4635 ae3b 4dc7 bfbb
000000f0: 4210 c8bb 73d2 d53b dc6e 47ba 331b cebb
00000100: fcae b1bb d883 443b e54d e1bb 6f3c a53b
00000110: 4e13 8b3b 322c f83b f580 ce3b 7e6c f1bb
00000120: 7aab c8bb 4a99 f539 4c6b 35bb e4cd cebb
00000130: 54c6 d43b bb05 c7bb 83d1 143b a6ae 2abb
00000140: 9bb4 b7bb 17fe eabb d7c6 82bb 9cf6 c8bb
00000150: 6b87 9dbb 4fcc d83b 1a9e a6bb 5686 e7bb
00000160: 77fc cdbb 032a c4bb 2f47 afbb 0b25 c13b
00000170: b8af 6dba 4ac5 a13b 3fa8 bfbb 3cc2 b639
00000180: 99f5 dcbb 7089 c43b b3b4 7039 a60a c63b
00000190: 30c3 b73b 2373 1c3b 9035 d53b af09 423b
000001a0: 0220 88bb c6cc b3bb 052f ea3b 4f7d a7bb
000001b0: 94ce 9ebb 8ea4 c2bb d9c8 833a 442d bd3b
000001c0: f649 a8bb 468f b4bb b0ca 8abb 3a7e d2bb
000001d0: 7fbc ad3b 8e7b d83b ebc0 bebb 4833 d5bb
000001e0: a631 e4bb e59c 453a 12d1 d43b 77de 9a3b
000001f0: ac5e 8b3a 6ae3 e93b 2d74 efbb 4e9f e5bb
0.004407489 -0.0028749923 0.0063454662 -0.0037049572 -0.003372129 -0.0066329953 0.004970554 0.0058832066
-0.006870118 -0.0063417377 -0.0066954796 0.003987655 0.0058986326 0.0007678453 -0.0064419773 -0.0021477458
-0.0006477972 -0.0041194377 -0.0012089581 -0.00462724 -0.00709467 -0.006553568 0.004927438 0.0051625716
0.0050188173 0.007072086 -0.007139792 0.0004189007 -0.005547317 0.0032910774 -0.0017452667 0.0068644546
0.0019068859 -0.006450066 -0.005127702 0.006964074 0.006482262 0.0024299393 -0.001341069 0.007009044
-0.004268712 -0.0046031647 0.0012015433 -0.004090408 0.006690774 0.006148362 0.0064730253 0.0025743796
-0.0033840332 -0.0009245696 0.0016207056 0.0066088075 0.002826245 0.0065835416 -0.00018696625 -0.00042932783
-0.0049668658 -0.00546187 0.0053164093 -0.005852616 -0.0061054537 0.0065253316 -0.0007607767 -0.0062898635
-0.005422471 0.0029985812 -0.006875741 0.0050426046 0.0042442447 0.007573628 0.006301994 -0.0073676696
-0.006123957 0.0004684425 -0.0027682362 -0.006311165 0.006493369 -0.006073681 0.0022707887 -0.002604404
-0.0056062466 -0.007171403 -0.0039909887 -0.0061329138 -0.004807403 0.0066161524 -0.005084765 -0.0070655746
-0.0062861997 -0.0059864535 -0.005349062 0.0058943084 -0.00090670167 0.0049368488 -0.005848914 0.0003485846
-0.0067431447 0.005997829 0.000229555 0.00604375 0.005607985 0.0023872338 0.0065066293 0.0029607823
-0.0041542063 -0.0054870574 0.0071467184 -0.0051113735 -0.0048464034 -0.0059400266 0.0010054364 0.0057732183
-0.00513577 -0.0055102436 -0.004235588 -0.006423739 0.0053020115 0.0066065257 -0.0058213375 -0.0065063573
-0.0069639264 0.0007538333 0.0064946497 0.004726227 0.0010633073 0.0071377056 -0.0073075504 -0.007007516

network_body._body_endoder.seq_layers.4.weight f4 [128, 128]
00000000: 0e6e 04be d99d 473d aff3 a8bd d7d1 dabb
00000010: 80f6 92bd f5b2 d8bc a1a5 48be 66a4 dcbd
00000020: 914b ddbd 309f b9bb 6a81 06bb 9817 813d
00000030: c792 26be 6946 06bd fff5 68be 6d28 3bbd
00000040: 56fd c1bd 8efc 1abb 4a73 e1bd 02c7 993d
00000050: b53c fe3c 458f ce3d 5cb6 903d c71f 1ebe
00000060: 2ea6 6e3d d640 21be 9bc1 5f3b 6076 2f3d
00000070: f70e 7e3d 3dae 993d a793 0e3e 2608 e7bd
00000080: 6193 80bd b004 2fbd 61b3 0fbd b77a 90bd
00000090: 6d4a 063e b888 6a3e 977c 65be c98a 82bd
000000a0: c8bd afbd 1004 d9bc 43ca 9b3d 5700 32bd
000000b0: 7143 26bc 82db e4bc db92 f03c cab6 37bc
000000c0: 83d8 4a3c b9d2 683e 02e4 13be 729b 91bb
000000d0: a13d 34bd 5cd6 dabd eeae 6ebc 7e82 b6bc
000000e0: 2b5c 0d3d 7f8b 1e3e 3d06 af3d 4477 2a3d
000000f0: 099a 373d 65f9 623d 9833 4cbe d4e9 873d
00000100: 0e89 8f3b e386 163d bf7b 963d 79c3 2f3e
00000110: 1424 0f3e d540 e33d 9280 aa3d 49f2 74bc
00000120: b1b0 5c3d e2d8 52be cc24 693d 1669 0abc
00000130: f8c8 e93b 4c95 2438 b3bc a0bd 6627 ebbd
00000140: d477 c739 ebdb d03c 6f25 e1bd 5959 48bd
00000150: 9baf 6abd b5e5 5b3d 7749 0ebe a33b 01be
00000160: 4716 febd 7f7f e6bd 55ac 96bd 1bba a63d
00000170: b2fc 5b3d 2e14 f33c 3907 cdbc 192e ed3d
00000180: 4cd5 9cba d3bc 85bc 4079 003e 53b4 b43c
00000190: 1681 7dbb cdbb 8e3d b2f5 e7bd 527c 463d
000001a0: 9572 50bd 674f adbb b397 273a 1d65 37bd
000001b0: f969 033b 0047 8fbb 8b4b 1d3d 67bd 333e
000001c0: 4eb2 003d 2aea 6abd 29c7 a8bd 97f4 46bd
000001d0: c6bb 41bd c28e 84bd 9e5d 253e fec2 b2bd
000001e0: e98f 1c3d 4a22 0cbe a3b2 a83d 99df cdbd
000001f0: 3cd2 753d a602 60bd ed9e 9c3c 110f 1a3c
00000200: 6d96 34bd 09a1 723c 0799 15bc b3ed b93d
00000210: 6a61 eebd 1530 76bd a3bf 183e 89a8 8fbd
00000220: 4c8d 57be 2715 403d c373 ecbd d0e6 3d3d
00000230: 5c7d 9cbd b415 58bc 498a 843d 563e c83d
00000240: 4bc2 37bd ec6c 58bd af17 d93c 9495 b23b
00000250: 8fb0 e4bd 5515 d6bd d7f9 02bd d959 4dbc
00000260: cb8f 983c d979 2bbb 6353 66bd 57f0 08be
00000270: 7caa 4cbe 6167 ca3d 493e 053e f523 073e
00000280: e1f0 0fbd f635 7ebd e000 9a3d 7383 5a3d
00000290: 808f a53d a66a b2bd 49ff 9bbd bdba 55bd
000002a0: d81d e7bc 989e b83d 5f69 dbbd ba9b a8bd
000002b0: 4895 ae3d 1591 213d e531 673d e85b f23c
000002c0: cd67 5bbd 8f6c ec3d 2091 b73d 1eb5 993c
000002d0: 3b7f 7e3d 124c 80be 0923 933d b993 38be
000002e0: 0dd2 ebbb 1b02 f2bc 3cbc e5bd c367 f63c
000002f0: b93f 823c 28b8 50bd 95d8 8cba 6c66 d4bd
00000300: 575c eabc b944 e63d e9d2 173e ad51 063e
00000310: 0731 0c3e 6057 ccbc 1194 043c 4404 cfbc
00000320: 78e0 e73c d1aa 2d3d e482 11be a9b8 383a
00000330: 5c48 e13d 2fb7 273d f0f8 463e a0ca af3d
00000340: 64e3 35bc e6e0 09be f494 f8bd 6eb1 3bbe
00000350: 0547 0b3e a715 4a3c 35b3 fb3d 3ee1 5c3d
00000360: 13b7 0b3d 8140 db3d bac7 47bd f956 72bc
00000370: 4eff abbd b485 733d c678 0cbe c4d2 52bd
00000380: e2d9 27be 7d26 083d b81e 02be 2654 e3bd
00000390: 8953 dd3c c42b b53d 2572 a1bd c2d9 8fbc
000003a0: 60e9 2e3e 5244 0c3e 4fb5 6abd 9480 9dbd
000003b0: f3b4 72bc ad1e ab3d bb3a 8a3d dc19 f5bd
000003c0: 1e29 2a3c ba88 aebd 8622 2f3e 3de6 eebd
000003d0: f696 dd3c a3ab 303e 284a 72be 0c33 15be
000003e0: 181f 5d3d cbed 31bd 519a 553d cb32 48bd
000003f0: fa13 ddbd 328e 39bd d282 66bd e5fd 2a3c
-0.12932608 0.04873452 -0.08249604 -0.006677847 -0.071759224 -0.02645252 -0.19594432 -0.10773544
-0.10805429 -0.0056647286 -0.0020523914 0.06303328 -0.16266929 -0.032781992 -0.2275009 -0.04569285
-0.09472148 -0.002364907 -0.11008318 0.07508661 0.031034807 0.1008592 0.07066032 -0.1544181
0.05826395 -0.15747389 0.0034142497 0.0428375 0.06202599 0.075039364 0.13923512 -0.11280851
-0.0627811 -0.04272908 -0.03508318 -0.07054656 0.13114329 0.22903717 -0.22410809 -0.063741274
-0.0858112 -0.026491195 0.07606938 -0.043457355 -0.010147915 -0.0279367 0.029366901 -0.011213014
0.012380722 0.22736634 -0.14442447 -0.0044435794 -0.044004086 -0.10685417 -0.014568074 -0.02227902
0.034511726 0.15482901 0.08546112 0.041617647 0.044824634 0.055413622 -0.19941556 0.06636396
0.004380352 0.03674973 0.073478214 0.1716441 0.13978606 0.1109635 0.08325304 -0.014950343
0.053879444 -0.20590547 0.056919858 -0.008447906 0.007134553 3.923969e-05 -0.078484915 -0.11482124
0.00038045517 0.02549549 -0.10993468 -0.048913334 -0.057296377 0.053685863 -0.13895212 -0.12620406
-0.12406593 -0.11254787 -0.073570885 0.081409656 0.053707786 0.029672708 -0.025027858 0.11581058
-0.0011965423 -0.01632539 0.12546253 0.022058642 -0.0038681678 0.06969414 -0.113261595 0.048458405
-0.050890524 -0.0052890065 0.00063931494 -0.044774164 0.0020052178 -0.0043724775 0.03840212 0.1755272
0.031420045 -0.057352223 -0.08241112 -0.048573103 -0.047298215 -0.064725414 0.16148993 -0.08728598
0.03822318 -0.13684955 0.08237197 -0.100524135 0.06001495 -0.054690026 0.01911875 0.009403006
-0.04408877 0.014808902 -0.009130723 0.09078541 -0.11639674 -0.06010445 0.14916854 -0.070145674
-0.21049994 0.046895172 -0.11545517 0.046362698 -0.07641098 -0.013188768 0.06471688 0.09777515
-0.044863027 -0.05283825 0.026500551 0.00544996 -0.111664884 -0.104532875 -0.031976547 -0.012533628
0.018623253 -0.0026165156 -0.056231868 -0.13372932 -0.1998691 0.09882999 0.13012041 0.1319731
-0.03514183 -0.06206318 0.07519698 0.053348016 0.08084011 -0.08711748 -0.07617051 -0.05218004
-0.028212473 0.09014624 -0.10713457 -0.082328275 0.08524567 0.039445 0.056444068 0.02958484
-0.05356579 0.115441434 0.08963227 0.018763121 0.062133055 -0.25058037 0.07184417 -0.18025102
-0.007196671 -0.02954202 -0.112175435 0.030078774 0.015899526 -0.050956875 -0.0010745699 -0.10371098
-0.028608484 0.112435766 0.1482655 0.13117094 0.13690577 -0.024944007 0.008091942 -0.025270589
0.028305277 0.04239923 -0.14210087 0.00070465595 0.110001296 0.040946182 0.194309 0.085835695
-0.011101577 -0.13464698 -0.121377856 -0.18329403 0.1360131 0.012334264 0.122900404 0.053925745
0.03411014 0.107056625 -0.04877446 -0.014791244 -0.08398305 0.05945368 -0.13717946 -0.051470533
-0.1639171 0.03323983 -0.12707031 -0.111000344 0.027017372 0.08846238 -0.078830995 -0.01755989
0.17081213 0.13697937 -0.057301816 -0.0769054 -0.0148136495 0.0835546 0.06749483 -0.11967823
0.01038578 -0.08522172 0.17103013 -0.11665008 0.027049523 0.17252974 -0.23661101 -0.14570254
0.05398473 -0.043439668 0.05214912 -0.048876565 -0.10794826 -0.045301624 -0.056277104 0.01043651
